best_race_model.pth (torch, 144445 bytes, 8 tensors)

fc1.weight f4 [128, 7]
000000 d7 f6 86 3e 4e 32 c4 3d 60 16 08 bf c4 8b ae bc
       0.263602 0.09579907 -0.5315914 -0.02130688
000010 b7 80 59 3e 37 99 25 be 7c ef c6 3e a0 1f 4f 3e
       0.21240507 -0.16171728 0.38854587 0.20226908
000020 2e 3f b5 ba 83 ff 23 3e b5 0e ae 3d ce 68 39 bd
       -0.0013828033 0.16015439 0.08498899 -0.045265965
000030 93 97 be be 10 d3 9a bf 71 8d c2 3e ae 52 5f 3e
       -0.37225017 -1.2095661 0.37998536 0.21808884
000040 bf 8c 88 3e 2e 85 60 3e 0c 9b 61 bf bf b4 90 be
       0.2666988 0.21925804 -0.8812721 -0.28262898
000050 7d fe 83 3c c8 a0 14 bd 60 44 77 bc 90 2c 16 be
       0.01611256 -0.036286145 -0.015091985 -0.14665437
000060 82 9e 34 be 87 d9 b8 3e 34 ed ca bd 66 50 91 be
       -0.17638591 0.3610346 -0.09908524 -0.28381652
000070 9f 3a 38 be b3 10 8c be db 98 9f be 69 d9 e9 3d
       -0.17991112 -0.2735649 -0.31171307 0.11418421
000080 a7 46 f4 3e e5 5d 49 be 39 79 67 3f 44 69 1e 3e
       0.47710153 -0.19664724 0.90419346 0.15469843
000090 fe 06 79 be 8d e7 25 3e 4c 15 7b be ae bf 72 be
       -0.24319074 0.16201611 -0.24519843 -0.23705932
0000a0 60 4c 7e be 4d e4 40 3d ef 46 9d 3e 86 e0 56 3f
       -0.24833822 0.047092725 0.3071818 0.83936346
0000b0 7d 35 a7 bb 91 76 3b be 97 70 99 be 37 79 0c be
       -0.005102812 -0.18306948 -0.29968712 -0.13718115
0000c0 55 a6 d5 be 6e f5 18 3e 19 58 7a bf 86 87 a0 bd
       -0.41728464 0.14937374 -0.97790676 -0.07838349
0000d0 2b 88 03 3f b7 82 b4 be be 53 a2 be 10 db 84 bf
       0.5137965 -0.35255978 -0.31704515 -1.0379353
0000e0 7f d6 d0 3d 2a ef d4 3c 73 72 a2 3e e0 3b 4c 3e
       0.10197162 0.025992949 0.31727943 0.19944715
0000f0 cf 63 a7 3e 70 3d 81 bd 3c 04 81 bf 91 bc 5d bd
       0.32693335 -0.063105464 -1.0079417 -0.05413491
000100 07 e4 28 bf 4c c9 39 3d 26 5d 72 3c fe 1f af 3d
       -0.6597294 0.045357987 0.014792716 0.08551024
000110 92 47 3e 3e 09 b3 3a 3f 4f 69 50 3d 6f f2 af 3e
       0.1858199 0.72929436 0.05088168 0.3436465
000120 5e 2b 42 bd 1b 36 7f bf 1f 36 9b bd c4 ec db 3e
       -0.04740464 -0.99691933 -0.07578682 0.42954075
000130 6b 42 bb bf 73 a7 1f be f6 6b c0 be a0 62 16 bd
       -1.4629644 -0.1559122 -0.37582368 -0.03671515
000140 54 c3 b8 bd d3 41 93 3e e0 f6 8a bc c3 e6 62 be
       -0.09021631 0.28761157 -0.016963422 -0.22158341
000150 99 9d 70 bd 35 f7 ca 3e 66 24 b4 be d7 56 2e 3e
       -0.058744047 0.3964173 -0.3518402 0.17025314
000160 ef d5 12 bf e8 05 aa be 4e fd 03 3f 85 c1 a2 3d
       -0.57357687 -0.3320763 0.5155839 0.07947067
000170 93 40 63 3e be 4e d4 be b2 95 5a bc f8 9c 09 be
       0.22192602 -0.41466326 -0.013341354 -0.13438785
000180 e2 b1 f9 bc 78 33 08 be a9 8d 3d be e2 32 0f bf
       -0.030480329 -0.13300884 -0.1851107 -0.55937016
000190 c4 26 85 3e 60 89 5e 3e 9b 4b 0c 3e df 89 d5 3e
       0.26006138 0.21732092 0.13700716 0.4170675
0001a0 60 13 67 3f 4e 3a 62 be d7 3b 80 be e8 0d 56 3e
       0.9026394 -0.22092554 -0.25045654 0.20903742
0001b0 19 54 80 bd 48 7d 8a be e6 eb ea 3d c6 d8 94 3d
       -0.0626604 -0.27048707 0.11470775 0.07267909
0001c0 66 32 26 be c3 a9 c9 3e 35 d6 bf 3e 48 ee 9c bd
       -0.16230163 0.3938733 0.37468114 -0.07662636
0001d0 6d 28 89 3e 33 88 1f be 99 7b 52 bf 09 57 9a be
       0.26788655 -0.155793 -0.82219845 -0.30144528
0001e0 4a dd 7d 3e d3 4a 18 be 84 be 83 be 08 3d a1 be
       0.24791446 -0.14872293 -0.2573129 -0.31491876
0001f0 2e 78 b0 be 5e 90 5e 3d 59 e4 fc be 55 e8 f2 bd
       -0.3446669 0.054336898 -0.49392965 -0.1186072
000200 e9 c3 98 3e ed bf 77 bb 1f a8 8d 3e ac db ae bb
       0.29836968 -0.0037803606 0.2766733 -0.0053362455
000210 ae 98 dc bf c6 b8 31 bf 6a c0 58 bf bb 4f b4 3e
       -1.7234094 -0.69422567 -0.846686 0.3521708
000220 6e b3 0c b9 70 ee 8e 3e 3d 98 19 bf f3 5e 97 bd
       -0.00013418283 0.27916288 -0.5999792 -0.07391157
000230 9e c9 62 be ac f0 8a 3d 7d 65 f6 3e 09 55 20 3e
       -0.22147223 0.06784186 0.48124304 0.15657438
000240 7e 8f 45 bd 41 b8 3a be 5f 60 9d bf 2f dc 73 bf
       -0.048232548 -0.1823435 -1.2295035 -0.9525785
000250 00 9f 1c be 23 03 ae 3e d0 96 75 bd a4 c5 a4 3e
       -0.15295029 0.33986768 -0.05995828 0.32182038
000260 75 d3 da 3e c5 5d 9d bf 47 8f 7d 3e dd 6d a1 bf
       0.42739454 -1.2294241 0.24761687 -1.2611653
000270 8e af ca 3d 15 60 6c 3e 82 18 86 3e 9d 9a 96 3e
       0.09896766 0.23083527 0.26190573 0.29414836
000280 e9 e1 a6 be 52 10 3b be 41 df 0a bf 3d e1 a8 3d
       -0.3259423 -0.18267944 -0.5424691 0.08246086
000290 24 dc 49 be 8b 61 e5 3e c9 d7 9b 3e 83 08 8f 3f
       -0.19712883 0.44800982 0.30438069 1.1174473
0002a0 82 d9 44 3e 44 aa 5e be a4 4e 68 3e ce 2e bb 3d
       0.19223598 -0.21744639 0.22686249 0.09139787
0002b0 fc 5a ff be fa e4 71 be 64 74 af 3e 8c a2 47 be
       -0.49874103 -0.23622504 0.34268486 -0.194956
0002c0 de 97 0a be 9b 93 19 be 70 37 e5 bd 7d ed 05 be
       -0.13534495 -0.14997713 -0.111922145 -0.13078876
0002d0 08 c1 30 be 08 47 fa bd 2a 89 14 3d 05 4b e3 3d
       -0.17261136 -0.122205794 0.036263622 0.11098293
0002e0 9b 81 e6 3e 59 09 ae bc 53 5d 8c 3d e5 08 0c be
       0.45020756 -0.021244692 0.06853738 -0.13675268
0002f0 73 8d 97 bf b9 a0 f0 bd 46 3c a6 bd 77 bd 04 3e
       -1.1840042 -0.117494054 -0.08116965 0.129629
000300 6b 51 4f 3e ca d9 8c 3e 13 59 ae 3e 5b a6 90 3f
       0.20245902 0.2750991 0.34052333 1.1300768
000310 82 39 f6 bd 50 f8 8d be b4 b6 51 bc 11 03 a6 3d
       -0.120226875 -0.2772851 -0.0127999075 0.081060536
000320 cc 0a 5b 3e d3 63 ef be 9f 88 5a be 19 9d 97 3e
       0.21390837 -0.46755847 -0.2134118 0.29612043
000330 ed 56 80 3d 02 94 b1 be 68 4e 97 3e e3 bc 0f bf
       0.0626658 -0.34683233 0.29552007 -0.56147593
000340 5e 95 97 be 9f 09 a9 be dd ec 02 3f 42 58 df bd
       -0.29606146 -0.33015153 0.51142675 -0.10905506
000350 94 ae cc 3e 2f 1a d3 3d 9d 37 28 bd b2 21 15 3f
       0.39976943 0.103077285 -0.041068662 0.5825454
000360 95 60 96 bf 85 68 07 bf 0c 09 69 3e c8 ff fb 3d
       -1.1748224 -0.5289386 0.22757357 0.12304646
000370 f1 69 9f be 75 e2 20 bf 60 71 1f 3e 3c 24 ce 3e
       -0.31135514 -0.62845546 0.15570593 0.4026202
000380 67 4e 15 3e 88 12 b4 bc 25 93 8a be d2 22 86 3d
       0.1458069 -0.021981493 -0.27065387 0.0654961
000390 8c bd f3 3d 45 ed 2d be 82 31 3c 3f f2 11 be be
       0.119013876 -0.16985042 0.7351304 -0.37123066
0003a0 6c c6 e5 3d 5c fc e4 3d 4f 1f 16 be af f6 84 be
       0.112194866 0.11180946 -0.14660381 -0.25969455
0003b0 0a 86 11 3e 8a 28 88 be 65 ec 11 3e e8 07 d7 be
       0.14211288 -0.2659343 0.14250334 -0.4199822
0003c0 93 b1 3b 3d d8 b5 ae be b8 8f 48 be 74 ba 91 3e
       0.045823645 -0.3412311 -0.19586074 0.28462565
0003d0 c2 24 6c be b8 ec 7a 3d fb cb a9 3e bc 57 5b be
       -0.23060897 0.06126091 0.33163437 -0.21420187
0003e0 f5 09 66 be 50 59 4a bd 52 26 30 3e 73 90 26 be
       -0.22464736 -0.04940158 0.17202118 -0.1626604
0003f0 fb 07 af 3e 3c 4c a2 be bc 88 a5 3d 80 3f ad bc
       0.34185776 -0.31698787 0.08082721 -0.021148443

fc1.bias f4 [128]
000000 d2 7f 5d 3e 55 fd 90 3e ea f4 79 be b9 cd 7a be
       0.21630791 0.28318277 -0.24409834 -0.2449254
000010 66 65 89 3e 8b 36 9f be a3 b9 bb bd 50 26 c6 3d
       0.26835173 -0.310963 -0.09166267 0.09675276
000020 6e 09 c0 3d 66 6d a6 3e db 52 92 be e0 2e cb bd
       0.093767986 0.3250534 -0.2857884 -0.0992105
000030 79 17 27 be 25 b4 b2 be e0 87 5f 3e 72 8a cc be
       -0.16317548 -0.34903064 0.21829176 -0.39949375
000040 8e 52 05 3e d5 27 a0 be 32 3a 9c bc 5b 00 e5 3e
       0.13019773 -0.3128039 -0.019070718 0.44726834
000050 6c b5 36 3e 88 bf e0 3e 02 07 06 3f 99 09 75 3e
       0.17842644 0.43896127 0.52354443 0.23929442
000060 a8 ab 10 3d c0 3a 55 bc 64 06 c0 bc bb 39 4c be
       0.035319954 -0.013014495 -0.023440547 -0.19943897
000070 f0 76 04 3e 0e 33 ea 3d d3 16 2f be e3 d7 3b be
       0.12935996 0.11435519 -0.1709855 -0.18344073
000080 4e 24 12 be 36 05 ab be 72 29 8c 3d 36 5c 4e be
       -0.14271662 -0.33402413 0.068438426 -0.20152363
000090 4c e2 8c be 4e b8 77 be e4 0c 12 3e b8 96 a8 be
       -0.275164 -0.241914 0.1426273 -0.3292749
0000a0 6d b5 8d 3e df 39 c8 be 00 77 e8 3e 62 e7 8e be
       0.2767748 -0.39106652 0.4540329 -0.27910906
0000b0 4b 1b e8 bd 45 82 ec bd cb 4e c1 be 06 55 ca 3b
       -0.11333331 -0.115482844 -0.37755427 0.0061746864
0000c0 62 7e fb 3d 4e e4 66 bd d8 fe b7 bd a3 db 81 3d
       0.12279965 -0.056370072 -0.089841545 0.063407205
0000d0 12 37 15 3d 97 af 97 3c df 56 90 3e 86 76 e6 3e
       0.036429472 0.018516345 0.28191277 0.450123
0000e0 7d 73 e2 3e 73 6b a3 be ee 52 81 3e b1 e6 a7 3e
       0.44228736 -0.31917915 0.25258583 0.3279319
0000f0 3a 02 1b be b1 c4 23 be 32 40 de 3d f1 8a d3 3e
       -0.15137568 -0.15993 0.10852088 0.4131694
000100 88 78 8d 3d ae 63 2a 3e cb a1 b4 3e 78 e0 08 be
       0.06907755 0.16639587 0.35279688 -0.13366878
000110 f4 48 9b 3d a7 51 75 3d f1 be 6e 3e 4d 84 57 be
       0.07582274 0.059892323 0.23315026 -0.21046562
000120 13 84 cc be 33 a3 90 be ef 35 93 3d 46 35 77 3e
       -0.39944515 -0.2824951 0.071880214 0.24141416
000130 16 15 48 bd 20 c4 08 3c 22 7e 5c bd 67 11 bb 3e
       -0.048848234 0.008347541 -0.053831227 0.36536714
000140 bd 6f bc 3e ba 3d 31 be b4 a9 ad be c8 4f 23 be
       0.36804 -0.17308703 -0.33918536 -0.15948403
000150 06 9e 9d bb 8d 40 b9 3d 8b 57 84 bd 46 41 76 3e
       -0.0048100976 0.09045515 -0.0646201 0.24048337
000160 37 be b8 bb d6 48 fb 3d e8 4b 58 3d 95 1a 1c bd
       -0.0056379098 0.12269752 0.052806765 -0.038111288
000170 d5 84 90 bd a2 ab 25 3f fc f8 33 be bf 4c 2a bc
       -0.07056586 0.64715016 -0.17575449 -0.010394274
000180 96 f7 c5 3e 8e bc 1f 3e d2 8d 92 be e4 82 db bd
       0.38665456 0.15599272 -0.28623825 -0.10718325
000190 ec 28 75 3e 54 0f c0 3e 70 4e 27 be 2e 17 5c 3d
       0.23941392 0.37511694 -0.16338515 0.053733043
0001a0 4d af 20 bd 0c 65 bd be 76 93 5c 3c 87 94 6d be
       -0.03922968 -0.36991155 0.013462892 -0.2320119
0001b0 3b a8 88 3d 7f b4 b8 be 79 8e 9e 3e d8 a1 b2 be
       0.066727124 -0.36075208 0.30968073 -0.34889102
0001c0 08 62 ff 3d 0c b3 5b 3d 2d e7 d9 3d dd bc 81 3e
       0.1246987 0.05363755 0.106397964 0.25339404
0001d0 2a ea b1 3e 16 21 78 3e 2a 17 c3 bd c4 67 1d 3d
       0.34748966 0.24231371 -0.095259026 0.038429037
0001e0 ab 74 62 39 80 89 0c 3e 5c cb 31 bd 3e d1 bd 3d
       0.00021596502 0.13724327 -0.04340683 0.092684254
0001f0 bd 53 bf bd 24 76 d5 be d2 62 ae be 74 ec 27 3e
       -0.09342144 -0.41691697 -0.3405977 0.16398793

fc2.weight f4 [128, 128]
000000 b7 06 ae 3d 1b f0 ab bd 13 21 ac 3e 38 2d b9 3c
       0.084973745 -0.08395406 0.33618984 0.02260457
000010 61 1d 49 3e a4 d4 be 3c 28 50 d4 bc 2b 1c ed 3f
       0.19640113 0.023294754 -0.025917128 1.8524221
000020 b7 72 a1 b9 7c e9 07 3c 90 d2 37 bf 38 d5 71 bd
       -0.00030793782 0.008295413 -0.7180567 -0.059041232
000030 ca 4c f7 bc 2d ea 3c bd 81 99 28 3e 4b 65 0d 3d
       -0.030187983 -0.046121765 0.16464807 0.03452043
000040 cb 3c 15 3c d5 90 7c 3d 95 aa f5 bf 31 ca 3c be
       0.009108732 0.06166156 -1.9192683 -0.18436505
000050 a6 fb c0 bc ef a1 85 3f fa 32 84 3f 4f 29 55 3e
       -0.023557495 1.0440043 1.0328057 0.20816539
000060 27 af 9d 3e 10 11 13 3c 4c 6f 97 bd 14 72 79 3e
       0.30797693 0.008976236 -0.07394275 0.24359924
000070 e3 1c c2 3e d6 c3 ff bc f7 05 bd be bd a5 f2 3d
       0.37912664 -0.031221312 -0.36918613 0.11848018
000080 ca 51 43 3d 8b 70 6b bd 98 bd 7a bd 00 f9 8f 3a
       0.047685422 -0.057480376 -0.061215967 0.0010984242
000090 34 51 f1 bc 75 fb a6 3e de d1 12 bd 46 38 f2 bc
       -0.029457666 0.3261372 -0.035844676 -0.029567849
0000a0 6f 9b 54 be a1 cd 41 bd a4 06 17 bf 94 82 cd be
       -0.20762418 -0.047315244 -0.5899451 -0.40138686
0000b0 e9 40 94 3e 55 90 92 be 7d 9d 44 bc fd 9a df bc
       0.28955773 -0.28625742 -0.012000439 -0.027295584
0000c0 ed 4f 3c 3d cc 11 63 3e e9 3e 58 3e a2 d6 95 3e
       0.04597466 0.22174758 0.21117748 0.29265314
0000d0 f3 2b ef be a2 cd 87 be 0d 39 79 3e d2 fc 8e 3e
       -0.46713218 -0.26524073 0.2433817 0.27927262
0000e0 9c df 2f 3f 79 65 5a 3d df 3b 7f bd b4 c7 fe 3d
       0.68700576 0.053319428 -0.062312957 0.12440434
0000f0 a6 e1 11 3d 14 fc d3 bc 14 30 87 3e ec 88 d1 3d
       0.035615586 -0.025877036 0.26403868 0.10231194
000100 62 71 40 3c 8e 3d f1 3e 49 07 db 3c 62 af 95 bc
       0.011745783 0.47117275 0.026736872 -0.018272106
000110 ac 3c 8b be fe 9f 7f 3e c2 2f dc 3d 93 20 86 3e
       -0.27194726 0.24963376 0.107512966 0.26196727
000120 8b 0c 6c 3e ff ee a6 bd ac 21 b1 bd 54 ce 5d 3f
       0.2305166 -0.08151054 -0.086490005 0.86642957
000130 7f e6 a5 bd 0e a2 9f bd df ca e2 be b6 e9 bf bb
       -0.08100604 -0.07794581 -0.44295403 -0.005856718
000140 55 9c 0e 3f a2 1f 4d 3d 43 f5 69 3e 6c 6c 92 be
       0.55707294 0.050078996 0.22847466 -0.28598344
000150 36 16 8a 3f 4e 7f 4f be e1 52 68 3e a2 90 41 3e
       1.0788028 -0.20263407 0.22687866 0.1890283
000160 33 25 06 be 7a a3 2b 3e a5 e5 fe 3d a7 ee 45 bf
       -0.13100128 0.1676158 0.12446145 -0.7731728
000170 bf 2f 2b 3f 42 b6 d7 3f 73 2b 20 3e 8c ea ec be
       0.6686973 1.6852496 0.15641575 -0.46272695
000180 12 e0 21 be 15 b8 18 3e c4 40 ad bd 68 49 34 3d
       -0.15808132 0.14913972 -0.08459619 0.04401532
000190 68 a0 d1 bd 26 06 9a 3e 85 1f d2 bd de a5 57 3e
       -0.10235673 0.30082816 -0.10259918 0.21059367
0001a0 49 99 b0 bf c6 89 90 3e c0 5e 60 3c 49 4b c8 bc
       -1.3796779 0.28230113 0.013694465 -0.024449961
0001b0 14 d9 41 3d d5 b5 aa bd 1f f4 2d 3e a5 78 30 bd
       0.047326162 -0.08335463 0.16987656 -0.043083806
0001c0 d1 ed bf bd d9 62 09 be 20 5e 18 3e ea 1f 33 be
       -0.09371532 -0.13416614 0.14879656 -0.17492643
0001d0 0a d7 04 3e 22 b8 81 3f f3 6a 72 bd 92 86 17 bf
       0.12972656 1.0134318 -0.059184026 -0.59189713
0001e0 33 e5 4b be f0 59 ed 3f 4d 1d 72 3d aa 67 1e 3e
       -0.19911651 1.8543072 0.059109975 0.15469232
0001f0 2f fc fe bd e4 65 4b bc a3 dd b2 3d 77 fa b7 bd
       -0.12450444 -0.012414429 0.0873368 -0.08983319
000200 0e d5 4f 39 0c 2a 9e ba 98 1f eb 3e 4d 8f 61 bd
       0.00019820427 -0.0012066974 0.45922542 -0.055068303
000210 a1 e9 4f bd 43 22 71 bd f1 2a 2f 3e 45 24 f4 3f
       -0.050759915 -0.058870565 0.17106225 1.9073569
000220 a0 00 d8 bd d4 66 0d bd 04 9b 2b bf 90 7c 94 bd
       -0.10546994 -0.034521893 -0.6703341 -0.07250321
000230 31 ad 55 3d 4c 7e 14 bc 32 1e ba bc 85 34 9c bd
       0.05216712 -0.009063315 -0.022719476 -0.07627205
000240 e2 42 37 3d 00 4c 29 3d 95 34 b9 bf 24 f8 86 be
       0.04474152 0.041332245 -1.4469172 -0.2636119
000250 63 84 37 be fb 77 89 bf 99 5f d5 3f d0 42 4f 3e
       -0.17921595 -1.073974 1.6669799 0.2024033
000260 22 aa 81 3e 92 f7 61 3d 1b cd 6e 3d 4f ad be bb
       0.25325114 0.055167742 0.058301073 -0.005819
000270 c0 2b bc 3e e8 d0 8b 3d 18 d6 e2 be 30 0a 99 3e
       0.3675213 0.06826955 -0.44303966 0.29890585
000280 7f c4 10 3d 14 32 34 bd 72 a6 85 3d 66 4f 2f 3d
       0.035343643 -0.04399307 0.065258875 0.04280033
000290 29 bc 99 bd 5f b7 02 3f ba ce 20 bd b7 db 9a 3d
       -0.07506592 0.5106105 -0.03925965 0.075614385
0002a0 e4 62 86 bd cd 48 91 3d 92 07 56 bf 9d 8d 86 3d
       -0.06561831 0.07093964 -0.836053 0.06569979
0002b0 fd aa 3e 3e 15 04 66 be 78 9a d9 3d d7 02 13 be
       0.18619914 -0.22462495 0.10625166 -0.14356552
0002c0 e5 6b 8d 3e 6e b0 62 3e 5e 36 94 3d cf af 67 3e
       0.2762138 0.22137615 0.07236932 0.2262566
0002d0 3f f8 e4 be 82 bf 3e be 73 4f 72 3e 8f 82 53 3e
       -0.44720647 -0.18627742 0.2366312 0.20655273
0002e0 dd 4e d8 3e 33 da 11 3e 17 ab 02 be 37 86 a2 3e
       0.42247668 0.14243393 -0.12760578 0.31743023
0002f0 fe 4c 88 bd af 9c 92 3d 1c 82 e2 3e 98 90 02 3b
       -0.0665531 0.07158791 0.4423989 0.001992261
000300 5f 28 cb bd 59 a7 fc be d0 92 06 3f 81 78 90 3d
       -0.099198096 -0.49346426 0.5256777 0.07054234
000310 23 bf ee be a6 c7 1d be a9 b8 f2 3c 26 04 e4 3d
       -0.466302 -0.15408191 0.029629068 0.11133604
000320 9f 22 df be 48 a2 a0 be 5a e7 20 3e f7 00 0d bf
       -0.435811 -0.3137381 0.15713254 -0.550796
000330 09 0b cb bc 76 0a 4b 3d 55 cf 93 be f2 4a 44 be
       -0.024785535 0.049570523 -0.2886912 -0.19169214
000340 47 8f e1 3e a6 68 51 3d 79 22 6e 3e 98 97 99 3c
       0.44054624 0.05112519 0.23255338 0.018749043
000350 6c 76 59 3f 8c 6d da 3c 9d d1 1c 3e 8b ec 57 3e
       0.8494632 0.026663564 0.15314336 0.21086328
000360 fe bf 2c 3d 5e 92 fb bd b5 29 2e 3d 18 90 1a bf
       0.042175286 -0.12283777 0.042520244 -0.6037612
000370 26 14 9a 3f d6 ab bb 3f d3 f2 3d 3e 03 97 10 bf
       1.2037399 1.4661815 0.18549661 -0.56480426
000380 d0 c7 a9 bd 5e 46 e9 bd d4 ca ad 3c cd 34 7e 3d
       -0.08290064 -0.113903746 0.02121488 0.062062073
000390 af 6c a3 be 6d b2 0f 3f 18 90 03 be b4 dd 80 3c
       -0.31918857 0.5613163 -0.12847936 0.015730716
0003a0 1f a9 5f bf fd c6 0a 3d c5 87 1a 3e d0 22 0c 3e
       -0.87367433 0.033881176 0.15090854 0.13685155
0003b0 b2 af da bd a6 81 0c 3d fb f3 2c 3e 72 a5 51 3d
       -0.106780425 0.03430333 0.16889946 0.05118317
0003c0 18 3a 08 3f df 2e 1e 3e 79 45 52 3d b3 8a 31 be
       0.53213644 0.15447567 0.051335786 -0.17338066
0003d0 3d 15 8a 3d 3f e8 ad 3f ac 2c aa bc 34 27 41 bf
       0.06742332 1.3586501 -0.020773254 -0.75450444
0003e0 70 ad 02 be cf dc 00 40 e7 71 28 bd 0f 2d 52 3d
       -0.12761474 2.013477 -0.04112425 0.051312502
0003f0 4f 1a e1 3d be bd 7a bd cd 62 2e 3e 3e 27 e7 3d
       0.10991346 -0.06121611 0.17029877 0.11286782

fc2.bias f4 [128]
000000 8a 4e 33 3d 75 83 91 3d 2c f0 ca 3b 29 38 96 bd
       0.043776073 0.071051516 0.0061931815 -0.073349304
000010 b4 b9 1b bd 28 3b 33 3e f6 e4 1f bd 84 df c1 3d
       -0.038018897 0.17503035 -0.039036714 0.0946646
000020 79 a5 8c 3e 04 54 f5 3c 18 cc 20 bd 59 5a 6f bd
       0.27469996 0.029947288 -0.03925714 -0.05843577
000030 76 dc dd 3d 1e 04 d4 bd 37 52 47 ba 08 c2 5d bc
       0.10833065 -0.10352348 -0.00076034985 -0.01353503
000040 6c ae 4e bd aa da 2d bd 87 48 02 3e 62 4d 60 bd
       -0.05045931 -0.042444862 0.1272298 -0.054761298
000050 24 a2 cb bd 64 6b dd bc b0 1f 19 3e cb fc df bd
       -0.09943035 -0.027028747 0.14953494 -0.10936888
000060 a8 63 df bc ad ac 98 b9 e6 1b 80 3d ad 51 82 3d
       -0.0272692 -0.00029120353 0.06255321 0.06363235
000070 a4 be 67 3c 17 d6 da bd 6a 18 aa 3d 99 cd 58 3b
       0.014144573 -0.10685366 0.08305438 0.003308153
000080 72 40 4c 3d 21 8d d5 bc 8e b6 7a bd ee 26 3a bd
       0.049866147 -0.026068272 -0.061209254 -0.045447282
000090 f6 6f e0 bc 8c 2d 9c bd 1b 3d b6 bc d0 57 09 3e
       -0.027397137 -0.07625875 -0.022245934 0.13412404
0000a0 9a 0b b0 3d 3e 03 9b bd fe f2 61 bc a8 30 37 bd
       0.08595963 -0.07568978 -0.013790844 -0.044724137
0000b0 57 cc 70 3e 8f d5 84 3d e5 db 92 3d 9e 8e 78 bd
       0.2351545 0.064860456 0.07170848 -0.060682885
0000c0 06 86 73 bd 84 e0 0d 3e e9 09 b5 ba 4b da 24 3e
       -0.059453987 0.13855177 -0.0013812158 0.16098897
0000d0 b7 59 39 3d 1c 7f b9 3d f3 36 0b 3d a0 b4 04 bd
       0.045251574 0.09057447 0.03398795 -0.03239882
0000e0 91 0f af 3d 1b cc 1c 3b 3d c8 dc 3d a5 1e be bc
       0.08547891 0.0023925367 0.1078038 -0.023207972
0000f0 f3 72 0b 3e 23 2c ab 3e 83 28 b0 3c ca 85 b4 bd
       0.13618068 0.3343211 0.021503692 -0.08814581
000100 47 6a 24 3e b8 f8 c1 bd fd 0b 52 3d 58 79 1a 3d
       0.16056167 -0.094712675 0.051280964 0.03771338
000110 07 9b db 3c 92 ea cb bd eb fc b3 bd e9 60 70 3d
       0.026807321 -0.0995685 -0.08788475 0.05868617
000120 4f 4e 54 3d b6 a2 36 3d 2c 43 c6 bc 78 99 d4 bd
       0.051832493 0.044588767 -0.024201952 -0.10380834
000130 13 24 c5 3c 8a aa b0 bc 20 49 13 3d ed 88 39 3e
       0.024065053 -0.021565694 0.03595841 0.1811864
000140 fc 07 01 3d 23 5b 17 bd 61 c0 bc 3d 95 d0 23 3e
       0.031501755 -0.03695215 0.09216381 0.15997536
000150 7e c0 0d 3e 07 ad aa 3d 30 d8 e0 3c 0e 87 fa 3d
       0.13842961 0.083337836 0.027446836 0.12232791
000160 fb a7 4d bd 47 62 bc bc 25 41 9c 3d fc 30 14 3d
       -0.050209027 -0.022996081 0.07629613 0.036179528
000170 a6 39 cb bc f3 64 e1 3d d2 57 b2 bb 9b 9e 10 3e
       -0.024807762 0.11005583 -0.005442598 0.14123003
000180 28 e8 b1 3d b8 ed e4 bc 88 d9 6a 3e e0 bc 4f 3c
       0.086868584 -0.027945384 0.22934544 0.012679309
000190 3d e7 18 3e 76 0e 89 bd fb 61 d4 3d aa 37 de 3c
       0.1493196 -0.06692211 0.10370251 0.027126152
0001a0 37 1a e1 3c a3 04 af bd 29 98 63 bd 3f 0c 33 3d
       0.02747832 -0.08545806 -0.055565033 0.04371285
0001b0 24 56 4f 3d 1b 8f af bd 55 44 c4 3d 64 3a a0 bd
       0.05061926 -0.08572217 0.09583346 -0.07823637
0001c0 fe 97 76 3d f5 47 da 3d f5 c6 8d bd 60 80 fd 3c
       0.060203545 0.10658256 -0.06922714 0.030945003
0001d0 55 85 9d bd 0d cf c4 bd d0 44 ef 3d a4 c2 b6 bd
       -0.07691447 -0.09609804 0.11683047 -0.089238435
0001e0 f6 ec 6e 3d a3 30 29 bd 87 17 29 3d 1b 87 81 3d
       0.058331452 -0.04130615 0.041282203 0.063245974
0001f0 24 49 3d bb 51 31 2b 3e b1 e9 d4 3d 88 cd 2b bd
       -0.0028882707 0.16718031 0.103961356 -0.041944057

fc3.weight f4 [128, 128]
000000 35 2c bb 3c 50 53 ad 3c e4 c4 49 bd ae a0 54 bd
       0.022848228 0.02115789 -0.049260035 -0.05191105
000010 f7 b2 9a 3d 4c 43 78 3d fb dc e2 bd d0 5c 0d bd
       0.07553666 0.060611054 -0.11077305 -0.03451234
000020 9d cc 99 bb 40 31 8a ba 93 21 a3 bd 40 ad bf ba
       -0.0046935813 -0.0010543242 -0.07965388 -0.0014623776
000030 1e ed c2 bd 20 7f 4f 3b 31 f5 0b 3b 86 2d 45 3d
       -0.09517883 0.0031661466 0.0021355862 0.048139118
000040 de fd 71 3d 64 38 a1 3c 96 61 ae bd c0 bc 94 bb
       0.059079997 0.01968021 -0.08514707 -0.0045391023
000050 1e 8c d7 bc 43 3f 20 bd 7e 91 4c bd 32 06 61 3d
       -0.02631193 -0.03912283 -0.04994344 0.05493755
000060 80 31 d6 bc a6 fa de bc f6 b2 d5 bd 6f a4 fa bd
       -0.02614665 -0.027219128 -0.10434525 -0.122383945
000070 5b 4b 9e 3d 7f 93 88 3d 89 29 e2 bb b4 17 dc 3c
       0.07729217 0.06668758 -0.006901924 0.026866771
000080 8e 25 18 bd 81 9f b1 3d 2b d6 9a 3d 2d 54 b6 3c
       -0.03714519 0.08673001 0.075603805 0.022256935
000090 a8 7b a5 3b 34 06 e3 3c 1c b9 48 3d a9 c7 55 bd
       0.0050501414 0.027712919 0.04900466 -0.052192364
0000a0 ef 66 1e 3d 70 e1 82 3b 0e 86 25 3d 27 be 91 bd
       0.038672384 0.0039941594 0.040411048 -0.07116347
0000b0 e3 de a7 bd 29 08 a7 bc c5 12 cf bd 34 9c a4 bd
       -0.08196809 -0.020389633 -0.10111002 -0.08037606
0000c0 0b 9a 56 bd 81 f2 a2 bd f0 f1 ce 3c 51 53 25 bc
       -0.052393 -0.0795641 0.02526185 -0.010090665
0000d0 a4 a5 87 3c 05 c1 89 bd f1 a8 2d bd f8 0e a7 3c
       0.016558476 -0.06726269 -0.042397443 0.02039288
0000e0 cb 05 2f 3d 1e 6e d4 bd 4e d8 e3 bd 18 39 0b 3c
       0.042730134 -0.10372566 -0.11125241 0.008497499
0000f0 77 e2 32 bc 8e cb ba bc c8 9b ea bd c0 64 9e 3c
       -0.010918251 -0.02280214 -0.11455494 0.01933515
000100 e4 9b c2 bd 00 7c 94 3a 90 c8 02 3d fd 5e a2 bd
       -0.0950239 0.0011328459 0.031929553 -0.07928274
000110 71 ff 8e bd a9 ee a5 bd 7c 24 19 bd c0 19 a5 bd
       -0.06982315 -0.081021614 -0.03738831 -0.08061552
000120 ea c4 d1 bd 6e 5b 49 bd da d5 37 3d 20 90 c3 bb
       -0.102426365 -0.04915946 0.04488168 -0.005968109
000130 1a 5e 8b bd 2a aa 66 bd 43 26 93 bd 5d b6 c2 bc
       -0.06805058 -0.056314625 -0.07185032 -0.023768598
000140 54 22 73 bd c3 f3 8e 3d 1b 43 c1 bd 82 10 87 bd
       -0.05935891 0.069800876 -0.094366275 -0.065949455
000150 cc 8d 99 3c e7 2a 2e 3d 75 df 98 3d c9 d1 f5 bd
       0.018744372 0.042521384 0.07464496 -0.12002904
000160 b7 cc 8d bc d5 a4 49 bd 2f b0 60 bd 61 2f 85 bd
       -0.01730953 -0.04922946 -0.05485552 -0.065031774
000170 88 bb b1 bd d0 f1 97 bd b7 87 27 3d fe 25 3d 3d
       -0.08678347 -0.07419169 0.040900912 0.04617881
000180 54 28 2e bd 48 6e 26 3c b8 b6 e1 3a d9 5e f7 bd
       -0.04251893 0.010158129 0.0017220592 -0.12078638
000190 7e 83 ab bd 62 1e 3e 3d 0d 77 33 bd 2c e8 8d bd
       -0.083746895 0.046415694 -0.043814708 -0.06929049
0001a0 91 b2 74 bd 00 81 49 3b 4e 7e 9a bd 0e 2b 62 3d
       -0.059740607 0.0030747056 -0.07543622 0.05521684
0001b0 15 d4 b0 bd af 67 95 3d 7e 26 69 3d f8 78 75 3c
       -0.086342014 0.07295167 0.056921475 0.0149824545
0001c0 c6 7e 57 bd a4 23 e2 bd ff e6 ab 3d 7e a7 5e 3c
       -0.052611135 -0.11041954 0.083936684 0.013589738
0001d0 24 db 95 bd d3 7f 98 3d 91 b6 71 bd af 44 a6 bd
       -0.073171884 0.074462555 -0.059012 -0.08118569
0001e0 b7 37 82 bd 6b 38 90 3d a9 c5 a6 ba 1e 00 a1 bd
       -0.06358283 0.07042011 -0.0012723702 -0.078613505
0001f0 38 6e b4 bd c4 e3 e9 3c 03 71 b8 bd df 08 92 3d
       -0.08810085 0.02855099 -0.0900593 0.07130598
000200 9b f5 23 be 29 fe 38 be f1 f1 bf bd e8 d6 5c 3c
       -0.1601166 -0.18065704 -0.093723185 0.013478972
000210 0c 4e 05 bd 87 d7 74 3e 5c 13 f8 3e 9b 7c ad 3e
       -0.032545134 0.23910342 0.4845227 0.3388413
000220 f9 3a 48 3e f9 c9 0b bc e5 30 fc 3e 28 a7 b9 bd
       0.19553746 -0.008532041 0.49256054 -0.09065086
000230 7d ac cf bc d9 87 95 bd 9f d3 e1 3e c8 79 e9 3c
       -0.025350804 -0.073013015 0.44106767 0.028500453
000240 9a 19 e8 3c 54 3a 86 bc d1 11 b4 be 46 ba 32 3d
       0.02833252 -0.016385235 -0.35169843 0.043634675
000250 29 d3 94 3d 40 75 70 3d f7 c5 7e be 56 af a9 bd
       0.07266838 0.05870557 -0.24880205 -0.08285396
000260 92 28 bc bd 68 85 ab 3d 78 a3 0a 3e 07 e6 69 bd
       -0.09187426 0.083750546 0.13538921 -0.057104137
000270 c5 53 c6 bd c5 d7 3d 3d 6e 21 a6 3e 5e 72 8e 3b
       -0.096839465 0.046348352 0.3244738 0.0043471297
000280 fa c3 c3 3e fe f0 c5 bc 5c 03 18 3d 14 2c d5 3e
       0.38235456 -0.024162766 0.03711258 0.4163519
000290 97 9f 40 be e6 62 84 bd 31 ea de 3e ec a9 a4 3e
       -0.18810879 -0.06464176 0.4353805 0.3216089
0002a0 8b c3 5f be 58 59 14 bd 95 e4 ca 3c ff e2 39 ba
       -0.21851937 -0.036218017 0.0247672 -0.0007091015
0002b0 ce 4b d4 3e d8 39 00 be 74 57 c2 be 7a 5a 9c 3d
       0.41464084 -0.12522066 -0.37957346 0.076344445
0002c0 25 46 9d 3d 0b 59 79 3e e3 4b 5a bd 19 60 85 3e
       0.07679395 0.24350373 -0.053295027 0.2604988
0002d0 23 7d c8 3e 63 01 cb 3e 72 18 a6 3e ca ea f7 bc
       0.39157972 0.39649495 0.32440525 -0.030263323
0002e0 3b c5 02 3e b5 fa d9 3e d2 be aa 3e 33 e8 1b bd
       0.1277055 0.42574087 0.3334871 -0.03806324
0002f0 da 32 89 be 9a 8d 06 be 48 70 04 bf fe ae b0 3b
       -0.2679661 -0.13139954 -0.5173383 0.0053919544
000300 f7 30 e6 3d 62 89 6a 3d 68 6a 94 bd 18 1d 8d 3d
       0.11239808 0.057259925 -0.07246858 0.06890315
000310 07 0f e5 3e b7 a3 29 bd 56 5f 0a 3d 40 2f d9 be
       0.44738027 -0.041415896 0.033782326 -0.4241886
000320 60 8b 7e 3e 23 57 1c bd 15 8f 32 3c 92 11 c1 bd
       0.24857855 -0.038169038 0.010898371 -0.094271794
000330 2d 71 a7 3d 32 aa 96 bd 02 32 a4 bd 2a 7d ef bf
       0.081758834 -0.07356681 -0.08017351 -1.8710072
000340 aa 23 71 3e 6f 8e 78 bd 42 c8 2c 3e 74 74 a6 be
       0.23548761 -0.06068271 0.16873267 -0.32510722
000350 f3 7e b3 3e 79 81 9a 3e 12 e9 8c bc ea 4c 27 3f
       0.35057792 0.30176905 -0.01720098 0.65351737
000360 49 98 92 3d 7b d1 ca 3e a7 7d 92 3e 6e ba a8 3d
       0.07157952 0.39612946 0.2861149 0.08238684
000370 15 af b2 bd f0 fa ee be e4 b5 03 3f 0b 2d 9c 3e
       -0.087248005 -0.46675825 0.5144942 0.30503115
000380 d0 d1 e1 be 4f 62 81 bd 1c 16 1d 3f 94 55 58 be
       -0.44105387 -0.06317579 0.6136186 -0.21126395
000390 6b 0c c1 3e 64 2c 9c 3c 56 2b c7 be 7c 48 6e 3e
       0.37704787 0.019064136 -0.3890025 0.23269838
0003a0 1b b6 f0 bb cf cd ec bd 68 1a 5c 3c 57 08 56 bd
       -0.0073459274 -0.115626924 0.01343403 -0.052254047
0003b0 fd b6 ca 3e fd 31 c8 bc 5b 9f f8 bd fc f6 ad 3c
       0.39592734 -0.024437899 -0.1213977 0.021235935
0003c0 cd d3 8b be 99 42 7a be d2 d4 97 3c 91 d2 5a 3e
       -0.2731003 -0.24439467 0.018534098 0.21369387
0003d0 45 c7 25 3c b2 5b 5b 3c 47 d3 26 3e a8 5a 69 bc
       0.01011831 0.013388561 0.16291533 -0.014242806
0003e0 fb 4b 80 3c 2d cc 0d bd 09 ea 9d 3e 70 ea 83 be
       0.01566123 -0.034618545 0.30842617 -0.257648
0003f0 0d 31 de 3c a6 61 9d bd 11 03 fe 3d 29 3e 35 bd
       0.027122999 -0.076846406 0.124029286 -0.044248734

fc3.bias f4 [128]
000000 f7 02 37 3d f9 1e 0e 3e 99 f2 f0 bd 81 fc f2 3a
       0.044680562 0.13879003 -0.11765022 0.0018538387
000010 10 ec 58 3e 82 fb 3b bd ae 11 63 bd 68 27 0e 3f
       0.211838 -0.045894153 -0.055436783 0.5552888
000020 bc a0 ba bd f3 e5 aa 3c 9d 4e 2c 3d e1 0c 06 3e
       -0.09112689 0.020861601 0.04206716 0.1309085
000030 b5 db ca bc 55 9c 8f 3c 14 2f 0e bd 1e 65 0d 3d
       -0.024762968 0.0175306 -0.034712866 0.03452026
000040 3f c1 bd 3d c2 5b 0a 3e dc c1 cc 3e 6a 6f 34 3d
       0.092653744 0.13511565 0.39991653 0.044051565
000050 86 77 b1 3d db d2 2e be f8 95 82 bc f0 da d5 3d
       0.086653754 -0.17072622 -0.015940651 0.1044215
000060 13 8f 05 3d f7 72 c4 3e cb 32 b7 3d e4 85 85 bd
       0.03260715 0.3836896 0.08945235 -0.06519678
000070 8c 74 46 bd b7 4d 35 bd 55 12 ae 3e 7d 80 88 bd
       -0.04845099 -0.044263568 0.3399836 -0.06665132
000080 1f 43 b3 bd 77 f6 0d 3e d2 de 90 3d 76 7d 39 3e
       -0.08753037 0.1386355 0.070737496 0.18114266
000090 b1 23 2c 3e 1d 30 bf 3e c7 34 d9 bd 86 96 15 3d
       0.1681049 0.37341395 -0.106057696 0.036520503
0000a0 d7 60 d9 bc 6a 83 c2 bd bc b4 a4 bd 4b 6e cb 3a
       -0.026535435 -0.094977215 -0.08042285 0.0015520541
0000b0 47 bc 01 be d3 ee 16 3f a5 c2 ae bc 38 50 ae bd
       -0.12669478 0.58958167 -0.021333048 -0.08511394
0000c0 4e dd 88 bd dd 98 72 3d a4 72 51 3d 5d bb 77 3d
       -0.066828355 0.059227813 0.05113472 0.060481418
0000d0 f4 9d b7 3d 4f c9 24 bd ca c4 e8 bc a3 b5 32 3d
       0.08965674 -0.040231045 -0.028414149 0.043630254
0000e0 62 c0 c7 3e 54 ae 5f 3b 46 d8 1a 3e c8 8b f4 3e
       0.39013964 0.0034131007 0.15121564 0.47762895
0000f0 36 9d a5 bc 82 5e a6 bc 2d c1 5d bd d6 e8 e0 bc
       -0.020216566 -0.020308737 -0.054139305 -0.027454775
000100 2d c8 57 bc da 26 ef bd f8 fa 4b 3d 96 88 58 3d
       -0.013170284 -0.11677332 0.04979989 0.052864634
000110 ee 3d 0c 3c 93 ee 8c 3e 73 fb b0 bd 70 b5 d5 3d
       0.008559687 0.27525768 -0.0864171 0.10434997
000120 da 7b 35 3d 5f ab 41 bd 37 c5 bc 3e bc 22 28 be
       0.044307567 -0.047282573 0.36869213 -0.164195
000130 4d 7c 86 bc 8a 92 26 3e 72 d6 5c 3d 67 07 71 3c
       -0.016416693 0.16266838 0.05391545 0.0147112375
000140 6e 6e c2 3e 76 cd a4 bc 64 dc 34 be d2 cf d2 bd
       0.37974876 -0.020117503 -0.17662197 -0.10293545
000150 c4 2a c7 3e 2a 56 1a be 65 78 33 bd 16 c9 11 3e
       0.38899815 -0.15071931 -0.04381599 0.14236864
000160 3c b2 24 3e df 32 02 3f e1 87 aa bd 97 6e a2 3e
       0.16083616 0.50858873 -0.08326698 0.31724998
000170 2b fc 48 3e 58 e9 71 3d c1 b8 86 3e 04 56 4b 3d
       0.19627444 0.059060425 0.2631283 0.049642578
000180 ba 92 5b bd 90 23 18 3e 2e 30 d0 bd c5 3d 27 3e
       -0.053606726 0.14857316 -0.101654395 0.16332157
000190 66 2e 0f be fe c6 c5 bc e8 89 cf bd 46 52 80 bd
       -0.13982543 -0.024142738 -0.101337254 -0.062656924
0001a0 f8 11 5a 3d 0f 44 1a 3c 58 c3 a2 bd 02 62 93 3e
       0.053239793 0.0094156405 -0.07947415 0.28785712
0001b0 be 9f 13 3c 4b 59 d1 bd 3c e2 fb 3d 12 a2 1b 3e
       0.0090102535 -0.102221094 0.1229901 0.15198544
0001c0 a7 cb f9 3c a9 c3 23 bc f6 86 36 bd 2d 2f 8c 3c
       0.030492617 -0.0099953795 -0.044562303 0.017112339
0001d0 f3 40 91 3c 43 10 c2 bd b6 c2 5b 3e 4d 18 b5 ba
       0.017731166 -0.09475758 0.21460995 -0.0013816446
0001e0 d1 8d f4 bc 2d 99 b8 3e a1 8b e5 3c 6f 3c b5 3d
       -0.02985278 0.36054364 0.028020682 0.088494174
0001f0 aa b5 5a 3e 67 bd 4e 3d 68 dc 9e 3d 3e b1 ee bd
       0.21358362 0.050473597 0.07756883 -0.116549

fc4.weight f4 [9, 128]
000000 09 05 ad bd 7e 5e a7 3e fe ad 46 bd 8e 78 91 3e
       -0.08448226 0.3268928 -0.048505776 0.28412288
000010 c0 67 b3 3e e4 e3 70 bd 81 b8 9c bd f8 37 44 3f
       0.35040092 -0.058811083 -0.07652379 0.766479
000020 a4 ec c5 3c d7 8a 38 bd 8d 54 a2 3e e8 a7 93 3e
       0.02416069 -0.045054283 0.31705132 0.2883904
000030 25 82 e5 3b 03 4d 84 bd 05 d9 96 3d 43 5b 9f bc
       0.00700404 -0.06460001 0.07365612 -0.019452697
000040 34 55 11 bf 7e 0a cc 3e 49 1b a8 3e 45 68 3c bd
       -0.56770635 0.39851755 0.32833317 -0.045997877
000050 df a7 ff bc e2 d6 16 be 6a 16 dd 3c 1d ac af 3e
       -0.031207977 -0.14730409 0.026988227 0.34311
000060 ca a5 6f 3e 9f 1d e5 3e 4c 3a e7 bd 10 6d 9c 3b
       0.23403087 0.44749162 -0.11290416 0.0047737435
000070 ec f3 ab 3c 80 1b 59 bb 60 c0 97 3e b1 07 f7 3c
       0.020990334 -0.0033127964 0.29638958 0.030155035
000080 ce 4d 75 3d f2 b1 ab 3e 18 4b b5 3e 94 79 de 3d
       0.059888653 0.335342 0.35408854 0.10863033
000090 9c b5 99 3e 69 64 bc 3e af c3 7f b7 d0 7e bb be
       0.3002137 0.36795357 -1.5244746e-05 -0.36620188
0000a0 c3 06 35 bd ee 1c 91 bd c2 23 5c bd 80 ea 09 bc
       -0.0441959 -0.07085596 -0.05374504 -0.008417726
0000b0 ef 17 a8 3c 81 ae a1 3e 8c 88 af be 60 9b 99 3c
       0.020519225 0.31578448 -0.34283864 0.018750846
0000c0 4e 37 18 3d 1c 24 0d bf c8 78 11 bd bb 84 28 bf
       0.037162118 -0.55133224 -0.035515577 -0.6582753
0000d0 7f 77 28 3f d4 5b 5f 3c b0 89 36 3c 24 95 41 3e
       0.65807337 0.013632733 0.011141226 0.18904549
0000e0 5b 5f be 3f 49 a8 b5 3e 11 dd b8 3e 90 b6 8e 3e
       1.487285 0.35479954 0.3610616 0.2787366
0000f0 c6 8f 75 be a2 3f ed bc 90 ac 95 3c ae a4 f7 3d
       -0.23980626 -0.028961007 0.01827076 0.12091957
000100 b6 90 6f 3d e1 0d 67 ba 6a 58 33 3d 52 da 56 bc
       0.058487616 -0.0008814019 0.04378549 -0.013113575
000110 e2 50 43 3d b3 72 bc 3e 73 b9 0d bd 3a 8e 27 bf
       0.047684558 0.3680626 -0.034600686 -0.65451396
000120 a8 0c a8 be 8f 29 54 3e 22 37 8d 3e 09 40 89 bc
       -0.32822156 0.20718978 0.27581125 -0.016754167
000130 ea 69 30 bc 3b 3e 2b 3e 6d 0b b9 bc a0 76 8e bd
       -0.010767439 0.16722958 -0.022588456 -0.0695622
000140 06 ef bb 3e 8a f2 1a 3c 44 60 b2 3d aa 9f 0b 3d
       0.36705798 0.00945724 0.087097675 0.034087814
000150 bf 6a fc 3e 18 42 02 3d 09 0d 4a bd a3 11 34 bf
       0.4930019 0.031801313 -0.049328838 -0.7033941
000160 2a cd a2 3e 70 18 e8 3e d8 11 42 3c 2b 0c 7a 3e
       0.31797153 0.45331144 0.011845075 0.24418704
000170 d9 5a b9 3e 1f ad 90 bd ea 2b 90 3e 0f 70 d9 bb
       0.36202124 -0.0706427 0.28158504 -0.006635673
000180 7d bb a0 bd ff a0 b0 3e 00 18 9c 3c 1d a8 85 3e
       -0.078482606 0.3449783 0.019054413 0.26104823
000190 24 43 20 bf c5 7f 1b bd d8 6a 0f bd 18 1c 57 bd
       -0.6260245 -0.037963647 -0.035014004 -0.052517027
0001a0 ea ca 96 3e d4 74 32 bd 00 85 8d bb 80 b8 6e 3f
       0.29451686 -0.043568447 -0.0043188334 0.93250275
0001b0 36 57 34 bb 20 c4 39 bc 67 45 a6 be 17 5f a0 3e
       -0.0027517802 -0.011338264 -0.32474825 0.31322548
0001c0 76 d2 31 3c 8a d5 2b 3d dd 5a 01 bd 8e a9 09 3e
       0.0108534 0.041951694 -0.031580795 0.13443586
0001d0 80 66 1e bd c6 27 1f 3d 66 8c a6 3e e0 33 0a bd
       -0.03867197 0.03885629 0.3252899 -0.033740878
0001e0 08 55 d7 3c 99 d7 99 3e 1f e4 92 3e be 0a c8 3e
       0.026285663 0.300473 0.28689668 0.39070696
0001f0 1e c9 5a 3f 0f f2 f2 be 57 01 43 bd f8 ac 84 3c
       0.8546313 -0.474503 -0.0476087 0.01619576
000200 84 ee bd 3d ac bb 83 3e 71 06 80 bd 86 f1 35 3f
       0.09274009 0.2572912 -0.062512286 0.7107166
000210 2d 25 fb 3e 30 2c 03 bd be a9 18 3d 52 00 19 3f
       0.490518 -0.032024562 0.037271254 0.59766114
000220 10 94 7c bd cd d9 f2 bd 9e 98 c6 3e b1 e3 9b 3e
       -0.06166464 -0.118579485 0.38788313 0.30447152
000230 1c d1 59 bd ed e4 67 bc ad 9a 09 bd 4d 0b c5 bc
       -0.053177938 -0.014153701 -0.033594776 -0.02405324
000240 29 3d 01 bf 71 71 c0 3e a7 d9 3a 3f c3 b4 8c bd
       -0.5048395 0.3758655 0.7298836 -0.06870415
000250 05 a5 8a be d6 1b 90 be f8 41 4f bd 72 71 5d 3d
       -0.27079025 -0.28146237 -0.050600022 0.054063268
000260 bf 47 4f bd a4 d3 b5 3e e9 85 e9 39 42 62 47 bd
       -0.05060553 0.3551303 0.00044540994 -0.04867769
000270 50 79 1e 3c 1b 09 87 3d f4 7d 28 3f 62 cf 86 bd
       0.009672478 0.065935336 0.6581719 -0.06582524
000280 46 41 66 3d 88 4a ec 3e 5e 1a d1 3e 61 ec 25 be
       0.056214593 0.46150613 0.4084043 -0.16203453
000290 9b f7 39 be 4e ff 01 3f 17 71 55 bc 52 08 6d be
       -0.1816086 0.5078019 -0.013027451 -0.23147705
0002a0 69 87 cd bb 94 f5 a9 3c 0f f3 83 bb 72 14 38 bd
       -0.0062722457 0.020746984 -0.0040267776 -0.044941373
0002b0 5b 7c 85 bd 71 40 51 3e 43 d6 08 3e d3 21 a3 bd
       -0.065178595 0.20434739 0.13362984 -0.07965436
0002c0 1c 76 71 3d 0e 5d aa be 54 c9 f4 bc 62 25 cb be
       0.05895053 -0.3327412 -0.029881157 -0.39676958
0002d0 1e 3a 8b 3e 29 4b b3 bd a0 23 f8 bc 53 0b 93 bd
       0.27192777 -0.0875457 -0.030290425 -0.07179894
0002e0 97 82 4e 3f 14 48 ed 3e e4 a0 d3 3e 21 9b 13 3d
       0.80668014 0.46344054 0.41333687 0.036036614
0002f0 33 e6 a8 be 31 d8 03 3d ba 5a 46 3d 4b 88 0f bc
       -0.32988128 0.032188598 0.048426367 -0.008760522
000300 c3 df 88 3d 22 e8 e3 bc 5f 57 11 bd 0f 29 46 3d
       0.06683304 -0.02782065 -0.035483714 0.048379
000310 b1 40 b3 3c 0b 25 e7 3e 12 fb 1f 3d ca c4 fd be
       0.021881433 0.4514545 0.0390578 -0.495642
000320 aa 4a 88 be 9d 50 91 3e 54 68 86 3e 41 34 52 bc
       -0.26619464 0.28381816 0.2625147 -0.012829841
000330 22 f0 e2 bd 0b 40 15 be 69 77 a0 bc ed 33 8f bd
       -0.11080958 -0.14575212 -0.01958819 -0.06992326
000340 f4 88 0f 3d 44 3b ad be 7b 2d 2e be 06 fb 9c 3c
       0.035042718 -0.3383428 -0.17009537 0.019162666
000350 14 c1 14 3f 6b a5 0d be d6 e7 64 3d e2 d4 0a bf
       0.58107114 -0.13832633 0.05588516 -0.54231083
000360 ff 9f f4 3e 5b 8f 1d 3f 6e bd 94 3d 48 54 b3 3e
       0.47778317 0.6154687 0.07262693 0.3502524
000370 45 85 d6 3e ac 2b f2 3c 12 21 7d 3e 5c 90 ad 3c
       0.41898552 0.02956184 0.24719647 0.021187
000380 f5 69 c1 3d bc ba 64 3e 2f cd 28 bb 01 b3 2f 3f
       0.09444038 0.22336859 -0.0025757065 0.68632513
000390 fb 72 e2 be ee a2 63 3d 70 a7 83 bd 40 95 53 bc
       -0.44228348 0.055575304 -0.064284205 -0.012914002
0003a0 80 6c 95 3e 0b 8f 1f bd d4 55 4e 3d 68 cf 23 3f
       0.2918434 -0.038954776 0.05037482 0.6398835
0003b0 69 a6 21 3d 3b 52 f8 bc da 98 8a be b4 51 2c 3e
       0.03946534 -0.030312648 -0.2706974 0.16828042
0003c0 eb 59 8a bd 11 d3 e4 3d 4c a3 64 3d 4f b2 59 3d
       -0.06755432 0.1117307 0.055819795 0.053148564
0003d0 c5 29 2f bd aa 78 c9 3b 22 9c 74 3b 72 ce 84 bd
       -0.042764444 0.0061484175 0.0037324508 -0.06484689
0003e0 c9 77 82 be 2c e0 34 3f 12 d9 60 3e f7 99 ec 3e
       -0.25482014 0.7065456 0.21957806 0.46211216
0003f0 39 e4 28 3f 90 50 be be 6a 0e b3 bc 86 cf 7c 3d
       0.6597324 -0.3717084 -0.02185746 0.061721347

fc4.bias f4 [9]
000000 a7 7c 4e 3e f9 1b 52 3e 6a 09 02 3f 4e 53 82 3e
       0.20164739 0.20518483 0.50795615 0.2545418
000010 64 66 f2 3e fe 54 bd 3e e5 7e 28 3d bc c7 40 3e
       0.47343743 0.36978906 0.04113664 0.18826193
000020 4d d0 ac 3e
       0.3375267
