best_race_model.pth (torch, 144445 bytes, 8 tensors)

fc1.weight f4 [128, 7]
000000 ec f4 d3 3e 61 c2 c8 bd 52 f1 ca 3e 44 3e 33 bd
       0.41397798 -0.098027 0.39637238 -0.043760553
000010 e3 da 90 be 8a d3 60 be 62 74 61 be d9 86 9c bd
       -0.28291997 -0.21955696 -0.22017053 -0.07642908
000020 43 17 ab be d3 cd 31 be e5 5f b8 3d 30 40 a1 be
       -0.33416185 -0.17363672 0.090026654 -0.31494284
000030 98 b6 94 be ca 7f df 3d 76 28 05 3f 29 df 12 3f
       -0.29045558 0.10913046 0.52014863 0.57371765
000040 6f 33 30 3e 61 16 21 3e 08 0c 91 be fa 85 49 be
       0.1720712 0.15731193 -0.28329492 -0.19680014
000050 06 6c a0 be ce ec e3 3e 3d fa 97 3e 34 8d 1e 3e
       -0.31332415 0.44516605 0.29683104 0.15483552
000060 43 ce 1f be 4d f2 c9 3e 19 4d e0 bd 19 94 02 bc
       -0.15606026 0.39442673 -0.10952205 -0.00796988
000070 fc 7d 11 3e 91 63 de 3d 2b 65 ae 3e 90 83 79 3e
       0.14208215 0.108588345 0.3406156 0.24366593
000080 08 9b 73 3e 45 d3 a5 be 1c d6 70 be a3 12 df be
       0.23789608 -0.32387748 -0.23519176 -0.43568906
000090 6d e8 18 3e a2 2c 6b be f5 bb 74 3e f2 a0 00 3e
       0.14932413 -0.22966245 0.23899825 0.12561396
0000a0 26 23 ad 3e 10 05 b4 3e c8 8f 67 3e 9e 82 9f 3d
       0.3381588 0.35160112 0.22613442 0.07788585
0000b0 93 74 31 3e f8 27 04 3f a7 6c 99 be cb 12 69 be
       0.17329626 0.5162349 -0.29965708 -0.22761075
0000c0 cf 18 1d bd 21 8d a3 be db 71 f8 bd b1 06 2d 3d
       -0.038353737 -0.3194361 -0.12131091 0.04224271
0000d0 d3 ab 0f 3f 18 59 b5 3e 00 2d ae bd 35 61 1d 3e
       0.5612156 0.35419536 -0.08504677 0.15369113
0000e0 5f 1c 52 bd 2a 7d 85 be 12 58 c2 bc 2d 94 fc 3e
       -0.051296588 -0.26072055 -0.023723636 0.493318
0000f0 1b de 9d 3e da 30 16 be 9e 56 bb 3e f0 79 2a bc
       0.30833516 -0.14667073 0.3658952 -0.010405049
000100 25 e0 c9 be 24 9e 22 3e 5c 74 cf 3e b4 08 3e 3e
       -0.3942882 0.15880638 0.40518463 0.18558007
000110 bc e3 22 be e6 9e 65 bd 0b 2d 10 3f b1 34 09 3f
       -0.15907186 -0.05605974 0.5631873 0.53596026
000120 87 ec e7 bd 07 24 30 bd 8f aa ac 3e f3 93 7f bd
       -0.11324411 -0.04300311 0.33723876 -0.062396955
000130 2b 50 23 3e b2 cb 18 bd 82 e8 6e 3d cb 55 a0 3e
       0.1594855 -0.037303634 0.058327205 0.31315455
000140 3f 37 0f 3f ba ba 0e 3e fe ca 97 3e a9 27 84 3e
       0.55943674 0.13938418 0.29647058 0.25811508
000150 c3 1a ce 3d b0 07 26 be aa fb 62 be 1b 53 56 3e
       0.10063698 -0.1621387 -0.22166315 0.2093014
000160 ef 95 83 3e 90 81 d9 3d 0d cb 9c 3e 03 1d a5 3e
       0.25700328 0.10620415 0.30623665 0.32248697
000170 15 ad a9 be 86 b6 78 3e 5c 38 98 be 48 32 b7 bd
       -0.33139864 0.24288377 -0.297305 -0.08945137
000180 dd 6f 2e be bc 73 82 3d 59 59 93 3e 0d d8 4b 3d
       -0.1703486 0.06369731 0.28779104 0.04976659
000190 75 07 71 be 08 24 da bd 65 ec c3 be 9c f5 b9 be
       -0.23538001 -0.10651404 -0.38266292 -0.36320198
0001a0 23 ff 1a be c0 55 d8 3e 4a 86 e4 3e ee e3 e6 3e
       -0.1513639 0.42252922 0.44633704 0.45095772
0001b0 85 b3 b8 3e d0 dc d0 bd 28 81 81 3e e4 1a 2b 3d
       0.36074463 -0.10198367 0.2529385 0.04177369
0001c0 e6 a3 16 3f 22 8c 0f 3f 6d 55 a3 bd 4f 68 a6 bb
       0.5884384 0.560732 -0.07975278 -0.0050783525
0001d0 48 a3 03 be 3b 82 ae 3e 0e 9e b5 be 70 65 a5 be
       -0.12855256 0.34083733 -0.3547215 -0.32303953
0001e0 f3 b5 df 3d 28 13 db 3d 04 75 76 be db 65 29 be
       0.10923376 0.10697013 -0.24068075 -0.16542761
0001f0 0d 64 b9 be 88 4e f1 3d 2b 5b 6f bd b5 86 9b 3e
       -0.36209145 0.11782557 -0.058436554 0.3037621
000200 2e 8e 14 bd 1b 27 a2 3e 45 9b 2b be c7 a4 ad bd
       -0.036268406 0.3167046 -0.1675845 -0.084786944
000210 70 79 92 3e f5 df ff bb 31 8a 0b 3f b9 5b 1d 3e
       0.28608274 -0.00780868 0.5450774 0.1536702
000220 16 f6 a1 bd 58 0b 2a be 6a ec 4a 3e cf a1 4d 3d
       -0.07908265 -0.1660589 0.19816747 0.05020314
000230 1e b2 e6 be 99 89 8d be c8 7c 66 be b2 95 04 3f
       -0.45057768 -0.2764404 -0.22508538 0.51790917
000240 ac 59 8a 3e 3e 11 cc 3e 71 37 fb 3e 07 22 05 3f
       0.2702154 0.39856905 0.49065736 0.52005047
000250 75 be 29 3f 7f fc 2e 3f 6b 73 09 bd b6 b1 27 be
       0.6630624 0.6835403 -0.033557337 -0.16376385
000260 50 c6 11 3e 29 2f 35 3d b6 56 f3 bd 5c 61 44 be
       0.14235806 0.04423443 -0.11881773 -0.19177765
000270 43 3e b3 be 07 dd 5f be 14 24 81 3e c5 53 7e be
       -0.3500844 -0.21861659 0.25222838 -0.24836643
000280 f3 d1 fc bd 74 b5 7d be 40 56 86 3e 7b 4d c0 be
       -0.12344732 -0.2477625 0.2623768 -0.37559113
000290 2c ee ca 3e e6 82 37 3e 58 78 8e 3e d5 34 c2 3e
       0.39634836 0.17921028 0.2782619 0.37930933
0002a0 d1 01 3e 3e a8 2b 9d bd 1b 6b 3c be 34 e3 13 bd
       0.1855538 -0.076743424 -0.18400232 -0.03610535
0002b0 d8 aa cd be 61 5b 80 be dc f5 9d 3c a7 af 52 be
       -0.40169406 -0.25069717 0.019282274 -0.20574819
0002c0 87 ab ca be 88 da fb bd d5 f3 dc 3e d4 ad 39 3e
       -0.3958399 -0.12297541 0.4315478 0.18132716
0002d0 62 ec d4 bd 61 68 c6 3e 48 b1 ad 3c ab b9 a0 be
       -0.10396649 0.3875151 0.021202698 -0.31391653
0002e0 29 b2 df 3d 0c 2d 47 be 7d ab b5 3e 2f 59 a6 3d
       0.10922653 -0.19450778 0.35482398 0.08122479
0002f0 7e 68 34 bc 48 bb 4b be f3 76 a8 3d 97 62 61 3e
       -0.011011241 -0.19895661 0.08225813 0.22010265
000300 0c 0c a4 be 19 65 f0 3d 95 36 97 be a0 e2 e5 3d
       -0.3204044 0.11738033 -0.2953383 0.11224866
000310 cc 53 e7 3d 56 86 97 bd 37 0d d3 3d f6 9e 26 3e
       0.1129528 -0.073986694 0.10305255 0.16271576
000320 dd 88 38 be 21 7a 8c 3e f3 57 c4 3e 1a 97 f2 bd
       -0.18020959 0.27436927 0.3834835 -0.118452266
000330 ba e9 a7 3d 5a 58 5c be 38 f5 12 3f 53 64 e2 3e
       0.08198877 -0.21518078 0.57405424 0.44217166
000340 64 45 a6 3e 99 59 ba 3e 25 8a 9a 3e 65 61 1a be
       0.32474816 0.36396483 0.3018352 -0.15076216
000350 23 31 65 be 72 d9 96 be 2f d0 06 be 02 dc 17 be
       -0.22382025 -0.29462773 -0.13165353 -0.1483002
000360 56 fe 54 3d 30 7a 98 3e 49 d8 a1 3e 80 07 c9 bc
       0.052000366 0.29780722 0.31610325 -0.02453971
000370 19 23 f8 3e 1d df e1 3c 1d 25 9b be bd 6c 50 3e
       0.48464277 0.027572209 -0.30301753 0.2035398
000380 3a 06 49 3e 8d f8 d0 be 2d 60 ef be 3d 6e 2d 3e
       0.19631281 -0.4081463 -0.46753064 0.16936584
000390 5e 16 c8 3e 0c f4 ef bd b2 a9 5b 3e 11 6c 36 3e
       0.39079565 -0.1171647 0.21451452 0.17814662
0003a0 3d aa 5c be 7a b1 c2 be 9c c6 02 3f f5 f0 c9 3e
       -0.21549316 -0.3802603 0.51084304 0.39441648
0003b0 78 cf 58 be c8 75 40 3e 7b 1e 5c bd 5f a6 b5 3e
       -0.21172893 0.1879493 -0.053740006 0.35478494
0003c0 ab fe 8d 3e 3d 72 26 3c b2 4c dd 3e 55 0a c9 3d
       0.2773336 0.0101590725 0.43222576 0.09816424
0003d0 92 7b fd 3b 82 8a 7a bd ce c4 d6 be 6a 9b 16 3e
       0.007735678 -0.061167248 -0.41947025 0.14707723
0003e0 32 24 25 3e 7e 6e b4 3e b4 64 82 3e de 11 7e be
       0.16127089 0.3524055 0.25467455 -0.24811503
0003f0 08 73 a4 be a9 61 63 3e b6 37 4c 3c 00 39 d6 3e
       -0.32119012 0.22205223 0.012464454 0.41840363

fc1.bias f4 [128]
000000 d8 67 a5 3e 3f 26 bc be 6c f5 fe 3d dc 22 94 be
       0.3230579 -0.3674793 0.12449154 -0.28932846
000010 f3 1c ad 3e 50 2b 74 3d ef ef 76 3e 2d 42 9d 3e
       0.3381115 0.05961162 0.24114965 0.3071455
000020 c6 27 a4 3e fe 62 e8 3e ac 63 6a be ec 18 da 3e
       0.32061595 0.45388025 -0.22889584 0.4259714
000030 82 f7 a2 3e dd 45 4e be 84 5b de bd 3c e5 d4 bd
       0.31829458 -0.20143838 -0.10857299 -0.103952855
000040 1e d9 27 3e 7a 84 05 3e 33 b4 7a be 4b 25 57 3e
       0.16391417 0.13038817 -0.24482803 0.2101032
000050 5b 52 d2 3e e8 5b d2 bd fa e4 be be 79 f6 cb 3d
       0.41078457 -0.10271436 -0.3728407 0.0995912
000060 4d 4f c4 3d da 06 7b 3e de 1e 73 3e c4 67 b3 be
       0.09585438 0.24514332 0.23742244 -0.35040104
000070 b6 82 b3 3e e1 1c 24 3e 03 28 00 be 53 93 3e be
       0.35060662 0.16026641 -0.12515263 -0.18610887
000080 c4 e0 db 3e 6c 43 67 3e 42 92 bf 3e a7 63 9a 3e
       0.4294492 0.22584313 0.37416273 0.30154154
000090 d5 17 57 3e ea 11 1b be 15 36 a4 3d d2 19 cb 3e
       0.21005185 -0.15143552 0.08018128 0.39668137
0000a0 d3 cd 27 be 69 29 ae 3e 99 f5 99 be 3d 1d 81 3e
       -0.1638711 0.34015968 -0.3007019 0.2521762
0000b0 11 a0 2f be 96 5d a6 3e 19 a2 91 be 22 7c 8a be
       -0.17150904 0.32493275 -0.28443983 -0.2704783
0000c0 c1 7f 6b 3e 1f da b3 bd 1f f6 52 3e 59 9c 94 3e
       0.22997953 -0.08781838 0.206017 0.29025534
0000d0 c0 8d c8 bd 65 b2 df 3e 1c e9 7f 3e 19 1a 86 be
       -0.09792662 0.43690792 0.24991268 -0.26191786
0000e0 85 6c 0f 3e 09 8e 00 bb fa 8f 08 3b 08 44 02 3f
       0.1400624 -0.001961591 0.002083777 0.5088506
0000f0 30 81 27 bd 98 e7 2e be 40 d3 fc bd 27 c2 ca 3d
       -0.040894687 -0.17080534 -0.1234498 0.09900313
000100 ab e0 17 3e 0a c3 74 3e a7 8a 8c 3e d0 59 19 bd
       0.14831798 0.23902526 0.27449533 -0.037439167
000110 45 cb 68 be 59 6d bf 3d 28 13 87 be c9 c2 9e 3e
       -0.22733791 0.09347028 -0.26381803 0.31007984
000120 bd 4f c1 be d4 1b bb bd b6 5f b5 3d 47 64 50 bd
       -0.37756148 -0.09136167 0.08856146 -0.050876882
000130 08 79 20 3e 96 e1 db bd 8c c8 23 3e 70 ed d6 3e
       0.1567117 -0.107363865 0.15994471 0.41978025
000140 6a dc c9 3e d2 d7 df 3e 25 53 b7 be ca 52 1a be
       0.39425975 0.43719345 -0.35805622 -0.15070644
000150 0f 45 74 3e 97 60 a2 be e4 8f b5 3e 5d ee 90 3e
       0.23854469 -0.31714317 0.35461342 0.28306857
000160 a0 10 51 be 05 cf 88 be 34 b7 05 bd 3f c4 ad 3d
       -0.20416498 -0.26720443 -0.03264542 0.084846966
000170 77 a8 93 be b4 70 ab be e5 31 e1 3e 69 1e 83 bd
       -0.28839466 -0.33484423 0.4398338 -0.06402285
000180 b7 e5 18 3d 91 7f 33 be ad ac e2 3e 27 5b 1b 3e
       0.03732845 -0.17529131 0.44272366 0.1517149
000190 44 e5 4d 3e 42 05 ce 3e d2 df b3 be f3 b4 03 3e
       0.20106989 0.40238386 -0.351317 0.12861995
0001a0 7c 5a b2 3e e9 99 23 3e 70 4f 16 3e 88 7f 90 3e
       0.3483466 0.15976681 0.1467874 0.282223
0001b0 41 a5 77 be 21 bf 83 be cf d2 8e 3e 74 a6 78 3e
       -0.24184133 -0.25731757 0.2789521 0.24282247
0001c0 34 6a d3 3d cc f0 4b 3d 56 70 b6 be d8 50 87 3d
       0.10322991 0.04979019 -0.3563258 0.066072166
0001d0 58 30 a0 3e 17 69 ad 3e 9e 42 82 be 83 b6 04 3f
       0.31286883 0.3386924 -0.2544145 0.5184099
0001e0 1f 19 9d 3d e1 48 e5 3e 83 fe 83 3e 9e 5a 44 be
       0.07670807 0.44782165 0.25780115 -0.19175193
0001f0 38 96 4d be bc bc d3 3d ab 51 04 3f a5 d9 a7 3e
       -0.20076835 0.103387326 0.51687115 0.32783237

fc2.weight f4 [128, 128]
000000 e8 f6 84 bc 86 d7 87 bd d2 73 b0 bd f0 5f 6a be
       -0.016231015 -0.06632905 -0.08615841 -0.2288816
000010 67 8e fc 3c af 3b 9b 3e 88 5f 58 3d 18 52 82 3d
       0.030829621 0.30318972 0.05282548 0.063633144
000020 66 7f 44 3e 88 f9 1a 3e 12 c3 c3 bd 4d 8a de 3d
       0.19189224 0.15134251 -0.09558691 0.108662225
000030 02 95 f3 bb 85 ce 5b 3d 83 6c 1f 3d b6 3c 65 bb
       -0.0074335346 0.05366375 0.038921844 -0.0034978813
000040 6f a9 10 be 90 f2 5a bd 4b b9 a8 3d f3 15 a5 bd
       -0.14127134 -0.053453982 0.08238467 -0.08060827
000050 c6 c2 80 3e 11 9e 94 be b3 e6 14 bd 59 4a cc 3d
       0.251486 -0.29026845 -0.036352824 0.09975118
000060 d8 f9 8c 3b 4c 22 18 3e 21 81 4c bd 85 50 80 3d
       0.0043022446 0.14856833 -0.049927834 0.06265358
000070 6f c0 c1 bc 72 91 45 3e d4 4c a9 bd eb 72 b0 bd
       -0.02365133 0.19293764 -0.08266607 -0.08615669
000080 d7 65 a4 3d 87 0f fb 3d 51 08 eb 3c 9c 9a a0 3c
       0.08027237 0.12258821 0.028690489 0.019604973
000090 fb f1 03 3e d5 ea 10 be 92 3a d4 bc eb c8 32 3e
       0.12885277 -0.14152081 -0.025906835 0.17459457
0000a0 09 fa 91 bd 37 dc 97 be 48 a8 31 be 4a 17 03 39
       -0.071277685 -0.29660198 -0.1734935 0.0001250181
0000b0 ab 18 b0 3d 22 0c 7c 3d d3 f7 79 bd 2c 75 45 3d
       0.08598455 0.06153501 -0.06102736 0.048207447
0000c0 ea e7 68 be a4 d8 28 bc cd 43 8c 3d 69 63 80 3e
       -0.22744718 -0.010305557 0.068488695 0.25075844
0000d0 c5 17 9e 3d 94 4d 05 3d 39 99 92 3c ac ef f7 3a
       0.077193774 0.032544687 0.017895328 0.0018916032
0000e0 e0 11 1c 3e 71 a0 07 bd 11 fe 4e 3d 56 13 33 3e
       0.15241194 -0.033111993 0.050535265 0.17487845
0000f0 f5 22 9a 3c 77 90 d5 3d 28 42 ad 3c 02 91 48 be
       0.018815497 0.10427945 0.02114971 -0.19586566
000100 ff a3 4e be 8a 2b ab 3d b0 1b 63 3e 54 7d 9a be
       -0.20179747 0.08357914 0.2217853 -0.30173743
000110 ba 69 80 bc e0 5a 55 3e 94 f2 e0 bd 64 4b 02 3e
       -0.015675414 0.20835447 -0.10983768 0.12724072
000120 45 f2 1e bd cb 74 00 3d 17 48 64 be ef 42 6c be
       -0.038805265 0.031361382 -0.22293125 -0.23072408
000130 32 72 b7 3d c9 e1 83 3e 96 aa 71 be 56 7d 59 3e
       0.08957328 0.25758198 -0.2360023 0.21239218
000140 22 bf 58 3e d2 97 2a 3e a6 28 e9 3b 19 96 8c be
       0.21166661 0.16659477 0.0071154414 -0.27458265
000150 4e 7e 94 3e c7 f6 ad 3d 1c 7d bd bd f8 5a da 3b
       0.29002613 0.08494335 -0.09252378 0.0066636764
000160 23 cb 2b be e2 54 51 bc 13 69 46 3e c1 c1 e6 3d
       -0.1677671 -0.012776585 0.1937602 0.112674244
000170 cb 1a 63 3d 2e cf 12 3d ef d7 69 3d da 88 30 bd
       0.055445474 0.035842113 0.057090696 -0.04309926
000180 3b 43 01 3e 35 26 53 bd f1 fb ae 3c d7 e7 80 bd
       0.12623303 -0.05155011 0.02136037 -0.0629422
000190 8f fd 7b 3d de 71 59 ba e4 5f cc ba 89 a4 83 3d
       0.06152111 -0.00082948606 -0.0015592542 0.06427867
0001a0 ae 82 48 3d 61 a2 d2 3c ea 06 fd 3d 44 87 2b be
       0.04895275 0.025712194 0.123548344 -0.16750818
0001b0 42 c5 6e 3d 5a 81 d5 bd 1d 60 d0 bd 73 f2 86 bd
       0.05829359 -0.104250625 -0.10174582 -0.06589212
0001c0 f8 4b 2c be 5c e2 ec 3c 76 8c a4 bd d2 c0 90 3e
       -0.16825855 0.02891653 -0.08034603 0.2827211
0001d0 d1 1e c8 3d e0 b0 82 3e 01 bd 1e 3e 65 12 90 3e
       0.09771503 0.2552557 0.15501787 0.28139034
0001e0 f8 23 9d 3c 0c fb 3a 3e b6 14 fe 3d 4b f5 cb 3b
       0.01918219 0.1825983 0.12406294 0.0062243096
0001f0 01 23 2a bd 2f 28 7a bb 43 ae 4a 3e cd 5a de 3a
       -0.04153729 -0.0038170924 0.19793038 0.0016964317
000200 d7 e8 4d bd 4a 01 a7 3c 19 e3 a6 bc d8 e7 39 be
       -0.05027088 0.020386357 -0.02037196 -0.18154848
000210 16 34 ab 3d bf f0 4c 3e cc ec 20 3d b5 ab 51 3e
       0.08359544 0.20013712 0.039288327 0.20475657
000220 48 ef 3b 3e fd 84 41 3d 98 7e 31 bd 79 97 2a 3e
       0.18352997 0.047245968 -0.04333362 0.16659345
000230 54 ef 07 3d a8 93 1f 3d 6c 3b e6 bd 69 16 53 bc
       0.033187225 0.038959175 -0.112418026 -0.012883761
000240 7b 0a d0 bd 70 d3 f0 3b fc 79 c7 3d 6a 4c 0c bd
       -0.10158249 0.007349424 0.097400635 -0.03425256
000250 99 d7 18 3e ee 4d 4b be 84 46 0a 3d 60 22 af 3d
       0.14925994 -0.19853947 0.033758655 0.085514784
000260 9d 5a ee bd a4 8e 07 3e f2 35 0d 3d 64 57 f9 bc
       -0.11638377 0.13238007 0.034475274 -0.030437179
000270 a6 fd e2 3d 8f 9f f4 3d 61 56 5f 3d 07 3a 02 3e
       0.11083536 0.11944496 0.054525737 0.12717448
000280 ed 3f bf 3d 1d 2d 0c 3e 10 f1 ba 3d f5 c2 1c 3e
       0.09338365 0.13689084 0.0912801 0.15308745
000290 ee 6a 61 3d bd 3c a8 3c d9 9f 66 3d 45 e9 0f 3e
       0.055033617 0.020536775 0.056304786 0.14053829
0002a0 6c 15 8e 3d 74 5d a2 bd 6c af d8 bd 04 13 e5 bd
       0.0693768 -0.07927981 -0.10580334 -0.111852676
0002b0 e8 4b 1b bd 78 09 4c 3d 02 64 51 3d 48 2e 88 3d
       -0.037914187 0.049813718 0.051120766 0.066494524
0002c0 c7 64 6a be 5e cd c6 bc 05 30 c8 3b 3f d4 00 3e
       -0.22890006 -0.024267849 0.00610924 0.12580965
0002d0 ae f5 4b bd d0 aa 0a 3e ff b7 40 bd fb e0 4c 3c
       -0.049794845 0.13541722 -0.047050472 0.012504811
0002e0 2a 57 c0 3d 5b 54 db bc 62 d5 f8 3d 6a cf 3a 3e
       0.09391625 -0.026773622 0.121500745 0.18243185
0002f0 e1 63 92 ba 0f d1 67 3e df b0 81 bc b7 78 e7 bd
       -0.0011168682 0.22638343 -0.015831409 -0.113023214
000300 bd c4 ea bd 6d cd 70 3e 8d a2 3a 3e da 91 11 be
       -0.11463306 0.23515864 0.1822607 -0.14215794
000310 ee 00 68 bd bd 40 83 3d 80 fe ae 3d d7 cc a4 3d
       -0.05664151 0.06408832 0.08544636 0.080468826
000320 89 3e a8 bc 88 5f 0a 3e f3 2d 8f be b4 92 91 be
       -0.020537632 0.13513005 -0.27964744 -0.28432238
000330 c7 c4 e0 3d a7 67 28 3e 1d 8b 21 be f5 71 c8 3d
       0.10975032 0.1644579 -0.15775724 0.097873606
000340 33 33 3f 3e 32 b5 ba 3d 0f 36 b7 bc e0 e5 a1 bd
       0.18671875 0.091165915 -0.022364644 -0.07905173
000350 91 45 47 3e 18 89 af bd be f6 ce 3d 9c ff 1b 3c
       0.19460131 -0.085710704 0.10105656 0.009521391
000360 8c 10 52 3d 56 9e 09 bd f9 64 8b 3e 21 56 f3 3d
       0.05128531 -0.033598267 0.27225474 0.11881662
000370 13 60 c5 bc b6 4f d5 bc 4a fb e1 3d 03 65 89 3d
       -0.024093663 -0.026038986 0.11034258 0.067087196
000380 3d 2d 9e 3d 76 1a 80 bc 18 28 d8 3d da 32 88 bd
       0.07723472 -0.015637618 0.10554522 -0.06650324
000390 eb 5d 3a 3e c7 df eb 3c 7b 0b 4c bd 20 50 f0 3d
       0.1819989 0.028793229 -0.049815636 0.11734033
0003a0 5c b8 0c 3e f6 44 26 3e cc 37 56 3e 24 b7 04 be
       0.13742203 0.16237244 0.20919722 -0.12960488
0003b0 dc 3a 87 bd c0 1d 7e bc 91 bc 7f 3d 50 a9 92 3d
       -0.066030234 -0.015510023 0.06243569 0.071612
0003c0 77 74 5a bd 1c a8 cf bb db d8 45 bd 3b 9b 2b 3e
       -0.053333726 -0.006337179 -0.048302513 0.16758434
0003d0 07 53 b0 3d a6 d8 73 3e e6 0d b8 3d 80 76 57 3e
       0.08609586 0.23813114 0.08987026 0.21041298
0003e0 a1 6c 2f bd 0f 98 dd 3d 00 55 4e 3e c9 7a 9f bd
       -0.042828206 0.108200185 0.20149612 -0.07787091
0003f0 aa a2 4f 3d 4a a9 b0 3c fb 91 6b 3e 49 2a a8 3c
       0.050692238 0.021565098 0.23004906 0.020527976

fc2.bias f4 [128]
000000 15 f7 f3 3d d8 fb 90 3d ed d2 5d 3d 18 b3 2f 3e
       0.119123615 0.070792854 0.054156233 0.17158163
000010 21 81 0c 3d a0 19 a2 bc c8 ea 00 3e cc 7d a2 3d
       0.034302834 -0.01978761 0.12589562 0.0793415
000020 00 95 07 3e fe 62 de 3d e2 3c 77 bd af 1e dc 3d
       0.13240433 0.10858725 -0.060360797 0.1074804
000030 4b df 04 3e 73 93 a9 3c 4b 2f f7 bc 57 47 66 3d
       0.12975805 0.020700192 -0.030173918 0.05622038
000040 4f 97 c3 3d 43 5a ec bb 17 fe a5 3d 75 a7 4e 3d
       0.09550344 -0.0072129085 0.081051044 0.05045267
000050 69 41 87 3d 15 79 92 3d 5e bd a6 bd 9a 9b ca 3d
       0.06604273 0.07152001 -0.08141588 0.0989296
000060 9c a9 99 bc 43 8d cf bb 5f 11 f9 3d 9c b7 e5 3d
       -0.018757634 -0.0063339784 0.121615164 0.11216661
000070 da ec fe 3b c0 70 07 3e a7 5f 89 bd 9e 59 94 bd
       0.0077796998 0.13226604 -0.06707697 -0.072436556
000080 89 94 b6 3d 9b fb 0a 3d c1 51 34 3d 62 81 88 3d
       0.089150496 0.033931356 0.04402328 0.06665303
000090 1c 60 b5 3c bb 80 61 3d 6b 54 bc 3c dd f8 aa 3c
       0.022140555 0.055054408 0.022989472 0.02087062
0000a0 93 86 e6 3c a6 86 e5 3d cc 96 0e 3e 01 50 2c bd
       0.028140342 0.11207323 0.13924712 -0.042068485
0000b0 9b f8 e5 3c ed a5 f0 3d da 5c a2 bc 01 0c c5 bc
       0.028072646 0.11750398 -0.019819666 -0.024053575
0000c0 2f b7 ca bc ab 45 a0 3d d5 4a 90 3d 25 22 4d 3d
       -0.024745552 0.07825788 0.07045523 0.05008139
0000d0 8e 87 09 3b 9f 03 0a 3d 53 53 d5 3d f9 6d 8e 3d
       0.0020985338 0.03369486 0.104162835 0.06954569
0000e0 51 11 b1 bd 24 4a bb 3d f0 57 13 3e ab bd 06 3d
       -0.08645881 0.091450006 0.14389014 0.032895725
0000f0 8b fd cd 3d ad 2d 8a 3d 0a 80 b7 3d c3 c1 de 3d
       0.10058125 0.06746993 0.089599684 0.10876801
000100 be 7b 4c bd 9e 03 a9 3d 90 5c 89 bd 21 33 a4 bd
       -0.049922697 0.08252643 -0.06707108 -0.080175646
000110 ce 78 e3 bc 35 24 4e 3d e0 75 1e 3d fb e1 96 3d
       -0.027767565 0.0503275 0.038686633 0.07367321
000120 2f 4b 99 bd 0f 7c a3 bb 62 a3 72 3d 24 2a 96 3d
       -0.07485043 -0.004989154 0.059237845 0.073322564
000130 b4 e3 4b bd 61 ac 0a 3d a7 30 72 bd 05 9b d3 3b
       -0.0497777 0.0338558 -0.05912843 0.0064576888
000140 96 bf da bb 94 6a 3b 3d d6 9b 07 3e 19 66 20 3d
       -0.006675671 0.045755938 0.1324304 0.039159868
000150 7c 27 c9 3d e9 90 9b 3d c2 a1 a6 bd 6a e6 59 3d
       0.09821984 0.07595999 -0.081363216 0.053198256
000160 f4 fe c1 bd b4 89 00 bd 14 2e 8f 3d 1e 5f 57 bd
       -0.094724566 -0.031381324 0.069912106 -0.052580945
000170 c4 87 05 3d af ac 76 3d 6c 2a 80 3d ff d1 10 3c
       0.03260018 0.060223278 0.06258091 0.0088391295
000180 ea 9f 34 3d 13 e0 7f bc 4e e1 b5 b8 f1 21 b2 3d
       0.04409782 -0.015617388 -8.672719e-05 0.0869788
000190 b9 be aa 3d 89 17 6b bd 1a 44 36 3c e4 de 83 3c
       0.08337159 -0.05739549 0.011124635 0.016097493
0001a0 7d bb a0 bd 10 fa 49 3d 68 26 1f bb 46 9d 92 3d
       -0.078482606 0.049310744 -0.0024284367 0.07158904
0001b0 ae dd f7 3c 50 29 1a 3e 02 73 0c 3e ea f1 36 3d
       0.030257072 0.15054822 0.13715747 0.0446643
0001c0 70 b3 ab 3d 05 42 0e 3d d4 e2 76 3b 07 9c 80 3d
       0.08383834 0.03473093 0.0037671821 0.0627976
0001d0 b1 fe d1 3b 08 bd e2 3d 91 f6 4f bd a3 ec 21 3e
       0.0064085354 0.11071211 -0.050772253 0.15812926
0001e0 c2 fc c5 3b 4d a8 84 bd 7d 4d 48 3d b0 e2 02 3e
       0.006042094 -0.06477413 0.048902024 0.12781787
0001f0 38 00 cb 3c bb 9a fb bc 48 c7 7d bd 85 09 f2 3c
       0.024780378 -0.03071343 -0.061957628 0.029545555

fc3.weight f4 [128, 128]
000000 e0 0f 33 3e 83 27 4c 3e f8 64 0e 3d 56 0b 55 3e
       0.17486525 0.19936948 0.03476426 0.20805106
000010 c8 76 59 3e 0a a8 18 bb 43 e3 95 3e b1 14 67 bd
       0.21236718 -0.0023293518 0.2927495 -0.056416217
000020 5c 80 b6 3e e2 99 ab 3e 2b 6a 82 3d 32 a0 ba 3c
       0.35644805 0.3351584 0.06367906 0.022781465
000030 d9 b5 b2 3e 58 71 89 bd 65 ca 9a bc 89 c9 d1 3d
       0.34904364 -0.06711072 -0.018895337 0.10243518
000040 e1 0c 0a 3e 9b 6c 21 be cc c5 2c 3d 44 a7 e5 3d
       0.13481475 -0.15764086 0.04218082 0.11213544
000050 f4 9f 7a 3c 3a 2b 30 3e 31 a0 9a bb 93 03 59 3e
       0.015296925 0.1720399 -0.0047188033 0.2119277
000060 79 5d 85 bd 65 9a 6e 3e c6 77 1d 3e e0 58 05 3e
       -0.06511969 0.23301084 0.15377721 0.13022184
000070 05 03 ed bc eb 55 3c 3e 29 2f 4d 3c 52 a9 17 3d
       -0.028932104 0.1839215 0.012523451 0.03702671
000080 84 19 80 3e 87 44 b3 bd 17 6a 86 bd cd 5c 71 bd
       0.25019467 -0.08753305 -0.06563204 -0.058926392
000090 a6 04 c8 3d c6 ba 68 3e 53 6c 1d bd 42 5b ba 3c
       0.097665116 0.22727498 -0.038433384 0.022748593
0000a0 e3 49 c0 3e 73 44 97 3e 57 b7 58 3e cb e7 95 bd
       0.3755637 0.2954441 0.21163689 -0.073196016
0000b0 12 31 2e 3c 27 f1 e8 3d 05 58 14 3d 35 50 52 3e
       0.010631816 0.11374121 0.036216754 0.20538409
0000c0 0e da 80 3d db 4a d2 3d 89 a2 82 3e bf e5 3b bd
       0.06291591 0.10268184 0.2551463 -0.0458734
0000d0 c8 bd 72 bb 7f 1b 97 3e 5c 20 e3 bd 6d fe 69 3d
       -0.0037039388 0.29513165 -0.110901564 0.057127405
0000e0 fc a0 93 3d 70 ce 84 3e 83 ee 98 3e 46 db 8f bc
       0.0720844 0.2593875 0.2986947 -0.017560612
0000f0 fb 81 29 3e 03 d3 a0 bd ef 79 00 3e 36 56 a0 3e
       0.1655349 -0.07852747 0.12546514 0.31315774
000100 83 55 98 bd d2 e7 96 3e 27 02 a1 bc fa 52 9c 3d
       -0.07438185 0.2947374 -0.019654347 0.07633014
000110 88 d5 af bc 00 95 84 3e 10 86 4a 3d d3 18 76 3e
       -0.021464124 0.25894928 0.04944426 0.24032907
000120 9f 4b b8 bc 01 cd 0b 3e d7 e6 0c 3e 07 c2 a0 3d
       -0.022496996 0.13652422 0.13759933 0.07849508
000130 fc 6d 8e bc ef a9 7f 3e 17 fa 92 3d 78 6e 86 3c
       -0.017386429 0.24967168 0.07176607 0.016410097
000140 71 7d be bb a6 aa 0f 3e 6b 7d 00 be 4e cf bb 3c
       -0.0058132936 0.14029941 -0.12547843 0.022925999
000150 13 0d a4 3e ce 8d a8 3e 1b e9 ef 3c 93 f9 35 bd
       0.32041225 0.32920688 0.029285958 -0.044427466
000160 42 0c 60 3c d9 30 c7 3c 0f fd 32 3e 23 eb 98 3d
       0.0136747975 0.024315285 0.17479347 0.07466724
000170 8b 99 95 3c c3 a4 5a 3e 5f 28 1f 3e f5 b9 77 3c
       0.018261692 0.21351914 0.15542744 0.015120019
000180 b5 10 26 3e d7 c4 85 3e 1e c3 14 3e da e1 6a bd
       0.1621731 0.2612674 0.14527556 -0.057344295
000190 26 4e 78 be e8 60 a8 3d 1f 81 d3 bb 25 b8 ee bc
       -0.24248561 0.082216084 -0.0064546014 -0.029140541
0001a0 e2 53 8a 3c 28 46 62 3e ea 5f 65 bb cd 15 3b 3e
       0.016885702 0.22097075 -0.0034999796 0.18270035
0001b0 5c d9 0d bd a6 fb 86 3e fc 92 10 3e 02 f4 65 bd
       -0.03463112 0.26363868 0.1411857 -0.056140907
0001c0 d8 5a c8 3d cd d4 a4 bd 27 46 51 3e 72 bd a3 3c
       0.09782952 -0.08048401 0.20436917 0.019987796
0001d0 fb a3 a8 3e c6 eb b0 3d 51 bc eb 3c 08 4d 2a 3e
       0.32937607 0.0863872 0.02877632 0.16630948
0001e0 c5 cc cb 3d 54 73 c1 bc 71 59 9b 3d 54 a6 8f 3e
       0.09951166 -0.023614563 0.07585419 0.28056586
0001f0 ba 45 a2 3b e9 65 03 3c ba 4c 8e bc df 79 8a be
       0.0049521597 0.008019903 -0.01737057 -0.27046105
000200 13 af 11 3e 4c 8a 1f 3e a3 3f a8 bd df 89 3d 3e
       0.14226942 0.155801 -0.08215263 0.18509625
000210 ed 9b 38 3e d4 a2 85 bd f8 28 b0 3d 5f e7 bd 3a
       0.18028231 -0.065251976 0.08601564 0.001448851
000220 3e 08 9d 3e 22 3f 3e 3e fb 79 a0 3d 42 b8 48 3d
       0.3067035 0.18578771 0.07835766 0.049003847
000230 62 f4 95 3e ee 76 7e bd 61 4c ca bc 2a 1a 09 3e
       0.29288012 -0.06212514 -0.024694623 0.13388887
000240 be 23 04 3e 50 38 ce bd 8c b3 0e 3d df 55 8b 3c
       0.1290426 -0.100693345 0.034839198 0.01700872
000250 ab 5a 85 bd e3 01 c2 3d 2e a6 a2 bc 31 49 41 3e
       -0.06511434 0.09473016 -0.019854631 0.18875577
000260 55 ed 2f bd f2 d7 56 3e 20 3d 67 3e eb 6f 52 3d
       -0.042950947 0.20980814 0.22581911 0.051376265
000270 73 02 9f bb 03 5a e2 3d a8 ba 26 3d a2 0a 1f bd
       -0.004852587 0.110523246 0.040705353 -0.0388285
000280 e5 4a 89 3e 49 df 64 bd dd 9a 38 be 9b df 9c bd
       0.26814952 -0.055877004 -0.18027826 -0.07659837
000290 a4 a4 74 3d f6 58 55 3d 50 48 bb 3a 3b 9f f5 3c
       0.059727326 0.052086793 0.0014288519 0.029983154
0002a0 6f b2 92 3e b4 c0 46 3e 0b af 24 3e 98 e3 10 bc
       0.2865176 0.19409448 0.16082399 -0.008843325
0002b0 85 e5 ec bc 87 65 15 3d ee e3 43 3c 59 13 73 3e
       -0.028918037 0.036473777 0.011956198 0.2373785
0002c0 92 7e 07 3d ac ac 02 3e c1 ae 3a 3e dd bb 34 bd
       0.03307969 0.12761182 0.18230726 -0.044124473
0002d0 71 b8 29 3d c5 e7 6b 3e f1 1a 5d be dd f2 ae bd
       0.041435663 0.23037632 -0.21592309 -0.08542416
0002e0 c0 fa 8a 3d f3 84 5d 3e c5 07 9e 3e 8d 2c 23 bd
       0.06786108 0.21632747 0.30865303 -0.03983741
0002f0 a4 44 f6 3d 8e 79 07 be 36 9e 60 3e 3c 92 38 3e
       0.12024811 -0.13229963 0.21935353 0.18024534
000300 12 9e ff 3c f2 62 ae 3e 27 e3 1f bd ba e9 27 bc
       0.031203303 0.34059864 -0.03903499 -0.010248596
000310 17 66 85 3d 1a 25 27 3e aa 03 ba bb 8f 70 cb 3d
       0.06513613 0.16322747 -0.0056767063 0.09933578
000320 d3 c6 e0 bc 53 4a b4 3d 94 d7 b7 bc 00 bf 7c bc
       -0.027438557 0.08803239 -0.022441663 -0.015426397
000330 66 e7 16 3d 34 0b ce 3d 4e ab be bc b6 20 6e 3d
       0.036841772 0.100607306 -0.023275044 0.058136664
000340 0b e2 70 3d f2 58 08 3e 1c 91 00 be 23 a4 78 3d
       0.05880932 0.1331518 -0.12555355 0.060703408
000350 88 23 78 3e 12 fa 96 3e 96 0e 7c 3d ec fe a2 3d
       0.24232304 0.29487664 0.061537348 0.07958779
000360 47 a3 fa 3c ba bc 40 3d b6 1e 80 3c c4 3c 69 3d
       0.030595435 0.047054984 0.015639644 0.056942716
000370 ae c7 f5 3c 2c f1 2a 3e 43 cf c3 3d 6c 2c 64 3d
       0.030002441 0.16693562 0.095610164 0.055706427
000380 bb 35 c3 3d 8a 37 05 3e 74 44 20 3e 6e 08 9d 3d
       0.09531733 0.13009468 0.15651113 0.076676235
000390 a0 82 3e be f4 40 f8 3c 28 ce 34 3d 89 01 4a bd
       -0.18604517 0.03030441 0.04414192 -0.04931787
0003a0 20 bb 51 3d fe 0f a9 3e 20 88 54 3c ea 61 14 3e
       0.051203847 0.33020014 0.012971908 0.14490476
0003b0 a6 0c 77 bd af a7 ae 3e 3f 44 26 bb 30 f2 7c bc
       -0.060314797 0.34112307 -0.0025370268 -0.015438601
0003c0 0a 81 8c 3d 21 f4 2a bd 25 7d fa 3d cc 45 bf 3c
       0.0686055 -0.041736726 0.12230901 0.023348711
0003d0 b1 a9 7e 3e 46 13 0d 3e b9 77 61 bd df ae 92 3d
       0.2486942 0.13776883 -0.055045817 0.0716226
0003e0 6d 4a de bc ff 6c 2e bd 6b 6c 2c bc 47 15 11 3e
       -0.027135098 -0.042584416 -0.010523896 0.14168273
0003f0 18 fe 39 bb 84 ff 03 bd 1f 36 8e 3d 95 99 30 be
       -0.0028380211 -0.0322261 0.069439165 -0.17246087

fc3.bias f4 [128]
000000 6d a0 03 bb 48 8e 5c 3d f2 49 8e 3d 7c a4 86 3d
       -0.0020084635 0.053846627 0.06947698 0.06574342
000010 fd 20 d3 bc 84 5e cf bc fe c7 a9 bd d3 80 86 bc
       -0.025772566 -0.025313623 -0.082900986 -0.01641885
000020 99 68 8f 3c 2f 03 8f 39 29 65 23 bd fc e3 f5 3d
       0.01750593 0.00027277457 -0.039891396 0.12006375
000030 88 57 f7 bc 3a 55 2f 3e f4 ac dd 3d 96 f3 a6 bd
       -0.030193105 0.17122355 0.10824004 -0.08151929
000040 2b e5 55 bc 04 39 ab bc d1 fb 08 3c 6a 19 74 3d
       -0.013055126 -0.02090121 0.008360819 0.05959455
000050 25 ee cb bc de ef 7e bd 32 87 d1 3d e3 3f 1e 3d
       -0.02489383 -0.062240474 0.102308646 0.038635146
000060 58 dc 90 3d 57 53 9f 3d 0b 88 85 bd 0d 11 8d bd
       0.07073277 0.07779568 -0.06520089 -0.06888018
000070 9a 26 be bd e2 62 89 3d 34 9f b0 bc f3 91 89 3d
       -0.092847064 0.067083135 -0.021560289 0.06717291
000080 88 1c 2c 3d 1e ff a3 3b 63 60 47 3d cf 13 b1 3d
       0.042019397 0.0050047776 0.048675906 0.08646356
000090 4b 8a 7b 3d 5a 54 79 3d 59 19 34 3d 5d bb ff 3d
       0.061411183 0.06087146 0.043969486 0.124869086
0000a0 93 c8 70 3d 6a 75 0c 3e e2 c9 8c bd 76 e6 44 bc
       0.058785032 0.13716665 -0.068744436 -0.012017837
0000b0 68 ee 9f 3d cf c6 f5 ba 7c a2 c3 3d c3 ac af 3d
       0.07809144 -0.0018751266 0.09552476 0.085778736
0000c0 91 c4 81 3c 84 6e 12 3e 29 e8 c6 bc 44 81 82 bd
       0.0158408 0.14299971 -0.024280624 -0.06372312
0000d0 b0 9b 94 3d 30 86 10 3d d3 94 42 bd 72 1e a8 3d
       0.072562575 0.03528422 -0.04750521 0.08208932
0000e0 c7 87 8b 3d ca d9 50 bd 93 bf 88 bd 48 66 d8 3c
       0.06813007 -0.05098895 -0.06677165 0.026415959
0000f0 6c 84 cd 3d e3 46 50 3d eb 4b 6a bd 27 a4 56 3d
       0.10035023 0.050848853 -0.057201307 0.05240264
000100 b7 7a a6 3d 79 f1 17 bd 70 d1 c3 3d 47 3e 08 3d
       0.08128875 -0.03709552 0.095614314 0.033262517
000110 dd d5 d1 3d 59 2b 99 bc 45 09 6f 3d 06 a9 6b bc
       0.10245869 -0.018697428 0.05835845 -0.01438356
000120 32 11 f3 3d 88 0f a0 bd 34 cd 09 bb 14 4c 7f 3d
       0.11868514 -0.07815462 -0.0021026852 0.062328413
000130 c8 92 f2 3c d9 8c 84 3d 2d 8a 83 bc 2b 81 85 3d
       0.029611006 0.06472177 -0.016057098 0.065187775
000140 6f 5c f6 3c 53 a7 08 3e d9 b3 2f 3c 3b 39 6b bd
       0.030073373 0.13345079 0.010724031 -0.057427626
000150 5c 7c 8b 3d fb 3b 51 3d 30 f3 ab bd f5 6c 12 bd
       0.06810829 0.051082592 -0.08395994 -0.03574844
000160 de 54 d3 3d ad 8d 82 3c 29 59 8b 3d 65 48 61 bc
       0.103189215 0.015936697 0.06804115 -0.01375017
000170 3a 4c 86 ba 92 93 57 3d f8 59 e8 3c a7 ec 30 bd
       -0.0010246106 0.05263097 0.028363213 -0.04319444
000180 69 a5 e2 3d 33 ed 55 3c 50 04 cb 3d 8e d6 e3 3d
       0.11066706 0.013057041 0.09912932 0.111249074
000190 8a 64 81 bb 63 6f 8c bc 42 3e 08 bd 5d dd 22 bd
       -0.003948753 -0.017142957 -0.0332625 -0.03976189
0001a0 11 6f 60 3b 81 37 dc 3c 50 65 f1 bc 5e f5 fc 3c
       0.0034245888 0.026881935 -0.029467255 0.030878719
0001b0 52 83 12 bd 0e 70 79 3d e5 98 b4 3d dd 09 83 3d
       -0.035769768 0.06089788 0.08818225 0.06398366
0001c0 9d 43 81 3d 71 54 ac bd 83 20 54 bd b2 0a 83 bc
       0.06311724 -0.084145434 -0.051788818 -0.01599631
0001d0 6b 5c 99 3d f7 55 b0 bd a7 c8 54 3d de 8e d6 3d
       0.074883305 -0.086101465 0.05194917 0.104764685
0001e0 5e 2f 25 bc be 59 f3 3c d0 d2 a9 3c dc e8 5d bd
       -0.010082094 0.029705878 0.020730406 -0.05417715
0001f0 d5 4c ef bc 6d b0 a7 bd f6 6a 60 bc 72 de a5 3d
       -0.029211441 -0.081879474 -0.0136973765 0.08099069

fc4.weight f4 [9, 128]
000000 72 ca a4 bb b8 37 96 bd 44 ac b7 3b bc bf 9f bc
       -0.005029016 -0.07334846 0.0056052525 -0.019500606
000010 1b 08 8e bd f9 48 e2 bc f0 31 ae bd 42 9d 14 3d
       -0.0693514 -0.027622687 -0.085056186 0.036282785
000020 fb 60 d7 bc 03 98 57 bc ba 4e 6f 3d d8 d3 0c be
       -0.026291361 -0.013158801 0.05842469 -0.13752687
000030 b0 84 b1 3d ab d8 e2 bd 71 0c 3a 3c 67 32 9e 3d
       0.08667886 -0.110764824 0.011355505 0.07724457
000040 13 73 8a bd 53 27 ed bd e2 b5 88 3d 71 ab e4 bd
       -0.0676023 -0.11579766 0.066753164 -0.11165512
000050 b0 65 46 3d ba 43 6e 3b 5c 1c f0 3d ab 90 73 3d
       0.04843682 0.0036356286 0.11724159 0.059464138
000060 cd bd fd 3c 66 23 64 3d 24 8e b7 3d 76 db a4 bc
       0.030974293 0.05569782 0.08962658 -0.020124178
000070 b6 fa 87 3c 7c c2 96 3d 6a ea d0 bc 50 88 82 bd
       0.01659904 0.07361314 -0.025502402 -0.06373656
000080 85 de 3d 3d 88 59 f8 3c 5d b1 01 bb a9 60 9d 3c
       0.04635479 0.03031613 -0.0019789555 0.01921113
000090 25 12 07 bd 1c 61 9f 3b 1a 23 48 bc 68 63 0e bd
       -0.03297629 0.0048638713 -0.0122154 -0.03476277
0000a0 48 bc f7 bd c5 6c c9 bb 07 77 9b 3d 04 fe 4c 3d
       -0.12096459 -0.0061469995 0.07591062 0.050046936
0000b0 c9 ce 89 bd ce ff 08 3d 69 6d 54 bd e2 ba 47 bd
       -0.06728894 0.03344708 -0.051862154 -0.04876221
0000c0 09 03 e3 3c 5d 78 c3 bd d5 52 a4 3d 00 60 9e 3b
       0.027711408 -0.09544442 0.080236115 0.0048332214
0000d0 a4 ae c6 3c 6a b9 98 bd 32 57 92 3d 46 81 23 bd
       0.024253197 -0.0745724 0.071455374 -0.039918207
0000e0 3c cf 22 bd d7 06 69 3d 81 29 98 bb af 40 76 bd
       -0.039748415 0.05689129 -0.0046436195 -0.06012028
0000f0 df 70 bc 3b 75 1b cf bd 0d 16 b5 3d d1 3f 9c bc
       0.00575076 -0.10112659 0.088420965 -0.019073399
000100 76 f0 47 bd ae 39 40 3a 2d c4 d8 ba 9d cb 35 be
       -0.048813306 0.00073328137 -0.0016537957 -0.17753454
000110 fd 5a 9a bd 74 7c 9e 3d 8a bd be 3d 7a d6 04 bd
       -0.07536886 0.07738581 0.093134955 -0.032431103
000120 74 ed 16 3d 46 66 b0 3d df 39 37 bd 83 1f 7f bd
       0.036847547 0.08613257 -0.044732925 -0.06228591
000130 83 c9 99 3d 7d de 4b bc d6 c2 a4 bd 3f bc 41 bd
       0.075091384 -0.012443182 -0.080449745 -0.047298666
000140 0d 3e 82 bd 75 55 00 ba a2 1b 31 bd 09 93 4c 3c
       -0.063594915 -0.00048955466 -0.043239243 0.012486228
000150 6b 74 05 3e 0a 76 10 bb 48 07 ae bc 8c 4e 25 3c
       0.13032691 -0.0022043013 -0.021243706 0.010089528
000160 76 70 d2 bd 0d 89 25 3d ba c3 67 be 69 c6 b0 3c
       -0.102753565 0.040413905 -0.22633258 0.021578984
000170 46 99 28 be db 76 d2 bd 5c 8e a4 3c e5 3a 96 3d
       -0.16464719 -0.10276576 0.020087413 0.07335452
000180 41 b9 2e bd 9b 3c a4 3d 6f 56 fc 3c 84 6c 61 bd
       -0.04265714 0.08019372 0.030802933 -0.05503513
000190 b8 28 8f bd d9 07 44 3d 32 97 29 bd e4 1f 34 bd
       -0.06990188 0.047859047 -0.041403957 -0.043975726
0001a0 40 7e a3 3d de 27 e0 bd 0e e3 09 3c 79 b0 da bb
       0.07983065 -0.10945104 0.00841595 -0.006673869
0001b0 3a b5 7c bc 0e 1d 34 3d 30 e5 45 3d 29 2b 46 bc
       -0.015424067 0.04397302 0.048314273 -0.012095251
0001c0 42 d0 9e 3c 06 e2 30 3d 6b 25 5d 3d bf 61 15 3d
       0.019386414 0.043184303 0.053990763 0.03647017
0001d0 09 92 00 3e da f3 8e bd 7a 18 b8 3d 68 81 58 3d
       0.12555708 -0.06980105 0.089890435 0.052857786
0001e0 ae f3 b1 bd ee b8 8a 3d b2 74 0d 3d 46 b8 7b bd
       -0.08689056 0.06773554 0.034535117 -0.061455034
0001f0 fe 74 1e 3c ea e5 b6 bc 50 4b 8e 39 43 56 cd 3d
       0.009671448 -0.022326428 0.00027140463 0.10026219
000200 74 94 42 be 0e 80 61 be 5a 9e 02 3d 87 fe be 3d
       -0.19001943 -0.22021505 0.031889297 0.09325891
000210 28 0c 92 3d 7c 04 97 bc 3c 65 8b 3c 87 b3 68 bc
       0.07131225 -0.018434756 0.017016046 -0.014202959
000220 25 99 1e bc b2 41 a3 bd 08 d9 30 bd 5f 24 6a be
       -0.009680067 -0.07971515 -0.043175727 -0.22865437
000230 a8 5c 9f bd 43 d0 6c be e0 4d a0 bd 37 ed 47 3c
       -0.07781345 -0.2312632 -0.078273535 0.0122025525
000240 d3 e5 85 bd 0e ae 12 be fd 43 4b 3d 55 ce 59 be
       -0.06537976 -0.14324209 0.049625386 -0.21270116
000250 1f ee 34 3d 53 0e d4 3c c7 d7 03 3e 31 42 23 3e
       0.044172402 0.025885737 0.12875281 0.15943219
000260 bc c1 89 bd 91 09 2b 3e 81 af 2f bd e8 04 16 3c
       -0.06726405 0.16702868 -0.042891983 0.009156443
000270 7b 47 26 3c 8b 7b ef 3d 27 2c 21 3d 9b b8 1d 3d
       0.010148878 0.11693486 0.039348748 0.03850613
000280 a9 1a 0b bc 08 92 4c bd 8a 51 23 3d 69 f2 ae 3c
       -0.008490243 -0.049943954 0.039872684 0.021355825
000290 36 10 58 3d 0f 77 6e be 24 3b 09 3d cc 1f 06 be
       0.052749835 -0.23287605 0.033503667 -0.13098067
0002a0 5c 76 e0 bd f0 1d a7 bd 0b 3d 36 bd f1 77 83 3d
       -0.10960075 -0.08160007 -0.04449181 0.064193614
0002b0 17 29 c4 bc e0 97 f3 3c aa 17 b5 bd 1b 70 00 be
       -0.023945374 0.029735506 -0.08842404 -0.12542765
0002c0 96 66 9e bd 9b f4 ef bd a6 68 a2 bc cf b1 b1 3d
       -0.077344105 -0.11716577 -0.01982529 0.086764924
0002d0 3d 82 91 bd e5 a6 c7 bd 1e ca 41 3d cd c3 90 be
       -0.07104919 -0.097486295 0.047311895 -0.28274384
0002e0 11 f5 64 bd ae 92 22 bd 66 09 f7 bc 6f cd 0f bd
       -0.055897776 -0.039690666 -0.030155849 -0.035108026
0002f0 40 21 59 3c a8 5d 75 be d9 e6 9d 3d 68 03 34 bd
       0.013252556 -0.23961508 0.07710046 -0.04394856
000300 db 08 cd 3c ea 18 97 bb 46 b6 62 be 35 fa 51 bd
       0.025028637 -0.0046111243 -0.22139844 -0.051264007
000310 f5 6c 35 be ee 8a 9b 3d f7 27 2d 3e cb 00 98 ba
       -0.17717345 0.07594858 0.16909777 -0.0011596916
000320 cb 3d 22 3d dc 9a 8b 3c 0d ee 35 3d 14 71 b0 bc
       0.03960971 0.017041616 0.044416476 -0.021538295
000330 05 d0 88 3d 3a 2f 79 3d 42 f8 24 3d 6f 76 03 be
       0.066803016 0.060836054 0.04027582 -0.12838148
000340 dd 2f 4a bc 5c 7c 06 3e 3b 81 ad bc af b0 d7 39
       -0.012340513 0.13133377 -0.021179786 0.00041139635
000350 12 74 4d 3e b5 8a 02 3c 96 7d 7d bd c0 3a a4 bd
       0.20063809 0.007967641 -0.061887346 -0.08019018
000360 76 e3 54 3d 5b 72 d2 bc 97 11 28 be 9f e8 5e bd
       0.051974736 -0.025689295 -0.1641296 -0.054421064
000370 88 64 d8 bd 0c 01 96 bd b3 34 06 be 3a 29 75 bd
       -0.1056605 -0.073244184 -0.1310604 -0.05985377
000380 8b d3 66 bd 76 fb 91 bc 2e db 7b be 25 50 12 3e
       -0.056354087 -0.017820101 -0.24595329 0.14288385
000390 15 be 3f bd f0 3c 96 3d bc 86 77 3c d8 57 89 bd
       -0.046812136 0.07335842 0.015107807 -0.06706208
0003a0 97 2f 41 3d 4e 02 f2 3c 35 b6 3d be 3b dc 5b 3d
       0.047164526 0.029542115 -0.18526538 0.053676825
0003b0 56 cd 8b bd 6b 40 f4 bd ad 28 86 bd 47 57 f8 bd
       -0.06826274 -0.11926349 -0.06550727 -0.12126022
0003c0 89 55 2d 3a 12 fe 42 bc a7 74 03 bc 96 c4 ad bd
       0.0006612172 -0.011901395 -0.008023418 -0.084847614
0003d0 4e 84 53 3e 34 70 25 3d 76 9b 37 3d 3a a9 08 be
       0.20655939 0.04039021 0.044825993 -0.13345805
0003e0 a2 f4 75 be f2 b6 9a 3d fb 6d 29 be fd c8 4f bd
       -0.24019101 0.07554425 -0.1654586 -0.050728787
0003f0 71 8d fe bd 87 83 0e bc 2f 86 f2 3c f6 4f 09 3e
       -0.124293216 -0.008698351 0.029605 0.13409409

fc4.bias f4 [9]
000000 79 16 75 bc 2a e8 a6 bd af d8 d8 3c 6f b2 eb bd
       -0.014958971 -0.081497505 0.02647051 -0.11508643
000010 86 69 00 3c f8 7d 2a 3d 66 fb ab 3c 2d 93 b1 bc
       0.007837659 0.04162404 0.0209939 -0.021676624
000020 25 f8 1c 3d
       0.038322587
