final_race_model.pth (torch, 144459 bytes, 8 tensors)

fc1.weight f4 [128, 7]
00000000: 0783 ea3c 12a2 003e ffb6 6abd a6be 45be
00000010: f53e 63be 1b66 003e c96e 863e f797 48be
00000020: 3457 e1bd 9a00 dbbb f62f 0bbe 1636 ff3c
00000030: 7c0f 4ebe 1903 84be 90af 173e a6d3 e4bd
00000040: 3f1e 153e 655e 87be 278c 25be bdfb 6f3e
00000050: df11 4cbd 590f 6c3e 7d96 f83e 0cde 1b3f
00000060: 8cf6 083d 13c1 133e 12e7 a73d e594 c7be
00000070: 757e a2be f6ee 9e3e 6666 b8be 62a2 3fbe
00000080: 399d d8bd 76ef 32be 66d3 abbe 5a9a b33e
00000090: ce16 0b3f c6eb f4bd 56ff 5b3e 61c2 6abe
000000a0: f31f 9d3e 9102 a8be 8f30 ad3d 9b99 7fbe
000000b0: 98d2 d6be c454 df3e f89c cf3e 6ca6 cebe
000000c0: c626 223f 2abe f93d 281e bf3e 8179 0c3f
000000d0: aa80 153f 0de8 d5bd 6a0b 0c3e fd2b a2be
000000e0: 1eb5 28be d7b9 173e b879 96be 98ee 013f
000000f0: 83a6 573e 517f f8bd 1b65 0abd 43fe 8a3e
00000100: 6fd9 92be 0729 8c3d e6ee 26be 41b6 d23e
00000110: 6263 2bbe 611a 073f 1b49 7b3e 34a1 8dbe
00000120: 1ba1 e3bc 5f32 a4be 24cd 80be c88c abbe
00000130: f1db b13e 5391 f0be 2045 5c3e c6f7 c3be
00000140: 7d01 843e cef7 853d b3da f3be 68fd 233e
00000150: 30a7 ab3e e7f4 313e 1378 e53e 4616 e0bb
00000160: c01a c33d ae9f 853d a0e0 dabd 815b 633a
00000170: 7489 bcbe c563 2dbd 1eed 6dbe d96e 1fbe
00000180: bf28 13be 3905 74be 01fe af3d b1d3 cf3e
00000190: 69cf 003f 8b3d 8b3e 7ec4 413e 6663 37be
000001a0: dc04 863d f622 02bf 05d9 243e 84ed 1bbd
000001b0: e5d5 c63e 4a5e 743e 6b82 d6bd dcbf f03e
000001c0: 97c6 13bf 0d7c 473c 6087 9b3e 6c14 ff3e
000001d0: 796d 993e da4c 81be 87e6 7cbd 12f0 d5be
000001e0: c56a 83be 9886 6d3d d6c9 fe3d 9950 093e
000001f0: f6be 00bf d633 a73e e1a0 573e 6865 073f
00000200: 52ee f43e e8ea 21bc bc64 a63e 636f 46be
00000210: 1e11 d5be eba4 f1be 3af3 993c bce4 04bf
00000220: 4b65 60be 630b 1e3e c3f3 0f3f f4d8 593e
00000230: d1ea acbe e799 023e fa6f a73e 54c7 f23e
00000240: 05dd 993e 197f 3bbc a8f1 dfbe 41d8 2f3f
00000250: 2efb 153f e8f4 1b3e bdca 82bc 9ea4 e9bc
00000260: d798 4f3e 1b48 453e abd0 0bbe 4738 6abd
00000270: 6712 6fbe 3dd1 1c3f eac4 0e3e 32ba 02bf
00000280: 429b ff3e f07a 7cbe e218 1b3d 9cbf 9b3e
00000290: 1ee6 14be 52bc 25be f82d 353e 198d 4abe
000002a0: 4023 bebe ac48 1dbe bfdb 953d 5775 b1be
000002b0: fc52 0ebe c15f dbbc f63c fd3d 2f06 96be
000002c0: bcb1 993e eec7 60be e90f 3f3c 9d52 b9be
000002d0: fb8f aabe 2625 29be ba06 92be a903 0bbf
000002e0: 4f37 09bf 67f6 a83e dd3f 053e f29b 0a3e
000002f0: 9398 0e3e fcea 91b9 61cd 793e 9d79 bbbe
00000300: c641 1ebe 832e 923e 37b5 9f3e 5b80 cb3c
00000310: 39eb f0be 2e2b 743d 88b6 38be 456d 1e3f
00000320: 9d6c ba3e 7683 abbe a33d e43e 9bc0 033c
00000330: d101 7dbe b60d 84bc 8888 133f 9ce5 413e
00000340: b331 bfbe 10d9 a63c f5a1 bebe bccb a2be
00000350: 730e adbe c65a d13e 32af 14be 9d1c 1d3e
00000360: 42dd 053e b0c3 19be 7455 bfbd 95ad 8d3e
00000370: 9d6b a7be 5ce6 fdbd de50 8cbd 34a8 a9be
00000380: e573 8abe b36d 05be 8bca 95be 5492 12bd
00000390: 6d26 763c 3974 403e e48a 65bc 4ff2 883e
000003a0: 74d3 763d ebb7 233f 03f3 43be 16a5 ec3d
000003b0: f833 93be 1f82 01bd 4367 71bb a4fc c2be
000003c0: b79b 003c 4302 013f 88ed a23d 468b 01bf
000003d0: 9e8d 923e c18d 043f 845b 943e cf4a 0c3f
000003e0: 628a 88be f177 b6bd 9ef6 aa3e 26b4 cabe
000003f0: 5992 94be 0adf 1ebf e8b8 0dbf 83c7 a13e
0.028626932 0.12561825 -0.057303425 -0.19311008 -0.22191985 0.1253895 0.26256397 -0.1958922
-0.11002961 -0.0066834213 -0.13592514 0.03115372 -0.20123094 -0.25783613 0.14813066 -0.11173181
0.14562319 -0.26439205 -0.16166745 0.23435874 -0.04982173 0.2305273 0.48552313 0.6088569
0.03343825 0.1442912 0.0819837 -0.38980785 -0.31737104 0.31041688 -0.36015624 -0.18714288
-0.10576863 -0.1747416 -0.33559722 0.35078698 0.5433167 -0.11959033 0.21484122 -0.22925712
0.30688438 -0.32814458 0.084565274 -0.2496094 -0.41957545 0.4361936 0.40549445 -0.40361345
0.63340414 0.12194474 0.37327695 0.548729 0.5839945 -0.10444651 0.13676229 -0.31674185
-0.1647534 0.14816986 -0.2938974 0.5075469 0.21059613 -0.12133659 -0.033787828 0.2714711
-0.28681514 0.06843763 -0.1630207 0.41154674 -0.1673713 0.52774626 0.24539606 -0.2766205
-0.027786782 -0.3206968 -0.2515651 -0.33505845 0.34738114 -0.46985874 0.21510744 -0.38274974
0.25782385 0.065414056 -0.47627792 0.16014636 0.3352599 0.17378579 0.44818172 -0.0068385927
0.095265865 0.06524597 -0.10687375 0.0008672998 -0.36823618 -0.042331476 -0.23234984 -0.15569629
-0.14371012 -0.23830117 0.08593369 0.40591195 0.5031648 0.2719539 0.18922612 -0.17909011
0.065438956 -0.50834596 0.16098411 -0.03806831 0.38835064 0.23864093 -0.10474094 0.47021377
-0.577249 0.012175572 0.3037672 0.49820268 0.29966334 -0.25253946 -0.061743286 -0.41784722
-0.25667396 0.057989687 0.12440841 0.13409652 -0.50291383 0.32656735 0.21057464 0.5288911
0.47838074 -0.009882666 0.3249873 -0.19378428 -0.41614622 -0.47196135 0.018792737 -0.5191152
-0.2191364 0.15434031 0.56231326 0.21274167 -0.337729 0.12754022 0.3270262 0.474177
0.30051437 -0.011443877 -0.43739057 0.6868935 0.58586395 0.15230143 -0.015965814 -0.028520878
0.20273148 0.19265787 -0.1365382 -0.057182577 -0.23346864 0.6125677 0.13942304 -0.5106536
0.4992314 -0.24656272 0.037865527 0.30419624 -0.14540908 -0.1618512 0.17693317 -0.19780387
-0.3713627 -0.15359753 0.07317304 -0.34659836 -0.13898844 -0.026779057 0.12365143 -0.29301593
0.30018413 -0.21951267 0.011661508 -0.3619584 -0.33312973 -0.16518077 -0.28520757 -0.5430246
-0.5360002 0.3300049 0.13012643 0.13536051 0.1392539 -0.00027831632 0.24394752 -0.3661622
-0.15454778 0.2855111 0.31192943 0.024841478 -0.4705446 0.05961149 -0.1803838 0.6188548
0.3641099 -0.33498734 0.44578275 0.008041526 -0.24707724 -0.01611982 0.57630205 0.18935245
-0.37342605 0.020367175 -0.37232938 -0.31796062 -0.33800086 0.40889567 -0.14519957 0.15342946
0.13072684 -0.15016055 -0.09342471 0.27671495 -0.3269929 -0.12397453 -0.06851362 -0.3313614
-0.27041546 -0.13030128 -0.2925609 -0.03578408 0.01502381 0.18794335 -0.014010165 0.26747367
0.06026025 0.6395251 -0.1913567 0.11554925 -0.28750587 -0.031618234 -0.003683523 -0.38083375
0.007849625 0.50394076 0.07955462 -0.5060314 0.2862367 0.517788 0.2897607 0.5480165
-0.26668078 -0.08909596 0.3339128 -0.39590567 -0.29017904 -0.6205908 -0.5536027 0.31597528

fc1.bias f4 [128]
00000000: 8cc3 04be 4e71 20bd 60e8 10be c467 683d
00000010: fa61 69bd 822b ce3e 6d9e 8f3e a1fa fbbd
00000020: e54a a93d 6226 bd3e c3c2 b73d 3916 db3e
00000030: c24a 883e 0a40 3f3e e09c 0abe 7c0b c23e
00000040: fc45 1dbe 48b9 c23e 0d63 81be 957f a93e
00000050: e333 61bc ef4d 2bbc dcb2 cf3c b5b0 203c
00000060: 01da 5abe 4cff b73e 2fc6 dd3d ce6e 80be
00000070: 3a14 7cbd 4400 d8bd 2e19 0c3e f5f4 42be
00000080: 13db 85be c782 8e3e b10e d33d d8fd d93e
00000090: 0696 c13e 1cf9 d93e 2824 9f3d 0433 dbbb
000000a0: c45c a0bd b0f3 3f3e 2993 5ebe 116c d33e
000000b0: a6b3 82be 7966 acbe 5ed0 6abe 49fa 77be
000000c0: 7d7f 633e ebf3 79be c3a6 f23d 25ed 80bd
000000d0: a574 af3e 0c7a 0a3e ab58 a1bd 072a 87be
000000e0: d0ca ca3e b5d7 1ebe 434c 38be 757d afbe
000000f0: 692c f43e ac9d 9cbe 9ecd f83d fad9 18be
00000100: 13ec 28be 6739 913d 275a 993d 56dc aa3e
00000110: 5a0d 6b3d 79b0 ca3c 6e2f 4ebe ef9c a03e
00000120: e4ad ab3e 399e 2e3e 4b41 c83e 98be 343e
00000130: ced0 ad3e 3a47 bfbc 1e16 883c 50c4 283e
00000140: 522a 5bbd e546 c43e c867 20be ab17 a63e
00000150: ed9e afbc a42c 723e 34a4 bbbd 043f 4e3d
00000160: 3eb2 ae3e 2e71 82be 2f90 2dbd a4f5 85be
00000170: 2a2d 12be ae60 1d3d 44f5 e9bd 144a d6bd
00000180: 9021 2abd dfce 5ebe ca1b f13d 63d8 e33e
00000190: 4f0c 6a3e 4ea6 34be 3392 9a3e bb84 7a3e
000001a0: af37 babe 6017 d7bd 6653 babe 1473 393d
000001b0: 4b76 c03e ba64 df3e 927d 623e 7ccb dd3d
000001c0: 6216 983d 0caa f03d 99d0 9fbe c416 9b3e
000001d0: 81df 193d 5d06 863d caaa 8c3d 263f c33e
000001e0: 6183 6d3e 3ca9 6fbe 61f6 2ebd effb 213e
000001f0: 1b85 9f3e d596 48be e5da 403e 890b c83e
-0.1296522 -0.039170556 -0.14151144 0.056739584 -0.056978203 0.4026757 0.28050557 -0.12303663
0.08266238 0.36943346 0.08972695 0.42790392 0.26619536 0.18676773 -0.13536406 0.37899387
-0.15358728 0.38031983 -0.25270882 0.3310515 -0.013745281 -0.010455593 0.025353841 0.009807755
-0.21372224 0.35936964 0.10828816 -0.25084537 -0.061542727 -0.10546926 0.1368148 -0.19038756
-0.26143703 0.2783415 0.103055365 0.4257648 0.3780977 0.42572868 0.07770568 -0.006689431
-0.07830194 0.18745303 -0.21735825 0.41293386 -0.25527686 -0.3367193 -0.22931048 -0.2421657
0.22216602 -0.24409454 0.118482135 -0.06295232 0.3426868 0.1352312 -0.0787824 -0.26399252
0.3960786 -0.15511973 -0.17997842 -0.34275404 0.47690132 -0.30589044 0.12148593 -0.14926901
-0.16496305 0.07091027 0.07487898 0.33371228 0.05738578 0.024742352 -0.2013528 0.3136973
0.33531106 0.17052545 0.39112315 0.17650831 0.33948368 -0.023349393 0.016612109 0.16481137
-0.053507157 0.38335338 -0.1566459 0.32439932 -0.021438086 0.23649842 -0.09162179 0.050353065
0.34120363 -0.25476974 -0.042373832 -0.2616397 -0.14275041 0.03842228 -0.11423734 -0.10463348
-0.041535914 -0.21758603 0.117728785 0.44501027 0.22856258 -0.17641565 0.30189666 0.24464695
-0.36370608 -0.10502505 -0.36391753 0.045275763 0.3759025 0.43631536 0.22118214 0.10829827
0.07426144 0.11751184 -0.31213835 0.30290806 0.037566666 0.065441824 0.06868513 0.38134116
0.23194648 -0.23404402 -0.042715434 0.15818761 0.3115624 -0.19588788 0.18833502 0.390713

fc2.weight f4 [128, 128]
00000000: 113d bb3c 5db0 16bd 7a3c 2dbd e304 9cbd
00000010: 0d7e f2bb 8dc0 c0bd 36c8 803e 5391 3a3d
00000020: c59d 093e 71e4 8a3d c25e 3d3d 21e0 7b3e
00000030: 3aac f43c 8231 a13d 274f 95bd 799d 8b3d
00000040: 8a71 573e 7c70 cf3e 0efc 11be 02c3 7c3e
00000050: 5679 603d 7a2c bbbd 698c 893e 4682 1ebd
00000060: ada8 663d 7824 85bd 71e0 cc3e 6fab a53d
00000070: 150d 7d3e 3dc3 743e c4b5 a83e b20d 3abc
00000080: 4397 93bd 8c60 073c 2367 7a3e b79d 1bbe
00000090: 19b0 943e 00bd af3e 574d c63d 43fc a43e
000000a0: 4b7f 8d3d 63a0 c03e e55e 46bd 5695 b73e
000000b0: 937a fcbc c41e fb3c 425b 453d 6b67 6d3d
000000c0: 4346 af3d fb10 ac3e 51cb 563e 72f3 f03d
000000d0: eeb0 d73e 292a 94be 8807 3b3d 555a b1bd
000000e0: 86a7 e23d d4a9 2abb 0daa 9cbb 0c4c 03bd
000000f0: ce36 393e 4e35 ab3d 0462 833e 13fb 27bd
00000100: 1580 f63d 6a7c 7b3e 3556 40bd b39d 463e
00000110: acbc be3e 5990 d5bb 2451 97be 7216 743e
00000120: 4bc9 073e d74c a73e 3d5d 1abe 31fe ca3d
00000130: a7a7 be3e 024f cdbd e33a 03bd dcc7 7fbe
00000140: 2e45 413d e544 c03d f5ae 08be 5932 59be
00000150: c231 80bd d477 1d3d 05b0 a23e c70f ecbd
00000160: 5634 993e 5190 bdbc 5481 33bd 5443 cebd
00000170: 7809 a33d ef58 e73e 1547 cbbc 1455 a13e
00000180: df22 64be edf8 de3d 9993 9a3e ade3 ac3e
00000190: 3238 83bd f55f 483c 2812 0c3e 4ff5 a63e
000001a0: cf20 3a3d 0a17 83bd f8a8 733d 33ad 893d
000001b0: 3b40 ebbc 2ffc 933e caac b83e e31c 84bd
000001c0: 63a1 bc3a f24e 00bd 3811 86bd dbdf 873e
000001d0: 7e14 9bbd 24e9 b13e c777 a1bb 0eed f6bd
000001e0: 9096 b73e 7e9b 1fbd 5f31 093d d490 ee3c
000001f0: 5d2e d83e a2c2 653d 2c16 823d c66b 973e
00000200: cc12 19bd 25d2 17bd aa50 7fbc 92ab 7fbe
00000210: 47d6 933d 41bf afbd 21aa 343e 664c 12be
00000220: 4e68 e93d 3aee 6bbc d911 833d c209 913d
00000230: 10d0 efbd 21e7 b0bd 476e 99bd c09b 093e
00000240: bfb3 183d cdd3 703e 34d3 a4be 3775 a73e
00000250: 747b a13c 326f d7be b9a0 823e d154 16bd
00000260: a986 ce3c 1083 a9bd 881e ce3e 0cbb 75bc
00000270: be91 933e f4c3 dc3d 0c8c d33e 19d8 bbbc
00000280: 1950 4f3d f1f3 7bbe 6e59 b23d 38c2 66be
00000290: 23bd c03e ed65 853e 1f7c f23d 70c5 783e
000002a0: 3fb9 8c3d f558 ba3e 0929 37bd 08e6 b63e
000002b0: 0cb9 9dbd 2f71 a6bd bdff c0bd e554 553d
000002c0: 3acd 973d e2f8 433e e958 413e 02ed 6ebd
000002d0: bc4a ad3e 0bdf ddbe b21d ddbd af4e ac3d
000002e0: 62a3 c0bb 4447 45bd bef2 efbc a0b8 2dbd
000002f0: cfbf 263e 7b11 17bd 6888 283e 4b4a ab3d
00000300: a291 5f3d 0adf c93d 8f69 11bd 1cb5 9b3d
00000310: 2da2 c33e 378e 53bd 6e59 b7be 4839 4b3e
00000320: e48c db3c fe58 353e ece5 cdbe 12f2 eebd
00000330: bc0c 893e 1313 71be 5452 143d 5a5c a8be
00000340: 36ec 30bc d75d 143e 7f8f 65bc 3348 e4be
00000350: 00cd 43be babf 1bbd 466a 8a3e 5afa 3dbe
00000360: b5b1 4d3e 3e0b cb3c 5015 333d 5bc3 913d
00000370: ba90 e13c 9b98 ac3e e578 50bd 6f41 9e3e
00000380: 71a7 a3be 1fac 00be 0d37 683e 1990 a13e
00000390: 9392 0abd 3b70 743d 5e48 303e 6ed4 bb3e
000003a0: 70a4 863d 5e36 513d c1bb 893d 8068 17bd
000003b0: 7b27 73be c092 2d3e 6b1b b13e c637 8abd
000003c0: 423d 7e3c 6c23 463c 2b75 483d 2516 083e
000003d0: f5f3 e2bb db28 863e e8fb 9c3d 81e0 bbbe
000003e0: 46aa 623e a1fe 64bb fc0d 9fbd 92f2 a7bd
000003f0: 7867 ac3e d06c 44bc 3971 303d b2e7 a73e
0.022856267 -0.036789287 -0.042294003 -0.076181196 -0.0074002803 -0.09411726 0.2515275 0.04554875
0.1343909 0.06781853 0.046232946 0.24597217 0.02986728 0.07870771 -0.07290488 0.06817145
0.21039405 0.40515506 -0.14256307 0.24683765 0.054803215 -0.091393426 0.26864937 -0.038698457
0.056313206 -0.065010965 0.40014985 0.08089339 0.24712022 0.23902602 0.32951176 -0.011355804
-0.07206585 0.008262765 0.24453406 -0.15196882 0.29040602 0.34323883 0.0968272 0.3222371
0.06909045 0.37622365 -0.048430342 0.35856122 -0.030820167 0.030654319 0.048182733 0.057959955
0.08558323 0.33606705 0.20975997 0.117651835 0.42127174 -0.28938416 0.04566148 -0.086598076
0.11067109 -0.0026041167 -0.004781014 -0.032054946 0.18087313 0.083597764 0.25660717 -0.041010927
0.120361485 0.24559179 -0.046957213 0.19396095 0.3725332 -0.0065174517 -0.29554093 0.23836687
0.13260381 0.32675812 -0.1507463 0.099117644 0.37237284 -0.10024835 -0.03203858 -0.24978584
0.047185116 0.093881406 -0.13347991 -0.21210612 -0.062594905 0.038444355 0.31774917 -0.11526447
0.29922742 -0.023140104 -0.04382451 -0.100714356 0.079607904 0.45185038 -0.024814168 0.31510222
-0.22278927 0.108873226 0.30190733 0.33767453 -0.06407203 0.012229909 0.13678801 0.3260903
0.045441445 -0.06400879 0.059487313 0.06722488 -0.02871715 0.28903338 0.36069328 -0.06450822
0.0014391359 -0.031325288 -0.06546253 0.26537976 -0.07572268 0.34748185 -0.0049276087 -0.12056933
0.35857058 -0.03896665 0.03349435 0.029121794 0.42222872 0.05609382 0.06351885 0.29574412
-0.03737144 -0.037065644 -0.015583197 -0.24967793 0.072186045 -0.08581401 0.17643024 -0.14286956
0.11396848 -0.014400059 0.063998885 0.07081939 -0.11709607 -0.08637834 -0.07491737 0.1343832
0.037280794 0.23518296 -0.32192385 0.32706615 0.019712187 -0.42077023 0.25513247 -0.03670198
0.025210695 -0.08276951 0.40257668 -0.014998209 0.2882213 0.107795626 0.41317785 -0.022930192
0.050613496 -0.24604775 0.087084636 -0.22535026 0.376443 0.26054326 0.118400805 0.24294066
0.068712704 0.36395994 -0.04471687 0.35722375 -0.077013105 -0.08127057 -0.09423778 0.052082915
0.07412191 0.1913791 0.18881573 -0.058331497 0.3384608 -0.4333423 -0.107966796 0.08413445
-0.0058788517 -0.048163667 -0.029290553 -0.0424124 0.16284107 -0.036881905 0.16458285 0.0836378
0.054582246 0.098569945 -0.03550106 0.07602903 0.38209668 -0.0516493 -0.35810417 0.1984607
0.02680058 0.17709729 -0.4021448 -0.11667265 0.26767528 -0.23542432 0.036211327 -0.3288296
-0.010798505 0.14488922 -0.014011263 -0.44586334 -0.1912117 -0.03802464 0.27034205 -0.18552533
0.20087321 0.024785634 0.043721497 0.07117339 0.027534831 0.3371018 -0.050896544 0.30909297
-0.31963685 -0.12565659 0.2267725 0.3155525 -0.03383119 0.059677344 0.17215106 0.36685508
0.06574333 0.05107724 0.06725264 -0.036964893 -0.2374553 0.16950512 0.3459123 -0.06748919
0.015517535 0.012093406 0.048939865 0.13289697 -0.0069260546 0.26203045 0.07665235 -0.3669472
0.22135267 -0.003494181 -0.07766339 -0.082005635 0.3367269 -0.011988834 0.043076728 0.32793957

fc2.bias f4 [128]
00000000: 8929 1c3e 6815 09bb efd3 51bc 548e 203d
00000010: 2bb9 c03d 435c 1e3e 350c c83b f528 4d3e
00000020: 54b2 823d f696 62bd af23 043e 23f9 c13d
00000030: 1b7d f13b 1844 f73d 54b8 8c3d fef1 6e3e
00000040: d820 76bd da88 703d 2026 aebd a780 ca3d
00000050: ae76 493e 30bf 2e3e b87b 2bbd 8b62 0c3d
00000060: bad7 95bc fca1 613d e64a c83c 3a66 583d
00000070: 65ca d33c 84ed a23c 2482 8bbd be8c b4b9
00000080: 858e 45bd 79c4 843d 4e24 303d 3b02 35bd
00000090: 3664 1ebd 8b20 fe3d 5095 a9bd 2755 f6bc
000000a0: eea7 3d3d 626a 193e 0efc ab3d fe37 5c3d
000000b0: eab6 473c 4d3c 96bd 812a 7ebd 4a27 f73d
000000c0: b095 893d 1172 65bd f8a1 853d 9b1f b5bc
000000d0: ac42 6e3d 9454 ca3d d292 443d a72f 363e
000000e0: 2215 fa3a 96b9 80bc 3599 6d3e 200a f63d
000000f0: 8554 7c3d 1a9c d63c d2d3 483d 5b6b a5bc
00000100: 40e9 233e 6c2f 083e bebd 3e3d 203b 3dbc
00000110: 7708 483d a740 a8bd 2b99 103e 7598 e73d
00000120: ff63 6f3d 8919 25bd ef36 723d f045 d73d
00000130: f257 183d d105 e2bc 38e1 f83d 5736 88bd
00000140: 1ac7 51bd 70a7 d4bc 59f9 3cbd fc24 8abd
00000150: fb9b 9dbc bd06 523d 7b7f 3d3d 5df3 163d
00000160: b7e9 1b3d fdd4 51bd 2562 0f3d 79c9 ab3d
00000170: 0fa5 2c3e 07c5 ab3c 2238 2e3d ecd7 afbb
00000180: 8862 693d 8563 e23d fbda eabc c0ec 80bd
00000190: 93cc ff3d 1fc8 a43d 2287 23bd a7f5 7a3d
000001a0: 6d29 563e d939 0a3e d403 45bd 16cc ec3c
000001b0: fea0 193e a000 cc3c b7a3 293c 33ca c4bc
000001c0: f754 bd3c cce5 56bd 6761 5e3d 9138 af3d
000001d0: 09f8 263e d8d0 c9bc c136 f53d eec5 4b3d
000001e0: 3c09 183d 290c 9b3d 6acb 163c adbd 723d
000001f0: 6c79 b53c 683f 633b 2ffa 56bc d71a bd3d
0.1525022 -0.00209173 -0.012806877 0.039198235 0.09410318 0.15464883 0.006104971 0.20035155
0.0638167 -0.05531975 0.12904237 0.09471347 0.00736965 0.12073535 0.06871095 0.233345
-0.060089916 0.05872426 -0.085033655 0.0988782 0.19674179 0.1706512 -0.041866034 0.034273665
-0.018291343 0.05508612 0.024449777 0.052831866 0.025853345 0.019888647 -0.06811932 -0.00034437136
-0.04823162 0.06482787 0.043003373 -0.04419158 -0.038669787 0.12408551 -0.08280432 -0.0300699
0.04630273 0.14981988 0.08397685 0.053764336 0.012189606 -0.0733572 -0.062052254 0.12068041
0.06718004 -0.056016985 0.06525034 -0.022109797 0.058169052 0.09879413 0.04799158 0.17791615
0.0019079784 -0.015713494 0.23202975 0.1201365 0.06160404 0.026197482 0.049030133 -0.020192793
0.16006947 0.1329934 0.04656767 -0.011549741 0.048836198 -0.082154565 0.14120929 0.11308376
0.058444973 -0.040307555 0.05913442 0.105113864 0.037193246 -0.027590664 0.12152332 -0.066509895
-0.05121527 -0.025958747 -0.046136234 -0.067453355 -0.019239416 0.051275957 0.046264153 0.036853183
0.038064685 -0.051228512 0.035005707 0.08388037 0.1685984 0.020967973 0.042534 -0.005366316
0.056978732 0.11054138 -0.028668871 -0.062951565 0.12490191 0.080459826 -0.039923795 0.06126943
0.2091424 0.1349863 -0.048099354 0.02890591 0.1500282 0.024902642 0.010353974 -0.024022197
0.023111803 -0.052465245 0.05429211 0.08555711 0.16305555 -0.024635717 0.11973334 0.049749307
0.03711818 0.07570679 0.009203771 0.05926292 0.022152625 0.0034675244 -0.013121172 0.09233635

fc3.weight f4 [128, 128]
00000000: e3e7 62be bbfc c8bd 828b c4bb 356d 8c3d
00000010: a357 7abe b1e5 9a3e d2ad 9f3c ec9f 773e
00000020: 138f 393e b5a0 8e3d 49b5 713e 4df9 823e
00000030: e4ac ef3b ceba 873d 47f2 913d eeb2 533e
00000040: 7d5a 8b3d c761 d9bd cee6 1fbd 111d 5dbe
00000050: 80fb 1dbe 2c50 25be 5951 7dbd 22e1 0dbe
00000060: 9af6 b4bd 88b0 26be 17b2 33be 516d 9a3e
00000070: 9e07 6cbe da1b ccbd 7ce4 81be be94 5e3d
00000080: 777a af3d 1bfc a0bc 228a 02be 37f2 3cbe
00000090: deeb ff3c d237 9bbe a9e9 143d d65f 91bd
000000a0: ca24 a0bd 62c7 debd f393 5fbe be10 71bd
000000b0: 5409 173d af68 eebb 9aec ad3d c185 46be
000000c0: f921 d3bd 1c40 bc3c 9230 8bbe 3a4b 293d
000000d0: 43ac 383d a667 813e 1f6b 4d3d 0578 83be
000000e0: 766d 4ebd 70f6 3abe 95b6 773e 116c 353e
000000f0: 047f a5be e014 0ebe 8fc7 6fbe d25b 8f3b
00000100: 652a f73d 9d7a 233e 6cff a8be 2aae b9bd
00000110: 252f 683e 4cff ee3c 7c71 813e 6bc4 703e
00000120: e51e 8abd 8615 6cbe 113b 883e 75ce 7bbd
00000130: 3f6c d7be 7646 623d b17e 59be 4b93 253c
00000140: bb5e 1e3d e9df 41be 0797 373d 1159 d43c
00000150: 1a8b 8a3d 24d4 9bbd 8aa4 69be ba19 a3bd
00000160: c159 4b3d c702 8fbd 6c9e 853d a27f 5f3e
00000170: 74ec bbbd ecc9 20bc 6b45 793e 518a 8dbe
00000180: 8df7 d0bd 2394 27be b421 08bf b60f b2bd
00000190: 3269 8cbe e370 37be 3aaf 67be 9846 47be
000001a0: db13 3abe 4b9c 2ebe 7181 94bc dedd 803d
000001b0: 55cb 18be 906c 703c 0413 653b cc94 66bd
000001c0: f45c 3f3d 80f4 193c 69b2 2bbe ebc6 773e
000001d0: 60ca 533e 2e09 09bd dcd7 0c3e 7044 f83c
000001e0: 584a ffbc e810 bc3d 6a06 babd 4f6c 383e
000001f0: 119c 31be ce60 27be e214 7bbe 6d34 403e
00000200: 50d3 d7bc bc04 103d f9f5 d93c 7951 543d
00000210: 766c 07bd 9248 9abd b02e 2d3d bcd7 b1bd
00000220: 0b55 59bd 2c92 9fbd 2357 95bd 7479 9c3d
00000230: f338 71bd f6d9 933d d6fd 77bd 5651 bfbd
00000240: ae52 b7bd 5f1e 973d b332 ffbc fbe7 e1bc
00000250: 04d1 74bd 9160 80bd 8403 673d 7f91 edbc
00000260: fa44 fa3c ee66 7d3d 888d 153d bbe2 873c
00000270: 42f8 263d 790b 9ebd ba17 26bd 8a33 40bd
00000280: 397b 883c b1b3 6c3d 11e8 fbbc bbe1 a6bd
00000290: 0989 81bd 7dd5 63bd b047 60bd c8b2 5ebd
000002a0: f31f 5bbd 363c 6f3d 1de5 763d 5275 8f3c
000002b0: 0fea a23d 6c05 3ebd 2864 653d 348f 80bd
000002c0: 66c8 1b3d 2aa1 6c3d 018d 19bd 57bd c13c
000002d0: 63eb d13c 8c34 343d e7de 593d a3c8 95bd
000002e0: d4aa 833d 92de 963d 2185 8ebb 3be1 c53c
000002f0: 414f 9ebd d4e1 09bd 0287 d4bc 9203 1abd
00000300: 6fca 15bd 32f1 11bd df37 a2bc 5d42 673d
00000310: ae74 afbd eae5 aebb cf0f 5d3d f34d 703d
00000320: 2224 4cbd 23d3 05bd 47e1 4a3d 85ce 00bc
00000330: a15b 733d 3f4a 8bbd e2c2 71bb 8b19 a2bd
00000340: 27ed a43d 28c0 1d3b ac1a 113d 6280 f43c
00000350: cf87 1dbd 3205 693d b036 aa3c 2128 3bbd
00000360: d10e 8abd 536c 86bb 05ad 4a3b 0509 5ebd
00000370: 344f 3dbd 72c8 e4bc 1a85 bfbd e03d ffbc
00000380: 03e3 81bd 5277 553d 99a3 babd af67 8a3d
00000390: d724 253d 8520 61bb 8950 93bd 0b07 8dbd
000003a0: 2ebb 80bd 8a4c 6abd c685 533d a670 993d
000003b0: b1e9 033d bb34 a0bd c0fd c0bc 1c17 f93c
000003c0: 581c 9f3d cd20 9dbc ea98 283d 6211 8abd
000003d0: 925d 663d f538 adbd c6d0 a8bc 1bac 02bd
000003e0: df3a 253d 6387 f83c 253b 50bc bd0b 80bd
000003f0: 7ffe 0d3d d602 ffbc cf83 55bc 81ce 183d
-0.2215877 -0.098138295 -0.005998076 0.06856767 -0.24447493 0.30253366 0.019492064 0.24182099
0.18120985 0.06964246 0.23604311 0.25580826 0.0073143113 0.06627427 0.07126289 0.20673725
0.06804369 -0.10614353 -0.039038472 -0.21593119 -0.15427971 -0.16143864 -0.061845157 -0.13855413
-0.08836098 -0.16278279 -0.17548405 0.30161527 -0.2304978 -0.0996625 -0.25369632 0.05434107
0.0856828 -0.019651463 -0.12748006 -0.18451773 0.0312404 -0.30316025 0.03635565 -0.070983574
-0.07819517 -0.10877873 -0.21833782 -0.058853857 0.03687413 -0.007275663 0.08492394 -0.1938696
-0.10309214 0.022979788 -0.27185494 0.041331507 0.045086157 0.2527439 0.050150987 -0.25677505
-0.05039736 -0.18258071 0.24190743 0.17717005 -0.32323468 -0.1387515 -0.2341597 0.0043749595
0.12068633 0.15964742 -0.3300737 -0.09066422 0.22674234 0.02917447 0.25281894 0.23512428
-0.06744174 -0.23055086 0.26607564 -0.06147619 -0.42074773 0.055242978 -0.21239735 0.010105918
0.03866456 -0.18933071 0.044821765 0.025921376 0.06764813 -0.07608822 -0.22816673 -0.07963891
0.049646143 -0.069829516 0.06524357 0.21826032 -0.09175959 -0.009813767 0.24342887 -0.2764459
-0.102034666 -0.16365103 -0.53176427 -0.08694403 -0.27424008 -0.17914157 -0.22625437 -0.19460523
-0.18171637 -0.17051809 -0.018128129 0.06292318 -0.14921315 0.014674321 0.003495396 -0.056294248
0.046719506 0.009396672 -0.16767277 0.24196975 0.20682669 -0.03345602 0.13754219 0.030306071
-0.03116338 0.09182912 -0.09083255 0.18010066 -0.17344691 -0.16345522 -0.24519685 0.18769999
-0.026345879 0.035160765 0.026606547 0.05183551 -0.03306242 -0.07533373 0.042280853 -0.08683726
-0.05305962 -0.07791552 -0.07292011 0.07640353 -0.0588922 0.07219307 -0.06054481 -0.093416855
-0.08951317 0.0737884 -0.031152105 -0.027576437 -0.059769645 -0.062684186 0.056399837 -0.029000042
0.030550469 0.06186574 0.036511928 0.016587606 0.0407641 -0.07717032 -0.04054997 -0.04692415
0.01666032 0.057788555 -0.030750306 -0.081485234 -0.063249655 -0.05562352 -0.054755867 -0.054369718
-0.053497266 0.05840703 0.060277093 0.017511997 0.079547994 -0.04639189 0.05600372 -0.06277314
0.03803291 0.057770886 -0.037487987 0.023649855 0.025624936 0.043995425 0.053191092 -0.07313659
0.06429067 0.07366671 -0.0043493663 0.02415525 -0.0772996 -0.033662632 -0.025943283 -0.03760106
-0.03657001 -0.035630412 -0.019802032 0.056459773 -0.08567177 -0.0053374665 0.053970154 0.05866809
-0.049839146 -0.03267206 0.049531247 -0.007861738 0.059413556 -0.06801271 -0.003688984 -0.07915028
0.08053046 0.0024070833 0.035425827 0.029846374 -0.038459595 0.05688972 0.02077803 -0.045692567
-0.06741107 -0.0041022687 0.0030925882 -0.05420782 -0.046218112 -0.027927611 -0.09351559 -0.031157434
-0.06342127 0.052115746 -0.09113235 0.06758057 0.040318336 -0.0034351659 -0.07193095 -0.06886109
-0.06285702 -0.0572019 0.05164125 0.07492189 0.032205287 -0.078225575 -0.023558497 0.030406527
0.07769078 -0.01918068 0.041161455 -0.06741597 0.05624158 -0.08458129 -0.020607363 -0.031902414
0.040339347 0.030337995 -0.012709414 -0.06252239 0.034666535 -0.031129282 -0.013031914 0.037306312

fc3.bias f4 [128]
00000000: a59d 093e 2e80 883d 3322 debc 7143 123d
00000010: 155d f73d 45ed cc3c 9fe5 8c3c 40ad 5d3c
00000020: 8f73 b5bd 9ff8 0c3e aa4b 0b3e 1fb9 5fbd
00000030: f5f4 3d3d 7a0e 85bd de67 8dbd 25c0 243e
00000040: 53ea 393e 4bbe 2a3e 1590 d23d ab2d 303e
00000050: 461c 3b3e 66b6 e5bb 39a8 e03d 6449 cd3d
00000060: 6828 54bc 819e 423a 8b3d 433d 1a1e 85bd
00000070: 6dcc 5f3c 3be7 083e bd96 143e f780 f53c
00000080: b828 bc3d 9ff0 a7bd 5898 d03d fabd 65bc
00000090: f8cd 25bd 64af a03c 56f3 93b9 c2cd 3a3d
000000a0: bdd7 bbbc 071d 1c3e f4cf 5bbd ede4 853d
000000b0: dd52 dc3d d3d4 c7ba e46d 7e3d df86 b8bd
000000c0: 7b3a 513e cb0c c3bd 1f85 013b 9501 c5bd
000000d0: 3b83 9e3d 83d2 8d3d e13a 9fbd 701a 25bb
000000e0: 57d6 3c3d 4bb5 c73d b302 c13c a89f 98bc
000000f0: b2c2 e83c 3ba6 a03d 4b64 9ebd a594 113e
00000100: e0f4 dd3d 9bdc 933d 964c c83d 5da0 583d
00000110: c3d9 e33d 799d 5b3e a7a3 b63d 6258 c23d
00000120: efb3 0b3d 766a a7bc 2809 943c d945 973d
00000130: e354 533d 473c b5bd 2f47 0abc df3c 123e
00000140: a2e5 5c3d f3d5 7dba 73f7 20bd e6bd 2f3e
00000150: 3fe4 d13d 81b1 44bd b546 ee3c 3631 223d
00000160: 0e5d 5fbb f966 f13d 6150 4bbd 0aa5 0fbd
00000170: b783 0ebc 6ce2 293d 6e4c 4dbd d0b7 e8bc
00000180: b9b2 343e 08df e03c d564 9a3d 59ad f43d
00000190: c9e0 cfbc 1d18 843d 4403 a0bd ef1d 563d
000001a0: 982d 87bd 2bb3 c9bc 55ae 7c3c 6541 2c3d
000001b0: f217 fb3a aecb 9fbd 868a c43b e00a 283c
000001c0: 47e7 973d 9318 173e 7b67 f63d ee58 c03d
000001d0: 7321 88bd c964 013d 6b8c 0a3e ed76 0e3d
000001e0: 1a80 713d 838a 7e3d 78b0 483d d8bd 56bd
000001f0: cb3a 50bd c446 3d3d a500 863d 7019 b83d
0.13439043 0.06665073 -0.027115917 0.03570885 0.12078301 0.025015483 0.017199336 0.013530076
-0.08859932 0.13766716 0.13603082 -0.054619905 0.046376187 -0.06496902 -0.06904577 0.16088922
0.18155794 0.16674154 0.10281388 0.17204921 0.18272504 -0.007010269 0.10969586 0.10023764
-0.012949087 0.00074241316 0.047666114 -0.06499882 0.013659579 0.13369457 0.14510627 0.029968722
0.09187454 -0.08200192 0.10185307 -0.014022345 -0.04047963 0.019614883 -0.00028219324 0.045606382
-0.02293002 0.15245448 -0.053665116 0.06537805 0.107579924 -0.0015245922 0.06211652 -0.090100996
0.20432465 -0.095239244 0.0019763184 -0.096194424 0.07739874 0.069249175 -0.07774902 -0.002519276
0.046102848 0.09751376 0.023560857 -0.018630818 0.02841315 0.07844206 -0.07733973 0.1421686
0.10837722 0.072198115 0.097802326 0.05288731 0.11125519 0.2144679 0.08917933 0.09489514
0.034107145 -0.020436507 0.018070772 0.07386369 0.051594626 -0.088493876 -0.008439823 0.14281033
0.053929932 -0.0009683065 -0.039298486 0.17162284 0.102486126 -0.048020843 0.02908645 0.039597712
-0.0034082565 0.117872186 -0.049637202 -0.035069503 -0.008698395 0.0414757 -0.050121717 -0.028407961
0.17646302 0.0274501 0.075387634 0.11947126 -0.02537574 0.06449912 -0.07813123 0.05227464
-0.06600493 -0.024621567 0.015422423 0.042054553 0.0019156917 -0.07802521 0.0059979586 0.010256499
0.074171595 0.14755468 0.12031456 0.09391962 -0.06647005 0.031590257 0.13530128 0.034781385
0.058960058 0.062143814 0.04899642 -0.052427143 -0.05083732 0.046210065 0.06543092 0.08989227

fc4.weight f4 [9, 128]
00000000: eba0 2d3e c752 52bd 9daf 29bb 86e1 07be
00000010: 663b b93c c2a6 f53c 9c6b 3abe 681c 3fbd
00000020: 5a72 c3bd 5955 7fbd 13c0 953e 6ddc babd
00000030: 5160 e3bc a11a 683d 9e45 023d bc12 89be
00000040: 7f06 653e 8e52 b1be a734 83bd 6b39 6e3e
00000050: 2fdd 613e 1603 90bd 5b30 50be f042 ce3d
00000060: 463a bdbc 551a 05be d0c1 73bd 84d8 2b3d
00000070: efe5 3fbd cd53 023e 8c8a 443e 2648 8dbd
00000080: 1718 2f3e 5912 c9bc 352f cd3d 396b 38bd
00000090: 6d69 a23d 14e1 55bd 43bc 5ebe 13d7 9d3d
000000a0: 1bfe 02bd 5e41 1f3e d347 9b3d 3ec4 c6bd
000000b0: aae4 d8be 2a85 503d f746 913c aba1 e23d
000000c0: b937 7a3e 66f2 4dbd d99c 433d 9c23 8dbd
000000d0: cf11 80be 6757 2fbc dce6 c3bd 1392 60bd
000000e0: 0beb eebd 7ba4 9bbc f263 acbd 5c23 2fbe
000000f0: 2628 a13d 0097 f4bd 06a9 523d cf19 3dbd
00000100: e611 523e 7fb0 a8bd 7bd7 aabd 4c2f 8abd
00000110: a53a 183d 6d2b 283e a6bc cd3d 834a debd
00000120: 38d2 d6bc 8d80 fbbd 2c48 c53d 92b6 c8bc
00000130: bc4a 563d dcd5 95bd 62f8 f5bd f381 cfbc
00000140: e26c ccbc 15ff a93d b24f 223d c033 6a3e
00000150: 8361 c83c cb7a 37bd 02ca 55be 33b5 5abd
00000160: 2497 983b 920f c73d 209a cfbc fd1b 9cbc
00000170: 8969 65be 4a02 f93b 29fc 9ebc 8e5c e53c
00000180: 3d4f 0b3e 5155 a7bd f387 213e cd6f 593e
00000190: dc68 ae3d 0ccf 26bd db75 bfbd bd10 59be
000001a0: 0b9d 10bc c2c1 193d ab45 8e3d 673e 733d
000001b0: 2de8 01bc 0974 9fbc 13a5 81bd b84e dd3c
000001c0: 09ee 03be eb73 783e 71b5 7d3e 4e80 7d3e
000001d0: e6aa fdbc bba1 003e 8288 db3c eaa0 cdbd
000001e0: 2633 d2bd 487f acbc 8a4c 8cbc 57c7 6abd
000001f0: 84cd d13c 9056 c4bc a7de 73be 18be 51be
00000200: e023 a73e ec86 6bbc 43fb 4ebd 9073 05be
00000210: ecea 903e d3b2 66be fabe 26be e14d 84bd
00000220: f3a8 d7bd d072 58bd b14c 463e 16ea 6dbd
00000230: 1bc1 c3bd 51bd 3c3d 59b7 ae3d e491 11be
00000240: fc2e 2b3e 3a87 5bbe 7639 35be e82d 5c3e
00000250: b222 fe3d 32c4 45be e229 b9bd 25f9 dbbd
00000260: 5232 12bc e636 b6bd a8f4 7dbd cdd1 c5bd
00000270: 4c29 02bd 7311 973e 8a07 3c3e 8149 43be
00000280: 2d00 703e 5b8e a3bd ecfc 903a b1f8 883d
00000290: 62f8 aa3c f04e 8abd 96ae 13be 38b0 eabd
000002a0: c441 a0bd f5a9 733e 51a0 00bd 0d74 0cbe
000002b0: 0a37 81be dfd7 91bd be31 92bd f7f6 2b3d
000002c0: 29c5 103e fe20 173c e634 6a3d 5210 50bc
000002d0: 4c4d 37bd e68d 89bc dc77 b5bd 2cfb a2bc
000002e0: f665 f6bd 1389 ecbd 492e e1bd 222f dabd
000002f0: 8311 723c 24ab ffbe 74fd d7bb 2304 2abe
00000300: aa5a aa3e b0ea 4cbe e251 40be 7c7c 5ebd
00000310: 85a1 27be 0c18 143e 9a1a c4bb ddee 7bbd
00000320: a931 33be 3a8a f5bd ba62 353e 6d73 cabd
00000330: 9748 c73b 69a5 f83b dc24 15bd 6f36 efbc
00000340: 6404 debd 0c35 273d eeb5 e9bc 77e8 983e
00000350: fb3b 163c b4fb 4fbe eae5 00bf 57b5 dcbc
00000360: bb4d 563c 55ad 413e 8e37 a73d ef98 00be
00000370: 8cc0 4cbe af0d c23d d2a1 80bd 35cd 673d
00000380: 29fe 313e 06f4 d2bd 8438 253e 97ae 8e3e
00000390: 48cb abbc 63df 1fbe 7ed3 e2bc 8753 08be
000003a0: 9e0b a23d d104 16bc 9c80 903d 2e1c bd3d
000003b0: 3ea1 0fbe 8fdf 16bd 021b 46be c61a a73d
000003c0: 1f05 11be fe13 953e 781d 853e 3f53 473e
000003d0: 20f4 bebc 66b9 183e 47be 15bd 47dd acbd
000003e0: 0353 9cbd 51a9 70bd f245 483d 757e 3c3d
000003f0: c36e a33d 612a dcbc 27a2 97bd 252f 24be
0.16955917 -0.051348474 -0.0025892027 -0.13269624 0.022611331 0.029986743 -0.18205112 -0.04665795
-0.09543295 -0.062337253 0.29248103 -0.09124074 -0.027755888 0.05666602 0.031804673 -0.26772106
0.2236576 -0.34633297 -0.06406527 0.2326409 0.22057031 -0.070318386 -0.20330946 0.10071361
-0.023099076 -0.12998326 -0.059511006 0.041954532 -0.04685014 0.1272728 0.19193476 -0.06898527
0.17099033 -0.024544882 0.1001877 -0.04502413 0.079302646 -0.052216604 -0.21751504 0.07707038
-0.031980615 0.1555228 0.07582059 -0.09705399 -0.42361957 0.050908245 0.017734034 0.11065992
0.24435319 -0.050279997 0.047757003 -0.068915576 -0.25013587 -0.010701991 -0.09565517 -0.054826807
-0.11665925 -0.018999329 -0.084175006 -0.17103332 0.07868986 -0.119428635 0.051430725 -0.04616719
0.2051464 -0.08236789 -0.08341881 -0.067473024 0.037165303 0.16422816 0.100457475 -0.10854056
-0.026223287 -0.122803785 0.09632906 -0.024501119 0.052317366 -0.07316181 -0.12010266 -0.02533052
-0.024954263 0.08300606 0.039626785 0.22871304 0.02446056 -0.04479484 -0.20877841 -0.05339546
0.0046566892 0.09719767 -0.025342047 -0.019056315 -0.2240354 0.00759915 -0.019407349 0.027998235
0.13604446 -0.0817057 0.15774517 0.21234055 0.08516094 -0.0407248 -0.09348651 -0.21197791
-0.008826504 0.037538297 0.06946882 0.059385683 -0.00792889 -0.01946451 -0.063303135 0.027015075
-0.12883772 0.24262969 0.24776246 0.24755976 -0.03096528 0.12561695 0.02679849 -0.100404575
-0.10263662 -0.021056786 -0.01712634 -0.05731901 0.025610693 -0.023967057 -0.23815404 -0.20482671
0.32644558 -0.01437543 -0.05053259 -0.13032365 0.2830423 -0.22529154 -0.1628379 -0.06460167
-0.105302714 -0.05284387 0.19365193 -0.05808457 -0.09558316 0.046078984 0.085310645 -0.14215809
0.16717142 -0.21438304 -0.17697701 0.21501887 0.12408961 -0.19313124 -0.09041192 -0.1074088
-0.00892313 -0.0889719 -0.0620009 -0.09659157 -0.031777665 0.295055 0.18362251 -0.19071008
0.23437567 -0.079861365 0.0011061705 0.06688059 0.020870391 -0.067533374 -0.14422068 -0.11459392
-0.07825044 0.23795302 -0.03140289 -0.13716145 -0.25237304 -0.07121252 -0.07138394 0.04198357
0.1413771 0.009224175 0.057179354 -0.012699204 -0.04475145 -0.016791295 -0.08860752 -0.019895159
-0.12031166 -0.11549582 -0.10995156 -0.10653521 0.014774683 -0.49935257 -0.0065914933 -0.1660314
0.33272296 -0.20011401 -0.18781236 -0.054317936 -0.16370209 0.14462298 -0.0059846165 -0.061507095
-0.17499413 -0.11989255 0.17713442 -0.09885297 0.0060816514 0.007588078 -0.036412105 -0.02920076
-0.10840681 0.040822074 -0.028529134 0.29864857 0.009169574 -0.20310861 -0.5035082 -0.026941938
0.013080056 0.18913777 0.08164893 -0.1255834 -0.19995326 0.09475266 -0.06280865 0.056592185
0.1738211 -0.1030045 0.1613484 0.27867576 -0.020970955 -0.15612559 -0.027688738 -0.13313113
0.07912372 -0.009156422 0.0705578 0.092338905 -0.14026353 -0.036834296 -0.1934624 0.081594035
-0.1416211 0.29116815 0.25999045 0.1946535 -0.023309767 0.14914474 -0.036558416 -0.08440643
-0.07633021 -0.058755223 0.04889483 0.046019036 0.079801105 -0.026875677 -0.07403975 -0.16033609

fc4.bias f4 [9]
00000000: b5ea e0bc 7fc3 243c fcd7 cd3d 5aff 4d3d
00000010: 2e3e b43c e63e 04bd f50c 023d c5a3 6fbd
00000020: b12e 9aba
-0.027455667 0.0100563755 0.100509614 0.05029235 0.022002306 -0.032286547 0.031750638 -0.058505792
-0.0011763183
