final_race_model.pth (torch, 144459 bytes, 8 tensors)

fc1.weight f4 [128, 7]
000000 08 e7 9e 3e 89 fc cb 3e 47 db 0b bd f4 27 a0 bd
       0.31035638 0.39841107 -0.034144666 -0.078201205
000010 ff 03 e9 bd d8 1c 39 3d 6e b1 a0 3d c3 98 30 be
       -0.11377715 0.045193523 0.07846342 -0.17245774
000020 38 86 60 3d f9 73 1b bd 97 00 a6 3d 7c 55 9b 3e
       0.0548155 -0.037952397 0.08105581 0.30338657
000030 3f 40 be ba 46 a4 a9 be 79 70 d1 be f7 c1 2b 3e
       -0.0014514996 -0.33133143 -0.40906122 0.1677321
000040 2f f7 fe 3d 36 cf 28 3e 1f c0 9a be 46 f3 9e be
       0.1244949 0.16485295 -0.30224702 -0.31044978
000050 7e 27 2d 3f 3c 10 91 be 17 c9 43 be 86 a6 5b 3e
       0.67638385 -0.28332698 -0.19119678 0.21450242
000060 64 de a2 3d 70 1e 81 3b d5 94 01 3e 80 c7 2c 3e
       0.07952574 0.003940396 0.12654431 0.16872978
000070 6b 0a 8b 3e e7 00 b6 3e 65 46 aa 3d 12 64 01 bf
       0.27156386 0.35547563 0.08314208 -0.5054332
000080 80 91 5e be 70 22 02 3f ee 89 5d 3e 11 6a da 3d
       -0.21735191 0.508338 0.21634647 0.10664762
000090 43 94 8b 3e 60 31 0f 3e cb c8 cb 3e 56 44 67 bd
       0.27261552 0.13983679 0.3980163 -0.056461655
0000a0 c5 e1 0e be 60 b8 ae be 4d 9a 90 3e c7 c9 ac bb
       -0.13953312 -0.34125042 0.28242722 -0.005273077
0000b0 56 f0 1a be 51 b2 72 bd c5 9a 4b 3d a5 bf b5 be
       -0.15130743 -0.059252087 0.049708147 -0.35497776
0000c0 30 1f 14 3f 81 56 40 be ff 7c d3 3e 42 6d 54 3e
       0.5786009 -0.18782999 0.41306302 0.20744804
0000d0 12 8d e5 bc 5a 1c ba 3e 82 16 3b be 81 4c 85 bd
       -0.02802137 0.36349756 -0.18270305 -0.065087326
0000e0 43 9a 02 be 9b 82 a1 3e 2e e3 9b be 69 45 8b 3e
       -0.12754159 0.31544957 -0.30446762 0.27201393
0000f0 5c df 79 be d2 fb 94 be e6 74 70 3f 9c 71 01 3f
       -0.24401611 -0.29098374 0.9392837 0.5056398
000100 f2 1e 43 be ee 85 a4 be 31 7d d1 be c5 d1 02 3e
       -0.19054773 -0.3213343 -0.40915826 0.12775333
000110 00 b9 3b 3e ef 4a 37 bd bd 47 5b 3e d5 f5 a1 be
       0.1833229 -0.044749197 0.21414085 -0.31632867
000120 28 03 93 3e 17 e4 2e 3e ca 15 89 3e e6 59 58 be
       0.28713346 0.17079197 0.26774436 -0.21128044
000130 ea a3 b8 be 39 f0 ab be c4 b5 b1 be e5 64 5f be
       -0.36062557 -0.33581713 -0.3470899 -0.21815832
000140 d3 74 29 3d d2 20 a0 be a8 55 ad be a4 fc 01 be
       0.041371178 -0.3127504 -0.33854413 -0.12694031
000150 d8 a2 45 3e 94 13 a7 be 21 61 ba 3c 9d 49 ac 3e
       0.19300401 -0.32632124 0.022751393 0.33649912
000160 f8 d3 d4 bd a6 c4 0c bf b9 63 14 3f 66 59 aa be
       -0.10391992 -0.5498756 0.57964665 -0.3327133
000170 8b d3 65 3e b1 1f c7 bc 32 4c e0 3d 3b 38 26 bd
       0.22443978 -0.024307104 0.10952033 -0.04058097
000180 4b e8 51 3d 73 6d a5 be c4 7f 8e 3e 82 f9 29 be
       0.051246922 -0.32310066 0.27831852 -0.16599086
000190 56 94 1a 3e 3a bb 71 3d d9 d5 c8 bc 75 58 47 3e
       0.15095648 0.059016444 -0.024516033 0.19467337
0001a0 cb 33 c4 be a7 54 b2 3e e1 59 3f 3d a9 77 0f be
       -0.38320765 0.3483021 0.046716575 -0.1401049
0001b0 48 93 d6 3e c2 fe 28 3e 6a fb 49 be 22 89 93 be
       0.41909242 0.16503432 -0.19724813 -0.28815562
0001c0 31 14 21 be e3 ec 97 3d 9b 74 e5 bc 5c 4f 80 3e
       -0.15730359 0.074182294 -0.028009703 0.25060546
0001d0 43 87 8b 3e d7 6c ac be 34 22 1d bf ae 57 d1 3e
       0.27251634 -0.33676788 -0.61380315 0.40887207
0001e0 e4 56 d6 3e ed 11 05 3e 1c 1e 0a bf 8c 19 93 be
       0.41863167 0.1299512 -0.53952193 -0.28730428
0001f0 41 c4 fa 3e 18 f7 27 3f bc 19 31 bd ab 46 38 be
       0.48977855 0.6561141 -0.043237433 -0.17995708
000200 e9 ca 6b 3e 2c 94 c9 bd b4 11 a6 be 75 5f 82 3e
       0.23026623 -0.09842715 -0.3243538 0.25463453
000210 33 e2 43 3d d1 92 41 be 13 f8 bb be 03 a6 78 be
       0.047823142 -0.18903662 -0.36712703 -0.24282078
000220 c0 5b af be 03 be 52 3e 1f 4f 18 3e 92 64 9f 3c
       -0.34249687 0.20580296 0.14873932 0.019457135
000230 ba c0 43 3d 29 46 90 bd 71 68 ad 3e 46 42 88 3e
       0.04779122 -0.07044632 0.33868745 0.26613063
000240 e8 7a 89 bd ab 39 77 be d5 1b e9 be 6f 15 67 bd
       -0.06712896 -0.24143092 -0.45529047 -0.056416925
000250 c7 4e cc be 31 80 a6 be 31 ac ad be 76 89 8f 3e
       -0.39903852 -0.32519677 -0.33920434 0.28034562
000260 12 5d b5 be 04 72 98 bd 53 4e 98 be 59 82 af be
       -0.3542257 -0.07443622 -0.29747257 -0.34279135
000270 b4 40 37 be f0 72 62 be 97 c8 22 3e 61 f8 94 3d
       -0.17895776 -0.22114158 0.15896831 0.07273937
000280 0f 2a b0 3c d4 dc 68 be 23 76 9e be b5 d6 6e 3e
       0.02150443 -0.22740489 -0.30949506 0.23324092
000290 59 50 d5 3e 92 6b a3 3e b0 0b e1 be d5 0c 0a bf
       0.41662863 0.31918007 -0.4395423 -0.5392583
0002a0 ea 74 31 3e 10 58 a7 3e 7a 88 65 3e 65 00 0a bd
       0.17329755 0.32684374 0.22415343 -0.033691783
0002b0 05 39 04 be 03 a9 e6 be 17 7c b2 be 13 1b 9a 3d
       -0.12912376 -0.4505082 -0.34860298 0.07524695
0002c0 59 74 a8 3e 95 ac 95 bd c2 6b 82 be 64 51 89 3e
       0.32901266 -0.07308308 -0.25472838 0.2681991
0002d0 41 8c 0f be 0c 6f 41 3e b3 3c 87 3e 9a f5 85 be
       -0.14018346 0.18890017 0.26413497 -0.26163942
0002e0 af 8d 87 3c 81 69 76 3e ea 08 11 be cd 31 ba 3c
       0.016547052 0.24063684 -0.14163557 0.022728825
0002f0 66 2d 83 3c d0 5e a2 bd e9 60 ad 3e 21 09 92 3e
       0.016012859 -0.0792824 0.33863 0.2852259
000300 01 1a 5d be c1 31 98 be 38 22 85 be da 7e e7 bd
       -0.21591951 -0.2972546 -0.2600267 -0.11303492
000310 16 ef 32 3e 81 07 8b 3e e4 5b a8 be 1f df d0 3e
       0.17474017 0.27154163 -0.32882607 0.40795228
000320 64 a9 2b bc 0f ad 6c bc 81 83 1a bf 19 04 d4 3d
       -0.010477398 -0.014445557 -0.6035691 0.10352344
000330 9c ad bd be ad b4 2d be 6a 20 90 be 50 76 10 bd
       -0.37046516 -0.16963454 -0.2814973 -0.03526908
000340 4a 6c 83 3e 38 72 5f 3e 85 e7 ae 3e d2 22 1b 3b
       0.25668555 0.21820915 0.3416101 0.0023671878
000350 df 08 83 3d 88 c5 ca 3e 66 33 7e 3e 79 ff a3 be
       0.063981764 0.3960383 0.24824294 -0.32030848
000360 5f ef 08 bf 0b c6 7d 3e 8e 7e 9f bd c5 f0 b0 be
       -0.5349025 0.24782579 -0.0778781 -0.34558693
000370 50 4c 2a be 19 95 8d be ea c8 5c 3e 3d 09 97 be
       -0.16630673 -0.27652815 0.21561018 -0.29499236
000380 8e dc ee 3d b5 14 7d 3e f6 57 7e be 3d 49 84 bd
       0.11663161 0.2471493 -0.24838242 -0.064592816
000390 41 e7 46 3e a9 62 dc bc 11 64 b2 be 31 29 b8 be
       0.19424154 -0.026902514 -0.3484197 -0.35968927
0003a0 66 58 a4 be c3 c9 4c be 48 49 6c be 41 0b c4 3b
       -0.32098693 -0.19998841 -0.2307483 0.005982787
0003b0 2d 3e 5f 3e fb aa 3b be ad 3a 44 3b 2f db 88 3e
       0.21801062 -0.18326943 0.00299422 0.26729724
0003c0 2c 99 50 3e b2 23 64 bd e1 15 96 bc 38 7d 6a 3e
       0.2037093 -0.055698104 -0.01832098 0.2289933
0003d0 69 51 7d be 7d 43 b8 be 8a db 74 be 84 33 84 be
       -0.24738087 -0.3598899 -0.23911873 -0.25820553
0003e0 28 26 af be 41 c6 dc 3c 83 f0 9c 3e f6 d0 b5 be
       -0.34208798 0.026950004 0.30652246 -0.35510987
0003f0 c6 e6 97 be 44 5b c5 3e 83 15 1e be 26 0c a7 bc
       -0.29668254 0.38546193 -0.15437894 -0.020391535

fc1.bias f4 [128]
000000 a0 78 8a 3e 22 bc a6 3e dc d3 f1 3d 1b d4 74 3e
       0.27045155 0.3256541 0.11807987 0.23909037
000010 9d 17 b7 3d 8a 1a b1 bd ab 78 25 bd f3 bd 80 3e
       0.08940051 -0.0864764 -0.04039828 0.2514492
000020 23 3e 6a 3d 4d 12 a1 3e 45 5b 9a be 2a 26 59 bd
       0.057188164 0.31459275 -0.30147758 -0.05301491
000030 93 64 41 be ad a7 80 be 65 b2 48 3e 23 12 e8 3c
       -0.18886022 -0.25127926 0.19599302 0.02832896
000040 62 c8 12 3e db 27 6b bd c0 8d de bd 22 bd 37 be
       0.14334252 -0.057411056 -0.108668804 -0.17943242
000050 91 30 38 3e 5c 53 8f 3e 8a 46 84 be 27 d6 68 3e
       0.17987277 0.27993286 -0.25835067 0.22737943
000060 d6 3e 6f 3e 11 bf 63 3d 15 f8 83 3e 80 28 4e 3e
       0.23363814 0.055602137 0.2577521 0.20132637
000070 85 d3 86 3e 68 15 7f be 15 04 7b 3e 6d b0 58 be
       0.26333252 -0.2491051 0.24513276 -0.21161051
000080 35 7f c0 be 30 aa bb be fc 92 90 bd 8e 94 f0 bc
       -0.3759705 -0.3665328 -0.07059285 -0.029367711
000090 43 e0 1f 3e 74 a2 59 3e e6 8b 9b 3e 3b c3 80 be
       0.15612893 0.21253377 0.30380172 -0.2514895
0000a0 eb 46 a3 3c f5 fc ad 3e 79 98 c6 3c 7e b1 7c be
       0.019931277 0.33982053 0.024242627 -0.24677083
0000b0 dc b0 59 3e e1 b6 97 3d 75 6a c8 3e 6d fc 4c 3e
       0.21258873 0.07407928 0.3914372 0.20018168
0000c0 ed be 43 bd cb 2c cb 3c bb 9e 9f 3e 5a 6d f8 bd
       -0.047789503 0.024801632 0.3117579 -0.12130232
0000d0 23 41 8e 3d 8d 6d 6f bd 15 90 24 be f8 d1 a8 3a
       0.069460176 -0.058454085 -0.16070588 0.0012879958
0000e0 ef f2 81 be c2 cf 95 3e 5d e5 ab be 19 dd 1d be
       -0.25380656 0.2926007 -0.33573428 -0.15416373
0000f0 7b 3f 48 3e ee 9c 78 3e 15 70 f3 bd 73 25 3c 3c
       0.19555466 0.24278614 -0.11886612 0.011483538
000100 0a 7c ed bd 9c ee 38 3e 5d fe 95 3e b6 bb 93 be
       -0.11595924 0.18059772 0.29295626 -0.2885415
000110 a7 ad 90 3e 7e b5 5e 3e 79 35 57 3d 88 91 c5 bd
       0.28257486 0.21748921 0.05254123 -0.096468985
000120 cc 40 b0 be eb 43 e8 bc 06 d5 82 3e f4 fd 9d bd
       -0.34424436 -0.028352698 0.2555315 -0.07714453
000130 ed fd cb 3e 37 e0 8b bd e6 3a 9f 3e d3 57 0f 3e
       0.39842167 -0.06829875 0.31099623 0.13998346
000140 92 b4 83 bd 95 e2 a5 3e a2 d6 a4 be 1b 51 af be
       -0.064309254 0.3239943 -0.32195002 -0.34241566
000150 6e a1 70 bd a0 ff 7e be 57 c6 d2 3a 8c 22 ba be
       -0.0587477 -0.249022 0.0016080838 -0.36354482
000160 57 67 b5 bd a3 bd 3e 3d f6 fa 9f 3e c0 22 59 bd
       -0.08857601 0.04656757 0.31246156 -0.053011656
000170 63 1f 4a be 43 cb b2 3d 48 2d 10 be 46 6b ae be
       -0.19738536 0.08730175 -0.14079773 -0.34066218
000180 f7 00 7d be d1 95 4b 3d 02 cb 99 3e 29 5f 8e be
       -0.247074 0.049703423 0.30037695 -0.27806976
000190 eb 3d 8a bd 3b 28 58 be c0 29 92 be 4a 76 ad be
       -0.06750091 -0.21109097 -0.28547478 -0.3387931
0001a0 34 da ac 3d 10 2a b9 3d 87 85 d4 bd df 23 a8 bd
       0.084400564 0.09041226 -0.10377031 -0.08209967
0001b0 92 d8 c2 bd 8e 8c 53 3e c4 2a 3b 3e eb 8c 28 be
       -0.09513964 0.20659086 0.18278033 -0.16460006
0001c0 17 f2 2d be 42 3f 63 3c 68 9e 7b 3d c9 05 f4 bd
       -0.16986881 0.013870062 0.061430365 -0.11915166
0001d0 f7 a8 95 3e 2e ca 86 3e 43 5a 93 bd d0 a9 a7 3d
       0.29230472 0.26326126 -0.071949504 0.08186686
0001e0 ba 3c c2 3e 8b c8 a6 be be 47 df bd 69 67 a9 3e
       0.37936956 -0.32574877 -0.109023556 0.33086708
0001f0 31 b0 ac 3c c9 d0 91 3e b1 d2 b5 be e8 e3 74 3d
       0.021080108 0.28479603 -0.35512307 0.05978766

fc2.weight f4 [128, 128]
000000 80 fb ad 3d 03 33 09 3d 6e 38 a2 be c4 76 93 bd
       0.084952354 0.033495914 -0.31683677 -0.07200387
000010 de 38 0e be 88 9f 48 bb 87 25 89 3a e3 b7 4a bd
       -0.1388888 -0.0030612666 0.0010463455 -0.049491774
000020 ea 22 e5 be 11 e2 a9 be d2 1b 87 3c 94 16 5c 3d
       -0.447532 -0.33180287 0.016492758 0.05373247
000030 a5 08 55 be eb a9 41 bd 51 4d 17 bb 37 4c 97 bc
       -0.20804079 -0.047281187 -0.0023086856 -0.01846896
000040 20 1d 18 3e e8 33 cc be b6 7a a5 bd e2 70 50 bd
       0.1485486 -0.3988335 -0.08080046 -0.050888903
000050 74 66 ee bc e8 3e 47 bb 68 30 99 bb c3 88 03 3e
       -0.029101588 -0.0030402485 -0.00467496 0.12845139
000060 7b ce c4 3c 95 3f b1 3d ee 84 a4 3d 1b 91 89 3c
       0.024024239 0.086547054 0.08033167 0.016792824
000070 21 47 67 3c 1d 74 99 3d fd 85 a7 3d 93 10 67 bd
       0.01411608 0.0749285 0.08179853 -0.05641229
000080 fe 65 47 bc c8 cb 88 bd 7f 52 69 bd 43 c6 a6 bd
       -0.012170313 -0.06679493 -0.05696344 -0.08143284
000090 ee a6 ac 3d 89 c3 81 3d b3 57 4f 3d 70 ac 87 3d
       0.08430277 0.063361235 0.050620746 0.06624687
0000a0 52 a7 e8 3c a8 e8 5d be a2 4d 7d 3d fe 99 af bc
       0.028400097 -0.21670783 0.061841615 -0.021435734
0000b0 c3 ca 0b be e5 60 b8 be 67 fd ab 3d 86 67 02 bf
       -0.13651566 -0.36011425 0.08397942 -0.50939214
0000c0 33 95 00 3e 7f 76 f3 3c db 34 90 bb 23 ad 19 3e
       0.12556915 0.02971959 -0.004400832 0.15007453
0000d0 a7 27 a7 3d 9a 8f 02 bd 56 48 05 3e 08 12 b1 3d
       0.0816186 -0.03187523 0.13015875 0.08646017
0000e0 6d 1c 0b bd 71 2c 58 bd 16 f3 4b 3c 37 65 fb bc
       -0.033962656 -0.052776758 0.012448093 -0.030687911
0000f0 89 af 56 bc 6c e6 cc be e3 96 aa 3d 9a 22 5c bc
       -0.013103374 -0.40019548 0.083295606 -0.013435984
000100 11 cf 25 bd 29 87 2f 3d 12 85 e0 bc 7e e9 b4 3d
       -0.040480677 0.04285351 -0.027407203 0.088335976
000110 78 e0 36 bd fb 52 58 be a3 83 90 bd c1 50 dc 3d
       -0.044647664 -0.21125405 -0.07056358 0.1075759
000120 92 a2 3d bd cb f3 3f bd 39 a3 ab 3d a5 a5 a1 3d
       -0.046297617 -0.04686336 0.083807416 0.07892922
000130 fa 47 40 bd 50 96 c2 bb 2c 08 e7 3d 94 fa c5 3c
       -0.046943642 -0.005938329 0.112808555 0.024167337
000140 65 a0 17 3e d2 ea ba 3d f0 8d 9e 3c 23 6c 1f bd
       0.1480728 0.0912682 0.01935479 -0.038921487
000150 14 a0 a4 3d a8 36 37 3d a1 9f eb bc 80 6e 11 3d
       0.08038345 0.04472986 -0.02876264 0.03550577
000160 b8 99 a4 bc c3 9c 32 be 65 54 d4 3d d8 a8 13 3e
       -0.02009283 -0.17442612 0.103676595 0.14419878
000170 c9 ab 77 3d f5 01 a2 3d 0d 2c 50 3d 98 81 b0 3d
       0.06046656 0.079105295 0.05082326 0.08618468
000180 92 f0 cc be ad f6 29 be 5b 15 f5 3d 05 be bc b9
       -0.4002729 -0.16598006 0.11966964 -0.0003599973
000190 e0 d3 c8 3c 47 58 72 3d 58 61 9c 3c 58 64 e7 bc
       0.024515092 0.05916622 0.019089386 -0.02824609
0001a0 10 12 55 3d d5 91 8d 3d c7 92 96 3d ce 4b 49 3d
       0.05201918 0.06912581 0.07352214 0.04914456
0001b0 87 7d 42 be 4f cc 46 3d 12 ed bd 3d 07 86 ea 3c
       -0.18993197 0.048534688 0.09273733 0.028628362
0001c0 10 65 f6 be f4 ec 23 be a0 45 cf 3c 65 a0 ba 3d
       -0.4812398 -0.16008359 0.025301754 0.09112624
0001d0 80 22 4d bd 0f 5c 2a 3d 25 c3 8a 3d c9 70 43 3e
       -0.05008173 0.0415917 0.06775502 0.19085993
0001e0 02 52 84 3d 92 7d 87 bd b5 5a 85 be 0f 07 f1 3d
       0.06460954 -0.066157475 -0.26045766 0.117689244
0001f0 09 d5 15 3e 5f 95 a5 bd 52 fd 37 bd 79 9b aa be
       0.14632048 -0.08085131 -0.04491932 -0.3332174
000200 2a 0d 30 3d 84 f8 91 bc 77 83 37 bd d0 0c 62 bd
       0.042981304 -0.017818697 -0.04480311 -0.055188
000210 35 20 e1 bb b8 2d 8f bc 36 b4 81 bd fc 68 91 bd
       -0.0068702945 -0.017477855 -0.06333201 -0.07100102
000220 74 23 03 bd 82 b1 24 3c ff b4 c6 bc 77 c3 1b bd
       -0.032016233 0.010052087 -0.024256228 -0.038028207
000230 bf 7f 7c bd be 39 41 3c fb 79 8e 39 56 b9 46 bd
       -0.061645266 0.011793552 0.00027175233 -0.048516594
000240 71 57 43 3d 41 57 80 3d 5a a0 88 bd be ef 35 3d
       0.047690812 0.06266642 -0.0667121 0.04441809
000250 9e 74 9e 3d 9f bd 95 bd 0c cc ad bd b0 4f e2 3c
       0.07737087 -0.07311558 -0.084861845 0.027625889
000260 2a b3 78 bd 62 22 63 3d 8d 97 9a 3d ce 8f b1 3c
       -0.06071774 0.055452712 0.07548437 0.021675017
000270 c3 56 96 bc b7 c4 4d bc 31 e1 0d 3d 96 68 bd bc
       -0.018351918 -0.0125591075 0.034638587 -0.02312116
000280 f9 2b 6c 3d 12 d6 10 bc 56 11 2a 3d bc f5 e0 3c
       0.057659123 -0.008840101 0.04152044 0.027460925
000290 ba ca 93 3d d4 1d 87 bc 1c 0c 8b bc c3 b2 87 bd
       0.072164014 -0.016493715 -0.016973548 -0.06625893
0002a0 83 5c 19 3d bd c5 02 3d c5 c3 8f 3d 1c d7 90 bd
       0.03744174 0.03192686 0.07019762 -0.07072279
0002b0 dc 31 57 3d 03 35 e3 bb 85 73 ad 3c 85 58 9f 3d
       0.052537784 -0.0069338097 0.021173248 0.07780556
0002c0 05 58 90 bd 65 5f 5f bd 5e 24 98 3d 0e 8d 2f 3c
       -0.070480384 -0.054534335 0.074288115 0.010714782
0002d0 b7 07 b1 3d 8e aa 1a 3d d5 34 14 3c fe b7 a5 bd
       0.086440496 0.03776031 0.009045799 -0.08091734
0002e0 f2 80 66 bb 3f 53 51 bc e1 e7 fe bb b3 28 3a 3c
       -0.0035172072 -0.012776195 -0.007779107 0.0113622425
0002f0 9e 14 b9 bc 3b e6 61 3d d8 03 b1 3c 75 7a 64 ba
       -0.022592839 0.055151206 0.021608278 -0.0008715757
000300 8a 3d ca bc 34 49 68 3d a9 59 61 bd 5c 78 d3 3c
       -0.024687547 0.056710437 -0.055017147 0.025814228
000310 7e 8c 98 3c e4 c2 08 3d 60 ac 21 3d e2 e1 82 bd
       0.01862168 0.033388987 0.03947103 -0.0639074
000320 4b ca 58 3c 65 a8 ac bd a3 31 83 bd 5b 62 13 3d
       0.013231824 -0.08430556 -0.06405952 0.03598247
000330 7b 20 03 3c 80 39 b0 bb 00 45 2e bc 60 22 00 bc
       0.008003349 -0.0053779483 -0.010636568 -0.007820696
000340 33 6d 8c 3c eb ea d6 bb 42 ad 12 3d 7f 90 80 3d
       0.017141914 -0.006558766 0.035809763 0.062775604
000350 3c be 0b 3d 90 19 10 3d 56 f3 bd 3c 1d 17 b5 3c
       0.03411697 0.03518063 0.02318732 0.022105748
000360 85 6f a6 3d 47 c9 b6 3c e8 2d 63 bd e7 ea 1e 3c
       0.081267394 0.022312773 -0.0554637 0.00969956
000370 a5 ff 71 bd 72 00 56 bd 5e 51 0a bd 34 53 12 bc
       -0.059081692 -0.05224652 -0.033769004 -0.00893097
000380 ae 89 7c bd 99 8b b7 bc e8 87 af 3c 10 ec 8b bd
       -0.06165474 -0.022405433 0.02142711 -0.06832135
000390 e0 c7 36 bd 90 30 75 3d 22 b8 8a 3d 83 b5 d5 bc
       -0.04462421 0.059860766 0.06773402 -0.026087528
0003a0 8e ad 71 3d e4 a9 2b 3d 9f 3b a1 bd 0b e7 94 3c
       0.059003405 0.041910067 -0.078727 0.018176576
0003b0 68 dc 6a bc 92 cb b7 bc 9b 19 0c 3c 52 1f 9f bd
       -0.0143347755 -0.022435937 0.008551027 -0.07769646
0003c0 50 28 81 3d 9b c8 ab bc 96 a8 f7 3c 3f 40 0f bd
       0.06306517 -0.02096968 0.030231755 -0.03497338
0003d0 2f e4 99 bd 67 dd 82 bd ea ac a2 bd 57 50 0a bd
       -0.07514226 -0.063898854 -0.07943137 -0.033768024
0003e0 3b 49 a5 3d 6b 9a d2 bc 42 fe 80 bd ed 07 43 bc
       0.08070608 -0.025708398 -0.06298496 -0.011903745
0003f0 ea 28 d0 bc a6 18 89 3d f2 b9 f0 bc 7d 5d fd 3b
       -0.025410134 0.066941544 -0.02938554 0.007732092

fc2.bias f4 [128]
000000 e0 82 89 3b 80 0c 8c bc f1 55 a5 bd 91 cd 1e bb
       0.0041965097 -0.017095804 -0.08073033 -0.0024231414
000010 62 43 2f bd 5f 93 76 3d d2 08 34 bd 9a 32 b1 bd
       -0.04278887 0.060199138 -0.043953724 -0.086522296
000020 0b 41 3a 3c da cc a0 bc 10 22 5e 3d e5 dc 0b 3d
       0.0113680465 -0.01962893 0.054231703 0.03414621
000030 75 60 b2 3d c6 69 6f 3d d4 69 b0 bd 00 34 73 bc
       0.08709804 0.058450483 -0.08613935 -0.014843941
000040 1f 01 34 bd 30 73 49 bd 82 e1 4f 3d 38 67 e3 bc
       -0.04394638 -0.049182117 0.05075217 -0.02775918
000050 41 d4 82 3c e3 be 9c bd 41 dd 85 3d 7b e1 00 3d
       0.015970351 -0.07653596 0.065363415 0.031465035
000060 17 5f 82 3d 42 44 a4 3c 9c 15 c8 3c c8 c9 22 3c
       0.06365793 0.02005208 0.024424367 0.009935804
000070 db 26 9e bd 45 da 9a bd 00 c8 71 3a 1d b8 a7 bd
       -0.07722255 -0.07561163 0.0009223223 -0.08189414
000080 4c 22 fc 3b 9a f8 6c 3d fa 4b a5 3d e1 72 b4 bd
       0.007694518 0.057854272 0.08071132 -0.08810974
000090 68 1c 28 3b 3c c7 be bd 82 7a 90 bd e2 cf 47 bc
       0.0025651697 -0.09315345 -0.070546165 -0.012195559
0000a0 b2 22 4c bd f9 75 68 3c cc 90 77 bd 83 cc eb bc
       -0.049837776 0.014188283 -0.060440823 -0.028784042
0000b0 06 81 ea 3c fb dd d0 bc 28 85 20 bd 5d fa a2 bd
       0.028625976 -0.025496474 -0.039189488 -0.07957909
0000c0 9f 97 4e bd b5 87 93 3d 9b da 65 bd 9a 76 29 3d
       -0.050437566 0.072036184 -0.05611668 0.041372873
0000d0 df 29 f9 3c b1 8a 89 3d 77 8c b0 bd 13 ea 54 bd
       0.030415474 0.067159064 -0.086205415 -0.051981043
0000e0 a2 a0 27 bc cf 91 1c bd d9 78 af 3d 4c 32 8f 3d
       -0.010231169 -0.03822499 0.08567972 0.06992015
0000f0 37 06 73 3c 94 c1 b3 bd f3 76 b0 bd b4 74 51 bd
       0.014833025 -0.087771565 -0.08616438 -0.051136687
000100 eb d5 c2 3c 3d eb 56 3c fd 4e 90 3d 9b d8 05 bd
       0.023783645 0.013117609 0.07046316 -0.032677274
000110 93 e8 91 bd cb cb 62 bd de 78 b2 bd 6b 23 60 bc
       -0.07124438 -0.055370133 -0.0871446 -0.013680319
000120 0e 57 99 bc 25 67 6b bd 33 a2 23 3d 24 46 85 bd
       -0.018718269 -0.057471413 0.039949607 -0.06507519
000130 f4 de a1 bd 50 ba 49 3d 19 65 b2 bd d9 34 47 3d
       -0.07903853 0.049249947 -0.08710689 0.048634384
000140 23 b4 65 3b d3 82 77 bd 4f 07 21 bd 09 f9 aa bd
       0.0035049997 -0.060427498 -0.03931361 -0.08348281
000150 b2 95 ad bd 0d 46 58 bd f5 a3 6a bd 73 a7 83 3c
       -0.08475818 -0.05280118 -0.057285268 0.016071057
000160 e5 5f 75 3d d0 d1 a2 3c 11 37 19 bd a0 82 ab bb
       0.059905905 0.019875437 -0.03740603 -0.0052340776
000170 47 4a bd 3d 12 99 87 bd 2c 19 9c 3d 8f b9 1a bc
       0.09242683 -0.06620993 0.07621989 -0.009443655
000180 c7 31 48 3c 68 d9 49 3d 78 90 84 3d 37 74 43 bc
       0.012218899 0.0492796 0.06472868 -0.011929563
000190 0f 3c 37 bd 04 e9 9b bd 81 fe 0c 3d 3a 79 b9 bd
       -0.04473501 -0.076128036 0.0344224 -0.09056325
0001a0 27 19 1e bd 01 e8 b0 bd 84 17 da 3c 27 bf 12 3c
       -0.038598206 -0.08638001 0.026622541 0.008956707
0001b0 63 52 81 3c 38 e1 8d bd 88 f2 9e 3c 09 aa 61 bc
       0.015786355 -0.06927723 0.019402757 -0.01377345
0001c0 06 aa f5 3d 89 f5 b1 bd 13 ea 87 bd 23 a7 8f 3d
       0.1199532 -0.0868941 -0.06636443 0.07014301
0001d0 d7 ba b2 bd de 50 ae 3d e3 87 79 3d 95 97 61 bd
       -0.08727043 0.08511518 0.060920607 -0.0550762
0001e0 54 02 c0 3c 79 63 03 bd c3 31 58 bc de 4d 76 3d
       0.02343861 -0.032077286 -0.013195458 0.060132854
0001f0 ba 53 07 bb 37 0f 23 bd 26 ca 8a 3d 6b 3d b1 bd
       -0.002064927 -0.039809432 0.06776838 -0.08654293

fc3.weight f4 [128, 128]
000000 20 09 ea 3d 10 3f d3 bc 07 ae 1b 3d fc 48 0b 3e
       0.11427522 -0.025786906 0.038007762 0.1360206
000010 d2 bb ae 3d c5 bf af 3d c4 eb ac 3d 7c f8 6b 3d
       0.08531918 0.08581499 0.08443406 0.05761002
000020 7c 44 85 3d f1 e4 f4 3d a0 cd e0 3d 92 47 dc 3d
       0.06507203 0.119577296 0.1097672 0.107558385
000030 93 d6 b7 3d ca 4e 2a bc 70 64 49 3d fb a5 31 bd
       0.08976474 -0.010394761 0.04916805 -0.043371182
000040 e3 ab 36 3d dd a8 e4 bb 81 35 12 bc 19 85 09 3e
       0.044597518 -0.006978138 -0.008923889 0.13429679
000050 a7 5c 04 3e 32 b0 72 3d 1a a8 49 3d 8d a5 bc bd
       0.12925969 0.059250064 0.04923258 -0.09211264
000060 00 fc 80 3d 56 f5 1d 3d 1d 8e f3 3d b2 e5 43 bd
       0.06298065 0.03856405 0.1189234 -0.047826476
000070 35 3e d6 3d cd 82 03 bd f0 1d 86 3d 10 b5 cb 3b
       0.10461084 -0.032107163 0.06548679 0.0062166527
000080 4f 4a 40 3d ec c2 7a 3e f8 3d 18 3d da f7 53 3c
       0.046945866 0.2448842 0.037168473 0.01293751
000090 29 43 01 3a f7 b8 58 3e 31 c0 1f 3d 29 17 ab 3c
       0.0004930967 0.21164308 0.039001647 0.020885067
0000a0 cc c2 11 3e 4b 82 39 3d 31 5f 84 3d 2f 3e e3 bc
       0.14234465 0.045290273 0.06463469 -0.027739612
0000b0 b8 2b c4 3d a8 00 e1 3c 92 96 69 3d 21 70 32 3c
       0.09578651 0.027466133 0.05702836 0.010890991
0000c0 7a 6b 91 bd c1 f0 77 3c 4a c4 08 3e 6c 93 f0 3d
       -0.07100578 0.015133084 0.13356128 0.117468685
0000d0 0f fa 2b 3c 10 89 99 3d c4 1f ac 3d ca 84 c3 bd
       0.01049663 0.07496846 0.08404496 -0.09546812
0000e0 6d c4 b6 3c 10 5d aa 3d c1 6f 13 3d 6a 39 6a 3d
       0.02231046 0.083185315 0.03599525 0.05718366
0000f0 9a cb 84 3d 3e 04 d6 bc e7 d6 ea 3d a3 d9 77 3d
       0.064841464 -0.02612507 0.114667706 0.06051029
000100 c0 30 30 3d 66 c5 56 3c 36 6e 8c 3d 47 ce e3 bb
       0.04301524 0.013108587 0.068569586 -0.0069520804
000110 e0 ac 61 bd e3 22 1c bc c2 de 95 bd 68 46 a3 3c
       -0.055096507 -0.009529802 -0.07317878 0.019931033
000120 82 3c 64 bd 3a 34 c6 3d da 47 08 bd 47 87 15 3e
       -0.055721767 0.0967793 -0.033271648 0.14602385
000130 93 66 db 3c b0 6f f2 3d 5f 06 ae bd 0b c8 6c bd
       0.02678231 0.11837709 -0.08497309 -0.057807963
000140 10 98 c7 3d 4f 38 04 3e c9 53 10 3c b5 40 8e 3c
       0.097458005 0.12912105 0.008809038 0.01736484
000150 86 34 fd bc f8 28 8d 3d 47 25 ad 3d 26 78 3e 3d
       -0.030908834 0.0689258 0.08454376 0.0465013
000160 43 0b 55 be da 88 ea 3d 74 d0 01 3d b5 70 73 3d
       -0.20805077 0.114518836 0.031692937 0.059433658
000170 f0 e7 cc 3c e9 58 63 3d 94 76 b0 3b e3 e3 76 bd
       0.02501294 0.055504713 0.0053852294 -0.060275923
000180 fb 87 7c 3d 00 1f 88 bd 4c 55 39 bc 65 1b b0 bc
       0.06165312 -0.06646538 -0.01131184 -0.021497438
000190 70 ba eb bc 6c e1 36 3e 91 e6 2a bc 41 bb 23 bd
       -0.028775424 0.17859429 -0.010430948 -0.0399735
0001a0 85 e7 97 3d ab d5 73 3d a3 c7 1e bc 00 5f 05 3c
       0.07417206 0.05952994 -0.009691152 0.008140326
0001b0 73 c4 0a 3d aa c2 28 bd bf 30 e4 3c 70 73 86 3d
       0.033878755 -0.04120127 0.027855275 0.06564987
0001c0 e9 94 11 be d3 22 aa 3d c4 a7 56 bc 18 ba fe 3b
       -0.14216961 0.083074234 -0.013101522 0.007773649
0001d0 3d 11 1b 3d d5 63 07 3d 62 aa 19 3e 5e d0 5f 3d
       0.037858237 0.03305419 0.15006402 0.054642074
0001e0 1f 40 a5 3d d7 87 c4 bc 4d bf db bb 89 db 90 3d
       0.08068871 -0.023990555 -0.0067061544 0.07073123
0001f0 d2 c0 78 3d ab bd b6 3d 07 f6 8c bd 55 ed 8a bd
       0.060730763 0.08922895 -0.068828635 -0.06783549
000200 07 66 0a 3e cf cd 94 bd 08 60 b0 bd 8e 87 15 3e
       0.13515483 -0.072658174 -0.086120665 0.14602491
000210 dd b5 49 3c dd 0f 77 3d 64 22 42 3d 46 f6 35 bd
       0.012311426 0.060317863 0.04739608 -0.044424318
000220 43 22 2d 3e 5a 03 d0 3d 64 a6 47 bb dd 2e 8e 3d
       0.16907601 0.10156889 -0.0030464167 0.06942532
000230 80 12 f0 3d 4b 74 cb 3c dc a2 68 bc e1 ea 7f 3d
       0.117222786 0.024835726 -0.014198985 0.062479857
000240 d4 41 86 3d 2d 57 1f 3d 9d c9 4c 3d b4 62 5a 3d
       0.065555245 0.038901497 0.04999696 0.053316787
000250 ec 5e 03 3e 1b 40 da 3d 8e 1d dd 3d 26 b0 e7 3b
       0.12829179 0.106567584 0.10796653 0.007070559
000260 8e 89 11 3e df bd 50 3d 63 5f b4 3c fe ac 4d 3b
       0.14212629 0.050962325 0.02201814 0.003138363
000270 0d 65 2e 3e fb e4 1b 3d 21 81 b1 3d eb 07 0f bd
       0.17030735 0.03806017 0.086672075 -0.03491966
000280 19 27 09 3d 4e 67 0a 3e 8a e9 29 3e a3 0c c2 bc
       0.033484552 0.1351597 0.16592994 -0.023687666
000290 11 86 07 bd 22 34 31 3e 24 de ed bc c4 1f 21 3e
       -0.03308684 0.17305043 -0.029036589 0.15734774
0002a0 fb a5 2a 3e 32 97 0d 3e d5 b4 2a 3c 50 6b 0d bd
       0.16664879 0.13827208 0.01041909 -0.03452617
0002b0 60 74 19 3e 56 c3 20 3e fe ea 17 bd 01 9e 89 3d
       0.149858 0.15699515 -0.03708934 0.0671959
0002c0 5b 94 7b bd 26 1b 2e 3e c3 bc 87 3d 5e 81 9d 3c
       -0.06142078 0.17002544 0.066278 0.019226726
0002d0 5d 57 32 3d 72 5e a3 3d 0e d8 97 3d 24 44 01 bc
       0.043540347 0.079769984 0.07414256 -0.007889781
0002e0 b6 ad b5 bd 37 8d 1b 3e 2d 3d fb 3d 35 16 22 3d
       -0.08871023 0.15190588 0.12267528 0.03957196
0002f0 fb fa eb bc e8 8d 26 3d dd 7d 09 3c 96 ea ca 3d
       -0.0288062 0.040662676 0.008391825 0.09908025
000300 3e e3 af 3d 09 73 88 3d 0d e7 99 bd 36 cd 95 3d
       0.08588265 0.06662566 -0.075147726 0.073145315
000310 4a ba 11 bd db 04 c1 3d 9a b8 37 bd 37 d5 a4 bd
       -0.03557805 0.09424754 -0.044853784 -0.0804848
000320 0b eb 1a 3d 6d 7e 91 3d 30 cd 08 3c 46 c7 0e 3e
       0.03782181 0.07104192 0.008349702 0.13943204
000330 2e 7b 09 3d fa 29 22 3e 8c 2b a5 bc 74 99 8f 3d
       0.03356474 0.15836325 -0.020162366 0.07011691
000340 64 04 8d 3d d0 aa 42 3c f3 94 6b bd 13 d5 15 3d
       0.06885603 0.011881545 -0.057515096 0.036580157
000350 1a 90 7b 3d 7f 70 bd bc 13 74 e6 3d dd 3a b5 3c
       0.061416723 -0.023124931 0.11252608 0.022122795
000360 26 25 4f be 10 d2 1a 3d 4b be b3 3d 6b 0a aa bd
       -0.20229015 0.037797987 0.0877653 -0.08302768
000370 99 f7 0e 3e 97 00 8f 3d c5 db 94 3d 0e e2 13 3c
       0.13961639 0.069825344 0.0726848 0.009026064
000380 36 2a 88 bd 5c a5 80 3b 47 f5 4f bc 11 8d ea 3c
       -0.06648676 0.0039259624 -0.012692756 0.028631719
000390 e0 90 aa 3d 8d e5 21 3e a6 53 96 bd 85 6c b2 bc
       0.08328414 0.15810223 -0.073401734 -0.021780262
0003a0 de 0e b6 bd 7a c1 f8 3c 45 c5 72 bd 89 fb b2 3c
       -0.088895544 0.030365694 -0.059270162 0.021848457
0003b0 f5 ad 5a 3d f5 ee 39 3d 52 39 4a bd c5 81 98 3d
       0.053388555 0.045393903 -0.04937107 0.074466266
0003c0 6d bb 04 be 96 1d 6b 3d e5 13 bc 3d 82 ba 03 bd
       -0.12962122 0.057401262 0.09183482 -0.03216029
0003d0 ee 55 ba bc 9b 54 3e bd 0c 4f 37 3e 90 2d b0 3c
       -0.022746053 -0.046467405 0.17901248 0.0215061
0003e0 c8 d4 1f 3d d0 e9 0c 3c 6e 6e 2a 3d f4 12 8f 3d
       0.039021283 0.008600667 0.04160922 0.06986037
0003f0 c9 17 98 3d 61 6c da bb ca e3 45 3c 00 bb 52 3d
       0.07426412 -0.006665752 0.012078235 0.05144787

fc3.bias f4 [128]
000000 65 a4 31 3c 6e f2 a8 3d 56 b4 88 3d b0 09 b0 bd
       0.010842417 0.08249365 0.06675021 -0.08595598
000010 ee d2 45 bd 4a 2a dd 3c f5 99 d2 3c ad e4 48 bd
       -0.04829686 0.026997704 0.025708178 -0.049046207
000020 e2 7a d4 3d 3f d0 c5 bb 15 ac 81 3d fc ed 80 bd
       0.103750005 -0.0060367878 0.0633165 -0.06295392
000030 f1 54 cc 3a ea 79 90 bb 80 1b 82 3d 22 81 26 3d
       0.0015589279 -0.0044090645 0.063529015 0.040650494
000040 19 92 53 bc 0a 8b 7d 3d dd 3b 5a bd 21 a2 b3 3c
       -0.01291325 0.061900176 -0.053279746 0.021927895
000050 0e 04 82 bd db 4c 46 bc cc c2 d8 3d ca 21 24 3d
       -0.063484296 -0.012103285 0.105840296 0.040071286
000060 82 ef 5f bd bf 81 56 bd ac a1 82 3d f6 a0 8d 3d
       -0.05467177 -0.05236983 0.06378493 0.069154665
000070 2a fb 66 3d 7a 22 83 3d 55 04 5f bc cf 34 be 3d
       0.056391872 0.0640306 -0.013611873 0.09287416
000080 85 57 a6 bd b4 d1 74 3d d7 91 85 3d 3c ea cc bc
       -0.08122162 0.0597703 0.06521957 -0.025014035
000090 52 d0 b2 bd 4b 6a d2 bd ad f3 5d 3d 14 c0 84 bd
       -0.0873114 -0.1027418 0.054187465 -0.064819485
0000a0 da c7 88 bd 68 f9 99 bb 3c 91 02 3d 1a 97 f5 3b
       -0.06678744 -0.004698921 0.031876788 0.0074948194
0000b0 70 9d f4 bc f3 5d d2 bc 6f ab b1 3d c7 37 24 bd
       -0.029860228 -0.025679564 0.086752765 -0.040092256
0000c0 5b 06 88 3d ff 91 af 3c d8 43 97 3d e6 87 07 3c
       0.06641837 0.021431921 0.07385987 0.008272147
0000d0 22 7f a9 3d e4 e1 fd bc 2b 17 af 3d 91 f9 0f 3d
       0.08276202 -0.030991502 0.08549341 0.035150114
0000e0 36 00 aa bb b7 15 54 3d 39 fb 5b 3d 43 0e 5e 3d
       -0.0051880134 0.05177852 0.05370638 0.05421282
0000f0 93 b6 e5 bc 7f 8b 7d bc 99 5e 4f 3d c8 66 9e bd
       -0.02804116 -0.015475153 0.050627325 -0.07734448
000100 ef 88 7f 3d 76 e4 d9 bc 64 de 8a 3d 42 c3 5b 3d
       0.06238645 -0.026598196 0.06780699 0.05365301
000110 1d b6 47 3d 83 27 51 bd 1c 16 78 3d 95 32 82 3d
       0.04875766 -0.051063072 0.06056796 0.06357304
000120 1b 24 27 bd c1 a0 f9 bc c7 1a bd bd 95 2c d5 3c
       -0.040805917 -0.030472161 -0.09233623 0.026022235
000130 a6 d1 2a bd 12 4d 9c 3d 91 89 67 3d 44 f0 bf 3c
       -0.041703843 0.076318875 0.056527678 0.023429997
000140 8c 3c 82 3d 6d e8 ff bc f7 0f 49 bd 99 b2 05 3d
       0.06359205 -0.031238759 -0.04908749 0.032641027
000150 5a 0d 24 3d 64 0f 6c bd 65 cd 0b 3d da f5 1c 3d
       0.040051796 -0.057631865 0.034131426 0.0383204
000160 89 3c 66 bd 3e 29 ae 3d 98 56 83 bd 65 6c d8 bc
       -0.056210075 0.0850396 -0.06413001 -0.026418874
000170 fe e1 58 bc 6c d1 a2 3d aa d4 2e bd 3e ea f6 ba
       -0.0132374745 0.079501 -0.04268328 -0.001883812
000180 6a 09 68 3a e8 eb d1 b8 17 17 fd 3b e4 30 9b 3a
       0.00088515005 -0.000100098376 0.0077237 0.0011840132
000190 97 db 4c 3d 7b 1e 8d bd 53 cf 2c bd 7b 38 0f bd
       0.050014105 -0.06890579 -0.042189907 -0.034965973
0001a0 30 7f 90 3d b9 42 0b bd 98 52 8c bc cb b2 4c bc
       0.07055509 -0.03399918 -0.017129228 -0.012493799
0001b0 88 16 80 3b b2 ce c1 3d bf 83 91 3d be 50 86 3d
       0.003908936 0.09463252 0.07105207 0.06558369
0001c0 a2 fd a6 3d 0b df bd bd 32 70 01 bd c2 32 96 3d
       0.08153845 -0.09271058 -0.03160114 0.073339
0001d0 a2 7e 13 bd 21 3f 25 bc 06 42 81 bd 63 6a 77 3d
       -0.03600944 -0.010085852 -0.06311421 0.060404193
0001e0 e7 a2 b1 3d 42 b4 91 bc 1d c8 5f 3c d5 af a5 bd
       0.08673649 -0.017786149 0.013658551 -0.08090178
0001f0 b6 b8 1a 3c af 5f 45 3d 5c f5 20 3d a5 be 62 bd
       0.009443453 0.048186954 0.039296493 -0.055357594

fc4.weight f4 [9, 128]
000000 45 09 27 bb 1e 7b d9 bc 09 af ad 3d 18 b0 aa 3d
       -0.0025487703 -0.026547965 0.08480651 0.083343685
000010 50 5a ad bd b7 36 8c 3d ec 6a 1a 3a d9 21 de 3c
       -0.08464491 0.068463735 0.00058905664 0.02711575
000020 df f7 a3 3d 0e d4 90 bd e1 2c 04 bc 79 91 8b 3d
       0.08006262 -0.07071696 -0.008067341 0.06814856
000030 23 b9 95 3d 3c eb 73 3d 3e f3 8b 3d b2 6c a9 3d
       0.07310703 0.05955051 0.06833504 0.08272685
000040 0d ea 05 3c ca f2 fd 3c 72 94 95 bd 33 cd 2e bd
       0.008173478 0.03099956 -0.07303704 -0.042676162
000050 e9 88 87 3d b3 6a 7f bb 6b 15 9e bc 45 7e ab 3c
       0.066179104 -0.003897351 -0.019297322 0.020934233
000060 29 0a a0 3b 6d 6c 10 bd f0 12 c5 3d c4 10 26 3d
       0.0048840237 -0.035259653 0.09622753 0.040543333
000070 e9 b8 30 3d 37 61 6a 3d 9f c1 ce 3d b8 38 05 bc
       0.043145094 0.057221618 0.10095524 -0.008131199
000080 75 9c 85 3d 50 27 bb 3d da 12 20 bd 96 8c 1a 3d
       0.065239824 0.09138358 -0.03908048 0.03773173
000090 a6 62 b7 3d 72 14 68 bd 0f 72 81 bc a8 1c ea bc
       0.089543626 -0.056660123 -0.015801458 -0.028578117
0000a0 f2 88 94 bd d1 f5 9b 3d 19 94 b0 3d 7f c7 50 3d
       -0.07252683 0.07615245 0.086219974 0.050971504
0000b0 35 b8 49 3b f7 21 ae 3d 58 03 85 3d 11 a1 9b 3d
       0.0030779962 0.08502572 0.064947784 0.0759908
0000c0 d2 fe 81 bd 98 7e 24 3d e2 9f c9 bc e2 af 83 3d
       -0.06347431 0.04015979 -0.02461237 0.06430031
0000d0 40 21 ba bc c9 84 ac 3c 55 22 17 3c b6 9f 03 3d
       -0.022720933 0.02105941 0.009224494 0.032134734
0000e0 6e 10 b3 bd d4 a9 37 3d e4 4e 2e 3d 1a ad 7a 3c
       -0.08743368 0.044839695 0.042555705 0.01530006
0000f0 f7 4b 30 bc fb 6f c7 bc 60 ec c2 bc 31 59 9a bd
       -0.010760299 -0.024345389 -0.023794353 -0.07536543
000100 6a bf ba 3d b6 ff a5 bc 3d 37 46 bd 62 7f 13 3c
       0.091185406 -0.020263534 -0.048392523 0.009002538
000110 c4 2d fe bc 0a 9d 4b 3d 15 46 ab 3d 06 50 40 bd
       -0.031027682 0.04971031 0.083629765 -0.046951316
000120 98 76 b5 3d 19 cc d3 bc 98 ad a0 3d 8b 55 8d 3d
       0.088605106 -0.025854157 0.078456104 0.06901082
000130 ea 56 8a bd 62 0c 5d bd ae d5 fd 3d 47 f1 80 3a
       -0.06754859 -0.053966887 0.12394272 0.0009837531
000140 f0 ea 8b 3d 87 33 4f bd bf d9 cb 3d 7a c5 c1 bc
       0.0683192 -0.05058625 0.09953641 -0.023653734
000150 60 e3 a1 3c f1 1d e0 3d 06 69 01 3d 07 df 4e bd
       0.019761741 0.10943211 0.0315943 -0.050505664
000160 e2 7d 57 3d 2e 7a 85 3d 44 e3 22 3d 14 fc ec 3c
       0.052610286 0.065174446 0.03976752 0.028928794
000170 84 d5 79 bd 38 7b e9 bc 72 58 8f bd 9e 20 04 bd
       -0.06099464 -0.028501138 -0.069992915 -0.03225767
000180 6c 32 97 3d 73 4d 04 3d 88 a8 2b bd 06 e6 d2 3c
       0.07382664 0.032300424 -0.04190877 0.02574445
000190 cf 80 04 bc 3c 81 44 bd 96 5e 6b bd d8 00 3d 3d
       -0.008087351 -0.04797481 -0.05746325 0.046143383
0001a0 23 c7 74 3d ac 7f 94 3c 9a 9e 53 3d 99 99 7b 3c
       0.059760224 0.018127285 0.051664926 0.015356445
0001b0 72 38 e7 3c 32 fb 1b 3d e7 9d 98 bd 9e f9 81 3d
       0.028225157 0.038081355 -0.074519925 0.06346439
0001c0 c3 f0 36 3d b4 56 49 3d ee c7 97 bd c5 e6 f1 3c
       0.044663202 0.049154952 -0.074111804 0.029528985
0001d0 34 a6 28 3d 2b 34 69 3c 30 d8 54 3d 9e e6 8a 3d
       0.04117413 0.014233629 0.051963985 0.06782268
0001e0 ab 2d f6 3c aa 73 b2 3d 5d 70 29 bd f3 41 4f 3d
       0.030051073 0.087134674 -0.041366924 0.050600003
0001f0 e3 31 8a 3d d5 ed 91 3d 2b dc 4b 3d b7 aa 8c bd
       0.067477964 0.07125441 0.049770515 -0.06868499
000200 3f dd 08 3d 03 ea e8 3c 91 fc 84 3d b6 c0 39 3c
       0.03341412 0.028431898 0.06493486 0.01133745
000210 a0 30 fa bc c6 82 5c 3d b7 3d 71 3d df c0 4c 3b
       -0.030540764 0.053835653 0.058896746 0.003124289
000220 37 f1 8d bd d6 5b 3b 3d df 25 d0 3d 71 f8 8d bd
       -0.06930774 0.04574188 0.10163473 -0.06932152
000230 af 8a 54 bd 54 35 d3 3c 13 26 ad ba a7 be 34 3d
       -0.05189007 0.025782265 -0.00132102 0.044127133
000240 74 75 23 3d 7c 7d af bd 66 02 7c bd 3d 66 b1 3b
       0.039906934 -0.08568856 -0.061525725 0.005413799
000250 03 47 1f bc c0 ff a4 3c 7c 8c 92 3b ce 09 d6 3d
       -0.00972152 0.020141482 0.0044723134 0.10451089
000260 0f 18 95 3d 7d ca e7 bc 49 9a 08 bd 27 9a 53 3c
       0.072799794 -0.028294796 -0.033350263 0.012915171
000270 b6 cd 72 bd e5 57 92 bd c9 c7 5e bd 10 d2 93 3d
       -0.059278212 -0.07145671 -0.05438975 0.072178006
000280 ae 3a 4c bd e2 ee fd 3c 8d 81 28 3d bd ac 5f bd
       -0.04986065 0.030997697 0.041139174 -0.054608095
000290 a7 16 ad bc 52 79 85 3d b6 e5 85 3d d3 23 7d 3d
       -0.021128966 0.06517281 0.065379545 0.061801743
0002a0 b6 82 7f 3d 33 0c 65 bd d3 52 b3 3b 7e 72 25 bd
       0.062380515 -0.055919837 0.00547252 -0.04039239
0002b0 cc 03 83 3d 88 53 c2 3d 40 19 52 bd 0d b2 b5 3d
       0.063972086 0.094885886 -0.05129361 0.08871851
0002c0 aa 32 6d 3d c7 b9 7b 3d 74 7e c3 bc 88 f4 c3 bc
       0.057909645 0.061456468 -0.023864008 -0.023920313
0002d0 af da 95 3d fc d2 9f 3b 44 f8 3f 3c 92 ce 79 3d
       0.07317101 0.004877446 0.011716906 0.060988016
0002e0 54 ec 46 3d 02 db c5 3d 43 bc 05 bd b1 f4 75 3d
       0.048565224 0.09660913 -0.032650243 0.06004781
0002f0 a1 2b 5a 3d 4f 2c ab bd 86 0b 20 3c e9 9c 60 3b
       0.053264264 -0.083580606 0.009768372 0.0034273213
000300 0a 00 40 bd 3b 97 cd 3d e5 c9 3f bd 89 90 51 3b
       -0.046875037 0.100386105 -0.0468234 0.0031977019
000310 64 51 ec 3c 3b 26 e3 bc e7 37 72 bd dd 77 aa 3d
       0.028847404 -0.02772819 -0.059135344 0.08323643
000320 35 76 5f 3d 61 ef 10 bd a9 f0 1a bd e4 77 a2 bc
       0.05455609 -0.03538454 -0.037827168 -0.019832559
000330 4e dd 3b 3d 0e cb 2a bc 49 c2 51 3d e0 d1 15 3d
       0.04586535 -0.010424389 0.051210675 0.036577106
000340 21 84 87 bd 3b 95 94 bd b6 ae ab 3d d8 8f a2 3b
       -0.066169985 -0.07255026 0.08382933 0.004960995
000350 46 a7 94 3d 58 86 10 3d 48 77 dc bc d0 5d 9d bd
       0.072584674 0.03528437 -0.026912346 -0.07683909
000360 50 f8 30 3d bd ab 4d bd 7f 17 2d bd 7f 19 81 bc
       0.04320556 -0.05021261 -0.042258736 -0.015759228
000370 25 33 9b bd da a3 64 bc 46 d4 b0 bd d0 08 8e 3c
       -0.075781144 -0.013955081 -0.08634238 0.017338187
000380 dc 32 da ba 64 ec 1d 3c 88 1d d3 bc 52 e2 25 3d
       -0.0016647237 0.009638879 -0.025770918 0.04049904
000390 12 5b 4e 3d 8b 80 78 3d 4c e6 9f 3d e4 75 8f 3c
       0.05037982 0.060669463 0.078075975 0.01751227
0003a0 b8 c0 9f bd c7 e2 8c bc 83 a5 ef bb 97 93 29 bd
       -0.0780043 -0.01719798 -0.0073134317 -0.04140052
0003b0 87 c5 57 3c b2 48 3e 3d 94 8e 22 bd a7 4e 10 3c
       0.013169653 0.046456046 -0.039686754 0.008807815
0003c0 a7 06 7a 3d 3f b9 19 bd 5f 73 5a 3d 9c 3c e0 3b
       0.0610415 -0.03753018 0.053332683 0.0068431627
0003d0 ec fe f0 3c 4e d4 f9 bc 09 a1 92 bd ba 48 8f 3d
       0.029418431 -0.030496743 -0.07159621 0.06996293
0003e0 55 a8 76 3d 3e b3 aa 3c 29 8b 46 3d 4f 27 64 bc
       0.060219128 0.020837422 0.048472557 -0.0139253875
0003f0 9f b2 65 3d 54 6b 14 bc 62 86 4f bd 2e b1 90 3d
       0.05607855 -0.009058792 -0.050665267 0.07065044

fc4.bias f4 [9]
000000 95 8c 89 3d 99 33 a4 3d 2e 7c 2e bd 2d f3 b7 bc
       0.06716267 0.08017654 -0.042598896 -0.022454822
000010 fb fc 04 bc c6 9c 05 bd 6c 1e 4b 3d ea 8c 27 bd
       -0.008116956 -0.032620214 0.04958956 -0.04090587
000020 38 fa a1 3d
       0.079090536
