final_race_model.pth (torch, 144459 bytes, 8 tensors)

fc1.weight f4 [128, 7]
000000 d4 37 98 be 50 c9 63 3d e9 6b 42 be de e6 5d 3e
       -0.29730093 0.05561191 -0.18986477 0.216701
000010 bf 9a 99 3e 1e 7c 9a be d9 7f 80 be 3e 60 37 3e
       0.30000874 -0.3017282 -0.2509754 0.17907807
000020 ae e6 b1 be 31 ea b3 3e 57 c3 a2 be a3 7b 8a be
       -0.34746307 0.3513961 -0.31789657 -0.27047452
000030 68 1f eb 3d 6a 09 44 be e4 06 a3 3d a9 dc b0 3e
       0.114806 -0.19144216 0.07960299 0.3454335
000040 c8 00 30 3d 78 6e a5 be 88 84 e5 bd b1 7d 9c 3e
       0.042969495 -0.32310843 -0.11206919 0.30564645
000050 55 fe 8a 3e 30 d5 94 bd df 14 48 be 1c b2 c6 3d
       0.27147165 -0.07267225 -0.19539212 0.097019404
000060 19 6e 95 be 77 d4 8a be 00 a7 a7 bb 26 41 16 be
       -0.2918556 -0.27115223 -0.0051163435 -0.1467329
000070 9c 42 b3 3d 55 22 0d be 7c c0 ac 3d 0d ca 89 3e
       0.08752939 -0.13782628 0.08435151 0.26911965
000080 96 7b a0 be bb fc 95 3e 2b 23 a1 3e 90 71 85 be
       -0.3134429 0.2929438 0.31472144 -0.26063204
000090 1f 3d b7 be 50 3a c0 bc 14 21 98 bd 28 c2 18 bd
       -0.3578882 -0.023465306 -0.07428184 -0.037294537
0000a0 d2 0c 5c 3e 4f 98 86 3e 4f 04 ac be 40 5f 5a bc
       0.21489266 0.26288077 -0.33597037 -0.013328373
0000b0 ab 23 9c 3e 69 86 b6 3e 9e dc 2a 3e 58 c6 ef bd
       0.30495963 0.35649422 0.16685721 -0.11707753
0000c0 ff 37 23 be 94 c5 94 be 13 56 bd 3e 1e 31 74 3e
       -0.1593933 -0.2905699 0.36979732 0.23846862
0000d0 89 c1 af be d8 a7 31 bd 30 7d 7b bd e0 72 d6 bc
       -0.34327343 -0.04337296 -0.061398685 -0.026177824
0000e0 a8 cc b5 bd 94 78 ca 3d 70 7b 84 bd 68 5d 7a 3d
       -0.08876926 0.0988628 -0.06468856 0.061124235
0000f0 5c 30 ac bd a6 94 5f 3e a0 0f 53 be 92 ab 09 be
       -0.08407661 0.21834049 -0.20611429 -0.13444355
000100 a7 ef ba 3e c6 d4 ac be fd b1 8a be eb 3f 84 be
       0.36510965 -0.33756083 -0.2708892 -0.25830016
000110 d5 28 a6 3e 74 b8 e2 3d b5 3f 82 3e 07 f3 18 be
       0.32453027 0.11070338 0.2543923 -0.14936458
000120 80 ba 27 be 9c 8b 34 be f5 74 6f be fa c2 82 be
       -0.16379738 -0.17631382 -0.2338446 -0.2553938
000130 9c 2b 83 bd c8 e4 36 3d b3 ce 35 be 24 06 9e be
       -0.06404802 0.044651777 -0.1775463 -0.3086406
000140 d9 7d 93 be e5 c2 9c 3e 7e 87 26 3e e2 b9 3e 3e
       -0.28806952 0.30617443 0.16262624 0.18625596
000150 22 27 08 3e ab b8 bb 3e 75 96 7d be f6 0c 37 3e
       0.13296178 0.36664328 -0.24764426 0.17876038
000160 ec bf be be d8 ad b1 bd 07 c6 89 3e e4 f0 f9 bd
       -0.372558 -0.08675736 0.26908895 -0.12204149
000170 42 1a 93 be 62 36 2b 3e 21 5d a7 3e 12 fe 0d be
       -0.2873097 0.16719964 0.3268824 -0.13866451
000180 bb f1 9a be ef e1 b8 be eb 3e b9 be 9a 6d 29 3e
       -0.3026255 -0.36109874 -0.36180815 0.16545716
000190 a0 47 5c 3d 50 82 f5 bc 78 06 cf 3d 1a 91 27 be
       0.053779244 -0.029969364 0.10108656 -0.16363946
0001a0 ae 8b 17 be eb b9 97 3e ae 9a 44 3e 22 96 51 3e
       -0.14799377 0.29634032 0.1919963 0.20467427
0001b0 cd 72 af be 98 42 2e bd 9f 32 13 be 61 17 82 3e
       -0.34267274 -0.042543977 -0.14374779 0.25408462
0001c0 e8 73 7a bd 00 d2 7d bd 7d e0 bf be 69 15 9b 3e
       -0.061145693 -0.06196785 -0.37475958 0.30289772
0001d0 a8 68 a2 be 4b 08 6f be 8f 36 88 be e3 3e a6 3e
       -0.3172047 -0.23343007 -0.26604125 0.32469854
0001e0 d8 00 aa 3d 4c 03 8e be 12 9f 33 3e 58 69 41 3d
       0.08300942 -0.2773689 0.1754115 0.047219604
0001f0 10 2b 49 3d e5 ab 7b be 40 90 3a be 72 9f 41 3e
       0.049113333 -0.24577291 -0.1821909 0.1890848
000200 01 0b a5 3e 52 87 70 3e 42 5f 2c be d0 ba 00 bd
       0.32234958 0.2348912 -0.16833213 -0.03142816
000210 50 7c c7 3c 23 f5 ac 3e 92 25 73 3e 02 e0 00 3e
       0.024351269 0.33780774 0.237448 0.12585452
000220 d2 db 26 be d0 78 ff bc e0 26 6f 3d b8 12 5a 3d
       -0.16294792 -0.031185538 0.058386683 0.053240508
000230 aa 1f 94 be 67 b3 34 be e5 59 ad be 89 f3 b5 3e
       -0.28930408 -0.17646562 -0.33857647 0.35537365
000240 34 5a cb bd 78 c7 4a bd ec a4 ae 3d 3c 56 b5 be
       -0.09929314 -0.049506634 0.0852755 -0.35417354
000250 30 50 b9 be 42 2b 49 3e 89 dc 81 3e 5e 66 1a be
       -0.3619399 0.19645408 0.25363567 -0.15078112
000260 68 5e ee 3d 68 f3 f6 bd 89 c9 a6 be df 31 a0 be
       0.116391 -0.12058145 -0.32575634 -0.3128805
000270 48 22 ba 3d f8 92 fe bd 07 b7 34 be d0 99 be 3c
       0.0908857 -0.12430376 -0.17647944 0.023266703
000280 1b b9 93 3e b8 3c 2e be 48 7d 79 3d d9 1d b2 be
       0.28852162 -0.1701535 0.060910493 -0.34788397
000290 fe e4 98 be 60 e1 f7 bc c0 84 75 be 3e b6 51 3e
       -0.29862207 -0.030258834 -0.23976421 0.20479676
0002a0 27 59 53 be 00 57 12 bb 40 a8 98 bd 78 9f 22 3d
       -0.20639478 -0.0022329688 -0.07453966 0.039702863
0002b0 33 87 ba be 1a 31 4f 3e 28 4a a6 be 98 43 b6 be
       -0.36431274 0.20233575 -0.32478452 -0.35598445
0002c0 ef d8 ad be e0 a6 28 3c f3 d5 2c be 11 97 28 be
       -0.3395457 0.010293692 -0.1687849 -0.16463877
0002d0 8c 56 e0 bd 89 ef 9a 3e 1b c6 bc 3e a6 57 70 3e
       -0.109540075 0.30260876 0.36869892 0.23470935
0002e0 9b 2f a8 3e 8b 67 ae be c3 ed 1b be cb 5a bd be
       0.3284882 -0.34063372 -0.15227418 -0.36983332
0002f0 f2 37 27 3e f0 46 fe bc a1 56 87 3e 56 10 2c 3e
       0.16329935 -0.031039685 0.2643328 0.16803107
000300 0d bd 9f 3e 60 75 a4 3c 74 74 fb 3d f8 5b 74 bd
       0.31198922 0.0200755 0.12278071 -0.05965802
000310 6b f4 ad 3e d0 da e1 3d c4 36 0f be 69 1a 90 3e
       0.3397554 0.11028063 -0.13985735 0.2814515
000320 d0 d1 28 3d 37 0d a2 3e 02 40 4d be c8 58 a2 3d
       0.041215718 0.31650707 -0.20043948 0.0792709
000330 db 3d 93 3e 94 39 b6 3d a0 ac 45 be 46 87 76 3e
       0.2875813 0.08897701 -0.19304132 0.2407504
000340 82 0f bd be 3a 70 05 be b0 80 9c bd bc 0d c8 3d
       -0.36925894 -0.13031092 -0.07641733 0.097682446
000350 4b 47 5d be 48 58 6b 3d 58 5e 0e bd 73 1f bc 3e
       -0.21609227 0.05745724 -0.034757942 0.36742744
000360 72 5a 68 3e 53 aa a7 3e b8 63 88 bd c0 e2 77 bc
       0.22690752 0.32747135 -0.06659645 -0.015129745
000370 da 6b 4b be 80 03 9d 3d 46 60 20 be b7 f9 b0 3e
       -0.19865361 0.07666683 -0.15661725 0.34565517
000380 1a b4 11 3e 00 dc 21 bd c0 c1 ef 3c b9 94 8c 3e
       0.1422886 -0.03951645 0.029267192 0.27457216
000390 62 f3 13 3e b0 97 bb 3c 60 80 87 3d 38 3a c8 3d
       0.14448312 0.022899479 0.066162825 0.09776729
0003a0 e8 3d 9f 3d 87 ab b2 3e 05 d3 36 be 42 42 67 3e
       0.077754796 0.3489649 -0.17853935 0.22583869
0003b0 93 99 97 be 28 d8 d7 bd 9a 7b 90 be 5d 35 26 be
       -0.29609355 -0.105392754 -0.282193 -0.16231294
0003c0 78 bb 0d bd 40 8b b6 be 31 fa 83 3e b9 8b a5 3e
       -0.034602612 -0.35653114 0.25776818 0.32333162
0003d0 30 8d ed bd 50 0c e3 3c 00 23 d4 bd 8f 15 a1 3e
       -0.11599195 0.027715832 -0.10358238 0.3146176
0003e0 68 8a 5e bd a4 84 9c be 13 89 a6 be 5e dc 4a 3e
       -0.054331213 -0.30569947 -0.32526454 0.19810626
0003f0 33 e1 7a be 6a 71 92 be f2 60 23 3e 50 3b a7 be
       -0.24499969 -0.28602153 0.1595495 -0.3266244

fc1.bias f4 [128]
000000 20 00 86 3c 07 df 87 3e 00 40 d9 b8 20 bb ae be
       0.016357481 0.26537344 -0.00010359287 -0.3412714
000010 54 0e ee bd cc f5 82 be 94 00 a5 be 05 48 8c 3e
       -0.116238266 -0.25578153 -0.32227004 0.27398697
000020 b3 83 59 be ca 9d 12 3e 83 5e 32 be 9a 98 21 be
       -0.21241646 0.14318004 -0.17418866 -0.15780869
000030 7f 72 8e be d4 26 d8 3d 2d 35 8d 3e e0 82 01 be
       -0.2782173 0.10554281 0.27579632 -0.12647581
000040 ba c5 a8 be a0 0c ac be f6 62 2b 3e 2f 4d 87 be
       -0.32963353 -0.33603382 0.1673697 -0.26426074
000050 95 87 a2 be 5c ce a9 3d 58 6b 53 3d 26 6b 85 be
       -0.31744066 0.08291313 0.051616043 -0.2605831
000060 60 ce a7 3c c7 b8 94 3e 7e bd 84 be a0 03 3e be
       0.02048415 0.29047224 -0.2592582 -0.1855607
000070 54 bf 9e 3d c9 0c a8 3e 8d 00 be 3e 20 df e8 3d
       0.07751337 0.32822254 0.37109795 0.11370683
000080 cc b3 8a 3d 60 16 97 3d 18 58 b3 bd 44 25 d1 3d
       0.06772575 0.073773146 -0.08757037 0.10212186
000090 43 94 9c 3e bd 27 b0 be ec cd 9e bd 13 19 a0 3e
       0.30581865 -0.34405318 -0.0775412 0.3126913
0000a0 8e a6 27 3e 74 59 d6 3d 7d 01 5f be 7e f0 35 3e
       0.1637213 0.104662806 -0.21777911 0.17767522
0000b0 a7 2b c0 3e f0 5f a2 bd cf 77 9f 3e 10 24 8f 3d
       0.37533304 -0.07928455 0.31146094 0.069893
0000c0 bf 92 be 3e a2 47 60 3e 9d c2 8b be 1a df a2 be
       0.37221333 0.21902326 -0.27296916 -0.31810838
0000d0 2a 97 79 3e 67 84 b5 3e 44 bb 99 3d 00 f4 9c 3b
       0.24374071 0.35452577 0.07506421 0.0047898293
0000e0 40 ed 09 be a3 3e 80 3e 00 81 c3 bb 0c 2d 99 be
       -0.1346941 0.25047788 -0.0059663057 -0.2991718
0000f0 f3 c2 bc 3e fe a4 0a 3e c0 5e 61 bd a3 74 8e 3e
       0.36867484 0.13539502 -0.055022 0.27823362
000100 1a 8d 61 be ed 5c bc be f2 f3 9b be 8a 09 66 3e
       -0.22026482 -0.36789647 -0.30459553 0.22464576
000110 6f f9 96 3e 18 f4 06 bd c1 f4 b3 3e 43 75 8d 3e
       0.29487178 -0.03294763 0.3514767 0.27628526
000120 5a d2 2e 3e 51 35 32 be b8 eb 04 3d 78 da 92 bd
       0.1707243 -0.17403151 0.03245136 -0.07170576
000130 99 2d b8 be 8f c4 9a 3e 36 e2 25 3e 09 19 b1 3e
       -0.35972288 0.30228087 0.16199574 0.34589413
000140 50 2d a8 bd 08 5a 45 bd 72 bb 59 3e 74 09 77 be
       -0.08211768 -0.048181564 0.21262911 -0.241247
000150 f6 23 1e 3e 6e 8f 07 3e cc d2 02 be c1 d9 33 be
       0.15443406 0.13238308 -0.12775725 -0.17563535
000160 e8 87 0b bd 40 08 1b bd a9 80 3a be c8 f8 c2 bd
       -0.034065157 -0.037849665 -0.18213142 -0.095201075
000170 9f ee b9 3e ac 97 db bd 7d 91 ac 3e 5e ee 68 3e
       0.36314866 -0.107222885 0.3370475 0.2274718
000180 20 8b 3d 3d 80 d2 f6 3d aa 4c 75 3e 95 dd 9c 3e
       0.046275258 0.120518684 0.23955026 0.30637804
000190 ca ae a8 be e7 3a b8 be bd 93 a7 3e c0 d3 1a be
       -0.32945853 -0.3598244 0.32729903 -0.15119839
0001a0 d9 b5 87 3e db 5b 13 be f4 ee b4 3d c0 d9 e2 bc
       0.26505926 -0.14390509 0.08834639 -0.027691722
0001b0 0e 2e 16 3e 90 98 be 3c b1 93 ac 3e 38 b9 76 be
       0.14666006 0.023266107 0.3370643 -0.24094093
0001c0 48 54 eb bd 10 19 12 3d 00 84 76 bc 3c 22 ac be
       -0.11490685 0.035668433 -0.01504612 -0.3361987
0001d0 c8 a1 97 bd 61 b5 ba 3e c0 c4 43 3d 00 e5 f3 3b
       -0.07403904 0.36466506 0.047795057 0.0074430704
0001e0 b3 46 28 be f8 d8 d0 bd 30 aa ad 3d cf 34 62 be
       -0.1643322 -0.101976335 0.08479726 -0.22090457
0001f0 c0 2f e2 bb 00 ef 9f be b0 a0 ce bd c4 45 e4 3d
       -0.006902665 -0.3123703 -0.100892425 0.11146119

fc2.weight f4 [128, 128]
000000 8c 0a 8e bc a2 be 13 3d 62 92 78 3d e7 76 8a 3d
       -0.017339014 0.036070473 0.060686477 0.0676096
000010 25 88 0e bd 31 ab af 3d e4 b5 ae bd 01 4b 40 bd
       -0.034797806 0.08577574 -0.08530787 -0.04694653
000020 78 35 06 3d 5b 39 8b 3d 06 f8 20 3d 06 59 4a 3d
       0.032765836 0.06798049 0.039299034 0.049401306
000030 41 0d 81 3d ce 31 21 3d 23 bb 40 bd 0e 91 6b 3d
       0.06301356 0.039354138 -0.047053467 0.05751138
000040 6c 4f 9a 3c 12 5d af bd 5e c1 62 3d 20 90 d1 bb
       0.0188367 -0.08562674 0.05536019 -0.006395355
000050 71 88 b0 bd a6 ce 7b 3d 35 05 81 3d e9 e0 a4 bd
       -0.08619774 0.061476372 0.06299821 -0.08050711
000060 6a 18 67 3d 16 fe 9b bd c4 9f d1 bc b8 10 04 bd
       0.056419767 -0.076168224 -0.025588877 -0.032242507
000070 48 59 f3 3c 57 60 b1 3d 65 9d af bd 9b c5 a5 bd
       0.029705659 0.086609535 -0.085749425 -0.08094331
000080 21 11 83 3d df 0b 92 3d eb cd 80 3d a0 06 cf bc
       0.063997515 0.071311705 0.06289276 -0.025271714
000090 47 77 8c 3d 48 8e fd 3c 69 ee 06 bd b5 84 b2 3d
       0.06858688 0.030951634 -0.03294221 0.08716718
0000a0 9e 8d 68 bd 10 80 d3 3b 66 fe 76 3d e9 70 47 bd
       -0.05677568 0.006454475 0.060301207 -0.048691664
0000b0 fb 8e 93 3d e8 55 08 3d 1b 14 93 3d 02 a0 88 bd
       0.07205006 0.03328505 0.07181569 -0.06671144
0000c0 e1 16 4f bd 2e 62 5c 3d ec 5d b4 bc 66 8e 6e 3d
       -0.05055893 0.05380457 -0.022017442 0.05824127
0000d0 1c b9 be bc a9 75 30 bd 2e 02 93 bd 8c 28 9e bd
       -0.023281626 -0.04308096 -0.0717815 -0.077225775
0000e0 7d ba ab 3d 1a 8c 67 3d 02 ff 3c 3d 00 7a 75 3c
       0.08385179 0.056530096 0.046141632 0.0149827
0000f0 25 bf 36 bd c1 90 9b 3d 5e ca 71 3d 20 79 ae bc
       -0.044615883 0.07595969 0.059030883 -0.021297991
000100 1c 39 f7 3c 81 7e 5b bd 2f 4a 43 bd 00 a4 f7 b8
       0.030178599 -0.05358744 -0.04767817 -0.00011808425
000110 9c b6 74 bd fd 28 01 bd e1 fa 97 3d 6c cd 80 3c
       -0.059744462 -0.03153323 0.07420898 0.015722953
000120 10 e1 93 bc 7e b9 5f bd ea 12 5e 3d dd 5b 86 3d
       -0.018051654 -0.05462026 0.054217257 0.0656049
000130 a5 dd 81 3d 27 76 46 bd 00 82 b3 bc 2f 43 55 bd
       0.063411035 -0.048452523 -0.021912575 -0.052066024
000140 40 75 ce 3b fe a0 38 bd 96 2a 28 3d be 02 79 3d
       0.0063005984 -0.04507541 0.041056238 0.06079363
000150 18 77 4e bd b0 d8 52 bd a2 b7 6f 3d 52 7b 4e 3d
       -0.050406545 -0.05147618 0.058524735 0.050410576
000160 80 9e e8 3a b0 e2 f7 bb 9b 77 a1 3d 3e c6 1f 3d
       0.0017747432 -0.007564865 0.07884141 0.039007418
000170 20 36 86 3b 3b d2 46 bd 33 9a b3 bd 76 66 4e 3d
       0.0040958077 -0.048540335 -0.087696455 0.050390683
000180 6d bd b4 3d ea 32 fc bc ec 68 9f 3c 1a eb 26 bd
       0.088251926 -0.030785996 0.01945921 -0.040751554
000190 c2 99 0a 3d 41 26 90 3d b6 8d 26 bd 0e 8f 3a 3d
       0.03383804 0.07038546 -0.04066249 0.045546584
0001a0 a5 85 37 bd 14 6a c4 3c 6f 6a 1f bd 5b cd 9d 3d
       -0.044805188 0.023976363 -0.038919862 0.07705184
0001b0 66 92 34 bd 88 ec 87 3c c9 7f 87 bd 4a f4 01 3d
       -0.04408493 0.01659228 -0.0661617 0.031727113
0001c0 c7 c8 06 bd c4 70 a8 bc 37 2c 9a 3d 40 b4 15 bc
       -0.03290632 -0.020561583 0.075279646 -0.009137213
0001d0 c8 e9 99 bc f2 01 7c bd 12 f3 0e 3d eb 5b 9b bd
       -0.018788233 -0.061525293 0.03489978 -0.07585891
0001e0 d5 f1 97 3d 60 24 a7 3b d0 41 4e bc 04 19 13 bd
       0.07419173 0.005100772 -0.012588933 -0.03591253
0001f0 52 b7 0b 3d c4 84 f6 3c 7a 07 41 3d 3b 50 29 bd
       0.034110375 0.030092604 0.04712627 -0.04133628
000200 70 40 c0 3c 28 d9 12 bc c7 6d 20 bd 69 ff ad bd
       0.023468226 -0.008962907 -0.03916719 -0.08495981
000210 6d 91 b4 bd d5 30 16 bd 0e 13 2e 3d 70 4c 4e 3c
       -0.088168 -0.036667664 0.04249864 0.012591466
000220 81 4d 90 3d 5d 8c aa bd 40 9c b9 3c 09 52 a2 bd
       0.07046033 -0.083275534 0.022657514 -0.07925803
000230 a4 75 e7 3c b8 7e 90 bc b0 75 9a bb 5f b2 47 bd
       0.028254338 -0.01763855 -0.0047137365 -0.048754092
000240 f2 63 a6 bd 78 0a 47 bc e9 3e 86 3d 40 a5 29 3b
       -0.08124532 -0.012148492 0.06554968 0.002588585
000250 d0 e3 cb bc b6 08 49 bd 77 c8 8e 3d 10 8c e9 bb
       -0.024888903 -0.049080573 0.069718294 -0.0071272925
000260 20 f1 75 bc e4 ba cb bc 1f 3a 9c 3d 18 2f c9 3c
       -0.015011102 -0.02486939 0.07628273 0.024558589
000270 68 c6 88 bd 85 84 9a 3d 1b c7 9f 3d ab da a0 bd
       -0.06678468 0.07544807 0.07801648 -0.078542076
000280 3c 04 dc bc a6 db 8f bd f1 43 19 bd 52 6b 91 bd
       -0.026857488 -0.070243165 -0.03741831 -0.07100548
000290 fc 7a 98 bc 28 d8 97 bd 08 07 06 bc c8 eb 1c bc
       -0.018613331 -0.074142754 -0.008180387 -0.009577699
0002a0 58 d5 0f 3c c9 1d a6 3d 20 92 58 bb f6 b3 5c 3d
       0.008778892 0.0811115 -0.0033046082 0.05388256
0002b0 60 b9 32 3b 96 99 ff bc bf aa 84 bd 1b 50 93 3d
       0.0027271137 -0.031201165 -0.0647788 0.07193013
0002c0 1e 69 67 bd 0e 5b 7a 3d 4b 06 84 3d 6a 29 39 3d
       -0.056496732 0.061121993 0.06446513 0.04520551
0002d0 40 f9 38 bd d1 5a 9c 3d 74 ba a2 bd 32 c7 43 3d
       -0.04515958 0.07634509 -0.07945719 0.04779739
0002e0 72 c5 d9 bc 03 9e b2 3d 9b 80 a7 bd 80 e9 74 3a
       -0.026583407 0.087215446 -0.081788264 0.00093426555
0002f0 46 68 09 bd 68 53 09 3d 8f a1 a3 3d b9 34 35 bd
       -0.03354671 0.033526808 0.07989799 -0.044239733
000300 60 95 26 3b 36 a2 1a bd 13 f4 11 bd 88 5d 9c 3c
       0.0025418624 -0.037752353 -0.035633158 0.019087568
000310 bc 36 83 3c 60 a5 c0 3c 00 30 c4 b9 40 86 af 3a
       0.01601731 0.023516357 -0.00037419796 0.001339145
000320 07 fd 89 bd 48 52 2f 3c b0 86 96 bb bc a1 a6 bd
       -0.06737714 0.01070077 -0.0045936927 -0.08136317
000330 68 52 86 3c 57 a6 02 bd 41 3f 8e bd c2 61 26 3d
       0.016396716 -0.031896915 -0.069456585 0.040620573
000340 aa 65 66 3d ea 71 24 3d 15 8c 46 bd 70 fd 0f 3c
       0.0562493 0.0401477 -0.048473436 0.008788452
000350 ee 7b 70 bd f0 e8 fa bb 38 d1 af 3c da 5a 48 bd
       -0.05871194 -0.007657163 0.021462068 -0.048914768
000360 2e 2b 1b bd 25 88 ac 3d c5 b3 a4 3d 00 68 07 b8
       -0.037882976 0.08424405 0.08042101 -3.2283366e-05
000370 12 97 1e 3d 62 84 23 3d 33 c6 0f bd 96 16 7f 3d
       0.03871829 0.039921172 -0.035101127 0.0622774
000380 4c 23 b2 bc 30 3a ee 3b 40 54 b0 3a b5 74 50 bd
       -0.021745346 0.00727012 0.0013452843 -0.05089255
000390 e8 57 06 bc 98 07 61 3c 80 f5 9b 3c e0 11 70 bc
       -0.008199669 0.013734721 0.019037962 -0.014652699
0003a0 e8 ec 9a bc af 9a 98 bd 00 d1 94 39 be 96 48 3d
       -0.018911794 -0.074513786 0.00028384477 0.048971884
0003b0 be 6d 70 bd 6c 37 9f 3c cb af b1 3d 40 5d d7 bc
       -0.05869841 0.019435607 0.08676108 -0.026289582
0003c0 9c 47 9d bd 73 c1 88 3d 60 c3 81 bd 43 3e 82 bd
       -0.07679674 0.066775225 -0.06336093 -0.06359532
0003d0 08 3c 65 3c 90 4a 03 bd d5 0f 99 3d 08 8e 06 bc
       0.013991363 -0.03205353 0.07473723 -0.008212574
0003e0 58 98 ac bc 3e 19 10 bd ce cb 2d 3d 20 64 a8 bc
       -0.021068737 -0.035180323 0.04243069 -0.020555556
0003f0 de 77 98 bd bc 38 da 3c 55 e8 52 bd cc d2 ad 3c
       -0.07444738 0.026638381 -0.0514911 0.02121868

fc2.bias f4 [128]
000000 76 28 15 bd 43 e6 aa 3d e8 f4 83 bd a7 c5 95 3d
       -0.03641554 0.083447 -0.064431965 0.0731309
000010 ea 96 9c bd 7b 9d 98 3d 45 aa 8d bd 16 09 57 3d
       -0.07645972 0.07451912 -0.06917242 0.0524989
000020 be da 47 3d f4 cc b5 3c 80 bd b1 bb 4b 5d b0 3d
       0.048792593 0.022192456 -0.0054242015 0.08611544
000030 b5 1f 9c bd 50 70 e4 3c 20 eb e5 3b 57 8b 87 3d
       -0.07623235 0.027885586 0.0070165545 0.06618374
000040 40 0e 9f bc 8e 96 4b 3d 80 07 8f 3a 5c ce 34 bd
       -0.019415975 0.049704127 0.0010912269 -0.044142112
000050 d0 ad 3a 3c 9c d9 c1 3c 6e 1a 86 bd 1d 01 b4 3d
       0.011393979 0.023663335 -0.0654801 0.08789275
000060 8b 98 b3 3d 0b 96 ab bd e1 ec af bd 70 ce 53 bd
       0.0876933 -0.08378228 -0.08590103 -0.051710546
000070 ee f1 02 3d a7 cd 88 3d 72 5e 56 bd e8 f2 a2 bc
       0.031969003 0.0667985 -0.052336164 -0.019891217
000080 0a bc 34 3d dc 8e 2e bd ea d5 64 3d ed 7e 8f bd
       0.04412464 -0.04261671 0.055868067 -0.07006631
000090 ee d5 f7 bc a6 ec 55 3d a0 c2 06 bd 7c af 7e bd
       -0.030253377 0.05222764 -0.032900453 -0.062179074
0000a0 dd bd ae 3d 00 39 9b 3b 80 10 dc bb fa 29 43 3d
       0.08532307 0.0047370195 -0.006715834 0.047647454
0000b0 70 9b c4 bc 35 70 8e 3d 10 bd 94 bc b3 9f a9 3d
       -0.0239999 0.069549955 -0.018156558 0.08282413
0000c0 76 d8 3f 3d 60 8e 58 3b a0 48 2e bd 12 60 7d 3d
       0.046837293 0.0033043846 -0.04254973 0.061859198
0000d0 6e 7e 7a 3d 18 54 b4 bd ca 4b 21 3d d0 bd fd 3b
       0.06115573 -0.08805102 0.03937892 0.0077435747
0000e0 aa 1c 75 bd 2a 44 a6 bd ce b9 4c bd 88 38 75 bd
       -0.05984179 -0.0811847 -0.049981885 -0.059868366
0000f0 ea d8 62 3d 19 5f 80 3d a9 86 ac 3d 40 28 f4 bb
       0.055382647 0.062681384 0.08424122 -0.0074510872
000100 ce 44 12 3d a6 9a f6 bc bc d9 bf 3c 43 73 1b bd
       0.03571015 -0.030103039 0.023419254 -0.03795172
000110 ec 63 b2 bd 21 e4 ae bd 37 9c a2 3d 76 1d 59 3d
       -0.08710465 -0.08539606 0.07939952 0.05300661
000120 35 2f 8b 3d 8c 62 85 3c 00 16 46 ba 22 78 24 3d
       0.067961134 0.016282342 -0.0007556379 0.04015363
000130 99 f4 34 bd de 27 4d 3d dd 7f 84 bd 49 92 2a bd
       -0.04417858 0.05008685 -0.064697005 -0.041643415
000140 de be 39 3d 5b 25 b1 3d 7a 7d 30 3d 44 05 16 bd
       0.04534804 0.08649703 0.043088414 -0.036626115
000150 cf 18 90 bd e0 8a 06 3c 88 71 f0 bc 34 0d 93 bd
       -0.07035982 0.008211821 -0.02935101 -0.07180253
000160 62 05 3a 3d 51 2a 94 3d 16 a0 2f 3d 6e dd 59 3d
       0.04541529 0.07234634 0.04287728 0.053189687
000170 e4 db a5 bc 57 83 85 3d a1 e1 55 bd 10 5e 49 3c
       -0.020246454 0.06519192 -0.05221713 0.012290493
000180 47 b6 0b bd b3 0a 87 bd 27 3c 91 3d 20 66 84 3c
       -0.03410938 -0.065938376 0.07091551 0.016161978
000190 a0 5c 02 bb d0 6b 1a 3c 54 ce 8d 3c 60 35 e1 3c
       -0.0019891635 0.009425119 0.017310299 0.027491271
0001a0 ff 46 86 bd 3c 5e 88 bc f2 07 17 bd bc 4e 17 bd
       -0.0655651 -0.016646497 -0.03687281 -0.03694032
0001b0 8a f5 39 3d 40 0d a5 bc 12 ea a9 bd 18 ca a1 3c
       0.04540018 -0.02014792 -0.082965985 0.019749686
0001c0 00 1d b7 ba f4 07 fa 3c 6a 1e 2b bd 80 15 1c bc
       -0.0013970435 0.03052137 -0.041777052 -0.00952661
0001d0 b9 6a 9f 3d 78 02 00 3c f5 1e 80 3d 27 0a 9d bd
       0.077840276 0.007813089 0.062559046 -0.07667952
0001e0 70 96 d3 bb 40 9e af 3a 00 73 13 3c e0 b2 bd 3c
       -0.0064571425 0.0013398603 0.008999586 0.023156583
0001f0 63 13 a3 3d d8 36 8b bd a8 1d 84 bd f8 b9 59 bc
       0.07962682 -0.0679757 -0.06450969 -0.013288967

fc3.weight f4 [128, 128]
000000 32 08 5a 3d 68 23 40 bc 10 ae 4b bd c9 ea 45 bd
       0.053230472 -0.0117271915 -0.049726546 -0.04831961
000010 04 f7 9c bd 00 0e a3 b9 00 c8 86 3a 31 a0 8c 3d
       -0.07664302 -0.00031100214 0.0010282993 0.068664916
000020 bd db 58 bd fe 40 51 3d 4b e0 3a bd 00 e6 2e 3a
       -0.052943934 0.051087372 -0.04562406 0.0006671846
000030 12 e7 3f 3d 54 fb be bc 0f f8 8e 3d 40 de a7 3b
       0.046851225 -0.023313202 0.06980907 0.00512293
000040 71 eb a1 3d be 7e 56 bd 28 cb b2 bc e4 86 86 bc
       0.07906235 -0.052366965 -0.021825388 -0.016421743
000050 04 de 05 3d 3d 02 66 bd 02 1b 36 3d 40 08 29 3b
       0.032682434 -0.05615448 0.04445935 0.002579227
000060 8c 8d a0 3c 6e c9 82 bd 50 47 68 bc 10 94 04 bc
       0.019598745 -0.06386076 -0.0141771585 -0.0080919415
000070 5a 15 7a 3d 68 4c 13 3c 70 c5 55 bc de 46 7f 3d
       0.06105552 0.008990385 -0.013047561 0.062323444
000080 dd 37 9a 3d 34 4d 0e bd bc fe 4a bd ee b9 9b bd
       0.07530186 -0.034741595 -0.04955934 -0.07603823
000090 1c 72 87 bc 68 88 f0 bc 48 0b 77 bc 4c 3b 46 bd
       -0.016533904 -0.029361919 -0.015078373 -0.048396394
0000a0 fd 7e ae 3d d8 d6 a9 bc 17 51 99 3d fd 8d b3 3d
       0.08520315 -0.020732328 0.0748617 0.087673165
0000b0 c9 14 81 bd a0 5b 06 bb a0 e1 6e 3b 4c 96 80 bc
       -0.063027926 -0.002050139 0.00364504 -0.015696667
0000c0 46 4e a1 bd 8e c4 44 3d 7a aa ac bd 54 1c 9f 3c
       -0.078762576 0.04803901 -0.08430953 0.019422688
0000d0 0b 99 b4 bd 05 6c 3e bd d0 3b d0 3c ca d1 5d 3d
       -0.08818253 -0.046489734 0.025419146 0.05415515
0000e0 d4 fe a3 bd c8 5a 89 3c 4a 90 14 3d f0 b8 02 bc
       -0.08007589 0.01676692 0.036270417 -0.007978663
0000f0 a0 72 25 3b a2 e3 0f 3d 0f bc a2 bd 54 d9 9a bc
       0.0025245324 0.035129197 -0.079460256 -0.018902458
000100 bf f0 87 bd 3a 20 60 3d 10 3d f3 bc 1e 7b 31 3d
       -0.066377155 0.054718234 -0.029692203 0.043330304
000110 59 57 9d 3d 40 8f c2 ba 00 d0 38 b8 02 74 05 bd
       0.07682676 -0.0014843717 -4.4062734e-05 -0.032581337
000120 d6 42 e4 bc 78 fc 7d 3c 3b 76 74 bd 49 5b ac bd
       -0.027863901 0.015502088 -0.059683066 -0.08415849
000130 eb 02 ac 3d 99 a2 b2 3d 9e 30 7f 3d 7a ab aa bd
       0.08398994 0.08722419 0.062302224 -0.08333488
000140 a3 e9 83 3d c0 0c a5 3a ac 42 92 3c f0 af 30 bc
       0.06441047 0.0012592301 0.017854057 -0.010784134
000150 b0 42 28 3c 90 f6 43 bd a4 3c ef 3c 10 ac 31 3c
       0.010269806 -0.047842562 0.02920372 0.010844246
000160 87 5a 81 3d 5c f2 ef 3c dc ac 89 3c 94 b1 62 bd
       0.06316095 0.02929037 0.016806059 -0.055345133
000170 08 cb 2d 3c 87 16 a4 3d e6 72 2c 3d bb 75 ae bd
       0.010607488 0.08012109 0.042101763 -0.08518549
000180 03 40 b1 3d ff 01 6a bd b8 fa 5d bc 9a 5d 41 3d
       0.086547874 -0.05713081 -0.013548546 0.047208406
000190 ab 58 b4 bd ec 7b cb bc 5c 0f 4e bd 1d fd 85 3d
       -0.088059746 -0.024839364 -0.050307617 0.06542418
0001a0 96 51 2c bd 7e f1 22 3d 88 bb 2b bc 4f 6b 5c bd
       -0.042069994 0.039781086 -0.010481723 -0.053813275
0001b0 00 b4 4f b9 a0 cd 36 bb 96 ee 56 3d 53 28 ac 3d
       -0.00019808114 -0.0027893558 0.052473627 0.08406129
0001c0 54 e8 b4 bd b2 cd 1e 3d f0 f8 b1 bd 4f 28 94 3d
       -0.088333756 0.038770385 -0.08690059 0.07234251
0001d0 ce 0b 53 3d 18 aa 13 bc 9e 8a 09 3d a0 3e 0b 3b
       0.05152493 -0.0090127215 0.03357946 0.0021247044
0001e0 40 5d 1a bb 50 5a 69 bc b0 58 7e bd 40 6f c7 bb
       -0.0023554116 -0.014242724 -0.062096298 -0.00608626
0001f0 59 7c 25 bd c0 59 46 bb a0 9d 03 bd 33 1c 45 bd
       -0.04040179 -0.0030265898 -0.032132745 -0.048122596
000200 a4 16 ec 3c ae 7b 1c 3d 77 7d 9b 3d 2b f1 82 3d
       0.02881939 0.038203888 0.0759229 0.063936554
000210 3d 26 89 3d 4c 15 d7 3c fb 95 ab 3d 7b a9 8e bd
       0.066967465 0.026255272 0.08378216 -0.069659196
000220 dc 5d d8 bc 24 01 7e bd 4c 2c c6 bc 82 e6 3e 3d
       -0.026411943 -0.062012807 -0.024191044 0.046606548
000230 c6 02 44 3d 00 91 26 bc 0b ef 9f 3d c7 24 8f 3d
       0.047854207 -0.010166407 0.07809266 0.069894366
000240 3b 81 77 bd 42 9f 2f 3d d8 cd 05 bd eb 82 b0 3d
       -0.06042598 0.04287649 -0.03266701 0.086187206
000250 fb 3d a1 bd e6 e6 69 3d 14 93 46 bd 40 e7 6f bb
       -0.0787315 0.057104968 -0.04848011 -0.0036606342
000260 9b 0b 30 bd ec 90 e2 3c 7e 62 5f 3d 4c 89 ef bc
       -0.042979818 0.027656995 0.05453729 -0.029240273
000270 88 b4 4f bc f4 7e 4b bd 42 48 77 3d a0 c6 af 3c
       -0.012677319 -0.04968162 0.060371645 0.021457016
000280 f4 97 00 bd e8 80 d0 3c 92 0a 66 bd b4 48 b7 3c
       -0.031394914 0.025452092 -0.056162424 0.022373535
000290 8e b4 5e 3d 1e 1f e6 bc 43 f0 5b bd 1f 81 8f 3d
       0.05437141 -0.02809101 -0.05369593 0.0700705
0002a0 2f 56 73 bd 45 fc 96 bd 0a 7f 4a 3d c9 de 9c 3d
       -0.059408363 -0.07372335 0.04943756 0.076596804
0002b0 63 91 81 3d 84 cd cc bc d6 95 68 3d 98 fe ed 3c
       0.063265584 -0.025000341 0.05678352 0.029052064
0002c0 0f 95 9e 3d 5c 1f ad bc 26 66 0c 3d 3a 1c 72 3d
       0.077432744 -0.021133117 0.034277104 0.05910895
0002d0 28 60 28 bc 2d 8a 65 bd 50 89 9a bd 69 59 8a 3d
       -0.010276832 -0.056039978 -0.075457215 0.06755335
0002e0 10 12 6e 3c 38 2e 7e bc 68 d0 ab 3c 80 6a 32 3b
       0.014530674 -0.015513949 0.0209734 0.0027224123
0002f0 61 85 5d bd 19 24 9c 3d 35 ec 96 3d 4d 31 95 3d
       -0.05408228 0.076240726 0.07369272 0.07284794
000300 58 4d a0 bd f2 e4 9d bd 95 a3 a2 3d b0 1e c6 bc
       -0.07827252 -0.077096835 0.07941357 -0.024184555
000310 78 a0 4c bd dc 3f 8a bc ad 6b 03 bd f3 72 b4 bd
       -0.049957722 -0.016876154 -0.03208511 -0.08810987
000320 28 72 7c bd 2a 96 a2 bd 38 fa 57 3c d3 ea 94 3d
       -0.061632305 -0.07938798 0.013182215 0.07271352
000330 b4 c2 d9 3c 00 12 dc bb 2e d9 6e bd af 74 8b 3d
       0.0265821 -0.006716013 -0.058312587 0.06809365
000340 aa f9 2d 3d 86 aa a0 bd 20 7b 4f bc 4c f6 11 3d
       0.042474426 -0.07845025 -0.012663633 0.035635278
000350 06 3a 31 bd 83 68 2a bd 36 6d 51 3d 9b 48 80 3d
       -0.043268226 -0.041603576 0.051129542 0.062638484
000360 30 79 0e bd 00 12 bf 3a a2 8d 73 3d b4 56 ce 3c
       -0.034783542 0.0014577508 0.059461243 0.025187828
000370 30 66 b3 bc f8 17 04 bc 29 9a b0 bd 40 4d de 3a
       -0.021899313 -0.008062355 -0.08623154 0.0016960278
000380 8f bd ae 3d 16 be 63 3d c2 16 50 3d 79 b7 a5 bd
       0.08532249 0.055601202 0.050802954 -0.08091635
000390 f6 13 5c 3d b3 34 aa 3d 0f bc 06 bd bd 8e 81 bd
       0.053729974 0.08310833 -0.03289419 -0.06326053
0003a0 d7 1a 47 bd 30 98 84 bb ec 1e c4 3c 32 c5 3c 3d
       -0.04860958 -0.0040464625 0.023940526 0.046086498
0003b0 8d 73 3a bd 30 6b 68 bc ad 1f ad 3d ce d7 4e 3d
       -0.045520354 -0.014185712 0.08453307 0.050498776
0003c0 9d a5 95 3d bb c2 9e bd 80 7b a8 bb f0 94 de 3c
       0.07306979 -0.07751986 -0.0051416755 0.027170628
0003d0 12 44 8e bd 04 4f e0 bc d2 76 00 3d 41 ef 9c bd
       -0.06946577 -0.027381428 0.031363316 -0.076628216
0003e0 48 4b 09 3d ec 3f 80 bd e0 b5 08 3b 04 e2 f3 3c
       0.03351906 -0.06262192 0.002086036 0.029770859
0003f0 13 e2 a6 3d bb d3 66 bd 0a aa 42 3d 38 e7 5c bc
       0.08148589 -0.056354266 0.047525443 -0.013482861

fc3.bias f4 [128]
000000 f4 91 a7 3c 70 c8 05 bc 42 42 72 bd 68 b3 60 3c
       0.020455338 -0.008165464 -0.05914522 0.013714649
000010 63 a6 53 bd a4 54 6e bd f0 64 40 bd e4 2a 93 bc
       -0.05167235 -0.05818619 -0.04697126 -0.017964788
000020 61 71 89 3d a0 3d 27 bc b2 b0 4c 3d 50 cc 62 bc
       0.067110784 -0.010207564 0.049973197 -0.013842657
000030 f2 96 73 3d 20 d0 12 3c 36 89 07 3d e2 41 21 3d
       0.059470125 0.008960754 0.03308984 0.03936947
000040 60 36 e5 bb 02 8b 88 bd f0 92 1d bc e0 f0 6b bc
       -0.0069950074 -0.06667139 -0.009617552 -0.014400691
000050 59 e7 90 3d e0 55 57 3c 66 42 45 3d 42 e9 79 3d
       0.07075376 0.013143033 0.048159026 0.061013468
000060 e6 5f 7d bd d6 84 19 3d 2c 6a 49 bd 00 f8 58 ba
       -0.061859034 0.037480198 -0.04917352 -0.0008276701
000070 3b 30 b1 3d f1 e7 44 bd 4c bb a7 3c 86 30 41 3d
       0.08651777 -0.04807276 0.020475052 0.047165416
000080 00 4f cb ba 8d 34 a1 3d e0 8f 8e bd 80 91 18 ba
       -0.0015511215 0.078713514 -0.06961036 -0.0005820021
000090 10 1b fa bc 00 51 d1 3b 64 e4 23 bd 90 b7 80 bd
       -0.030530483 0.00638783 -0.040012732 -0.06285012
0000a0 0b 5d 81 bd 70 f2 a7 bc 8c c7 94 bd e5 dc b4 3d
       -0.06316575 -0.020501345 -0.07264623 0.08831195
0000b0 38 8d e7 3c ca 20 42 bd 33 f0 21 bd fc f7 fe 3c
       0.02826558 -0.04739455 -0.039535712 0.031124108
0000c0 4d a9 a1 bd ec 32 6a bd 04 44 b8 3c 60 01 42 3c
       -0.0789362 -0.05717747 0.02249337 0.011841148
0000d0 80 08 50 3b f2 2f 42 3d 6d d1 76 bd 93 97 8a 3d
       0.0031743348 0.047409005 -0.060258318 0.06767192
0000e0 4e 1a 34 3d 26 6f fc bc 60 62 5d 3b 98 b4 01 bc
       0.0439704 -0.030814718 0.003378056 -0.007916592
0000f0 74 41 7c bd 87 36 56 bd 42 ad 68 3d 2c 87 da 3c
       -0.06158586 -0.052298095 0.056805857 0.026675783
000100 ac cf af bd 40 dc a7 bc 9b 0f a5 bd 76 83 92 bd
       -0.08584532 -0.020490766 -0.08059617 -0.071539804
000110 2e fb 3f 3d 48 08 dc 3c d8 4a 46 bc 28 66 1c bc
       0.046870403 0.026859418 -0.012102805 -0.00954584
000120 4a 60 9a bd 7e 0b 91 bd 7d e0 49 bd ec b6 7a bd
       -0.07537897 -0.0708227 -0.049286354 -0.061209604
000130 f9 36 40 bd af 3f 90 bd 92 30 61 3d f4 55 d8 bc
       -0.046927426 -0.07043397 0.05497796 -0.026408173
000140 86 8d 75 3d a2 80 80 bd 33 55 81 3d 9e da 74 bd
       0.05994942 -0.06274535 0.063150786 -0.059778802
000150 32 f9 6a bd 31 a3 9e bd 00 70 e3 b8 44 fe cf bc
       -0.057366557 -0.0774597 -0.00010845065 -0.025389798
000160 e3 e5 9b 3d 74 fd cd 3c 00 d8 92 bc 97 0d 11 bd
       0.07612207 0.02514527 -0.017925262 -0.03541335
000170 6e 26 ad bd 91 11 59 bd 07 b5 53 bd c0 c3 d0 bc
       -0.084545955 -0.05299527 -0.051686313 -0.025483966
000180 d1 ba 9e 3d b8 d9 95 bc 2e a3 ad bd 2f 1c 61 bd
       0.07750476 -0.018292293 -0.0847839 -0.05495852
000190 6e cc 1e bd 60 74 20 3c 75 8d 32 bd 72 d4 17 3d
       -0.038769178 0.009793371 -0.043591935 0.037067838
0001a0 fb 83 81 3d ca 66 06 3d 80 31 0d bc dc 05 9f bc
       0.063240014 0.03281287 -0.008617759 -0.019411974
0001b0 6d 60 14 bd 54 6a b9 bc 68 a9 a1 bd 80 3a 6a bd
       -0.03622477 -0.022633709 -0.0789364 -0.057184696
0001c0 d6 74 48 bd ae c9 6e bd 47 13 6a bd 0a 54 de bc
       -0.04893955 -0.058297805 -0.05714729 -0.027139682
0001d0 2b 3d 9a bd 30 6f 4a bc 00 8c ae bd 42 4b 36 bd
       -0.07531198 -0.012355611 -0.08522797 -0.044505365
0001e0 e8 71 fd bc 18 23 98 bc 80 c3 5e bb 44 9e 4d bd
       -0.030938104 -0.018571422 -0.0033991039 -0.050199762
0001f0 5e 5c a5 bd f8 52 b2 bc 00 69 35 3c bc 7c a9 3c
       -0.08074258 -0.021768078 0.011072397 0.02068936

fc4.weight f4 [9, 128]
000000 b6 0c 15 3d b8 a7 7e bc 60 88 4e bc 78 21 a5 3c
       0.036389075 -0.015542917 -0.0126057565 0.02015756
000010 0d 30 35 bd de 29 b1 bd e0 34 9c bc 80 ba c4 3a
       -0.044235278 -0.08650564 -0.019068182 0.0015009195
000020 38 3c 18 bc 00 05 c4 bb 8e 8b 55 3d 68 46 fc 3c
       -0.009291701 -0.0059820414 0.052135043 0.030795291
000030 2a 31 71 3d 84 c0 8e 3c 22 f9 13 3d d6 b8 85 bd
       0.058884777 0.017425783 0.036126263 -0.06529395
000040 98 57 5d 3c 9c 03 ae 3c 8b dd ae bd fc bc b2 bd
       0.0135096535 0.021241955 -0.0853835 -0.08727452
000050 10 92 97 bb f7 9d ae bd c9 03 ae 3d 08 52 5a 3c
       -0.0046255663 -0.08526223 0.08496816 0.013325222
000060 c1 1b 50 bd 37 b5 8e 3d d0 d3 97 3b e8 6e 4c bd
       -0.05080772 0.06968158 0.0046334043 -0.049910456
000070 c0 39 70 3c 2c e1 95 bd a0 df 9c bc 26 47 03 bd
       0.014662206 -0.07318339 -0.019149601 -0.032050274
000080 80 29 09 3a d6 83 1a 3d db 78 82 bd 1e dc 28 3d
       0.0005232319 0.037723385 -0.063707076 0.041225545
000090 53 4e b1 3d 60 5a 06 3b cf d1 79 bd ca 3f 40 3d
       0.08657517 0.0020500645 -0.060991105 0.046935834
0000a0 a8 c9 72 3c 1a fd 66 3d e0 7d c5 bb 7b 04 77 bd
       0.014818586 0.05639372 -0.0060269684 -0.060307007
0000b0 c1 69 57 bd 94 9a 0b bd ba e4 0d bd 24 01 f5 bc
       -0.05259109 -0.034082964 -0.03464196 -0.02990777
0000c0 f0 1c 7e bc c0 1e 42 bc 69 d3 b3 3d ec 24 fd bc
       -0.015509829 -0.011848152 0.08780558 -0.030901395
0000d0 8c 14 95 bd c0 9f a8 3b 7d cb 62 bd 41 76 a3 bd
       -0.0727931 0.005145997 -0.055369843 -0.079815395
0000e0 f5 bc 92 3d 34 a8 df bc 8b 24 9d 3d 40 1a ce 3c
       0.07164947 -0.027301885 0.07672986 0.025159001
0000f0 50 11 12 bc 50 a7 1d bd b9 a3 87 3d 20 8c 57 bb
       -0.00891526 -0.03848964 0.066230245 -0.0032889917
000100 b8 c3 0e 3d 39 d7 8a 3d a5 9f 17 bd 44 dd 84 3c
       0.03485462 0.06779332 -0.037017483 0.016218789
000110 c7 c6 90 3d e0 e4 67 bc 88 87 87 bd a8 65 e1 3c
       0.07069164 -0.014153689 -0.066176474 0.027514294
000120 36 56 38 3d f7 5c 11 bd 14 1c 96 3c d6 bb 35 3d
       0.045004092 -0.03548905 0.018323936 0.044368587
000130 e6 ec 1d 3d cc 09 85 bd e8 31 7f bc d8 cf aa bd
       0.038556002 -0.06496009 -0.015575863 -0.08340424
000140 e2 59 58 bd 36 7f 3e 3d a1 bd 1f bd 46 bd 4e bd
       -0.052820094 0.046508037 -0.038999204 -0.050473474
000150 4e 7f 42 3d 20 ed 79 bb 08 26 52 bd 5d ea b3 3d
       0.04748469 -0.0038135722 -0.0513058 0.087849356
000160 58 0a 94 bc 00 e7 f9 3c c4 48 86 bd 4a 02 0b 3d
       -0.018071339 0.030505657 -0.06556848 0.03393773
000170 fe eb 83 bd 6e f5 88 bd 17 c8 8b 3d 40 f2 a5 ba
       -0.06441496 -0.06687437 0.068252735 -0.0012660697
000180 2d 96 02 bd 98 1d 42 bc 7a ab 56 bd d7 35 5b bd
       -0.0318815 -0.011847876 -0.052409627 -0.053518143
000190 6c 96 06 3d d8 3e 61 3c 48 76 cb 3c c4 d0 58 bd
       0.032858297 0.013747893 0.024836674 -0.05293347
0001a0 2c f6 9b 3c 74 b2 90 bc ba 28 58 3d 64 76 e4 3c
       0.019038282 -0.017663218 0.052773215 0.027888484
0001b0 61 a5 56 bd 64 2e 9f bc ff 07 62 bd 28 8b 1f 3c
       -0.05240381 -0.0194313 -0.055183407 0.009737767
0001c0 74 91 b7 3c a6 0a 3b 3d 48 83 98 bc 80 66 c7 3c
       0.022408225 0.045664452 -0.018617287 0.024340868
0001d0 35 08 42 bd 75 69 a3 bd 8e f7 1b 3d 61 a1 92 3d
       -0.047371108 -0.07979099 0.038077883 0.07159687
0001e0 78 5e d9 3c 3c c5 f5 bc 00 1b 32 3c 48 4c 04 bc
       0.026534304 -0.030001275 0.010870695 -0.0080748275
0001f0 02 49 83 bd 60 3d 13 bd 4c f5 ad bd a0 7a 2c 3b
       -0.064104095 -0.035947204 -0.08494052 0.0026318207
000200 c0 a0 25 3b db 42 a2 bd dc aa 14 3d 1e e1 76 3d
       0.0025272816 -0.07922908 0.036295757 0.060273282
000210 38 e2 b3 3c 36 b5 99 bd 4f e8 52 bd 0e 3b 88 bd
       0.021958455 -0.07505266 -0.051491078 -0.06651889
000220 68 79 13 3c 65 ca 9b 3d b1 b7 b3 3d ba 44 54 3d
       0.0090011135 0.07606963 0.08775271 0.051823355
000230 23 ac a2 bd 6c 04 98 3c d0 67 1e bc d9 a8 82 3d
       -0.07942989 0.018556796 -0.0096683055 0.063798614
000240 6c b6 a6 bc 23 4f 91 bd 0a 40 71 3d bf ef 84 bd
       -0.020350657 -0.07095172 0.058898963 -0.064910404
000250 07 cf a9 3d 88 e1 0b bd c1 d8 b2 bd 42 ae 35 bd
       0.082914405 -0.03415063 -0.08732749 -0.04435564
000260 22 d1 2f 3d 80 af 31 3c c2 96 2b 3d 34 07 11 3d
       0.042924054 0.010845065 0.04189182 0.03540726
000270 68 8a a3 bd 1a ed 20 3d 4c 0f 8f bc 5b 8a 0e bd
       -0.07985383 0.039288618 -0.017463349 -0.034799915
000280 f5 57 96 3d ef f7 b2 bd 88 e5 bc 3c 38 c1 1b 3c
       0.07340995 -0.08738696 0.023058668 0.009506516
000290 00 74 cb bb aa 79 23 3d b0 92 77 bd b0 36 ca bc
       -0.0062088966 0.03991095 -0.060442626 -0.02468428
0002a0 8f cf 15 bd cb 8b a5 bd 70 16 f4 3b c9 b4 86 3d
       -0.036574896 -0.08083304 0.007448964 0.06577451
0002b0 16 07 5b 3d 2b 9d 0a bd 6d 2c 82 3d ea ef 68 3d
       0.053473555 -0.033841293 0.0635613 0.056869425
0002c0 3a 01 ff bc a8 37 7a bc 51 81 69 bd 2e e2 70 3d
       -0.031128515 -0.015272059 -0.05700809 0.05880945
0002d0 b4 2f 3a bd 7e 1b 1d 3d 57 19 a0 bd 37 42 99 3d
       -0.04545565 0.038356297 -0.07817333 0.074833326
0002e0 ef 70 8b 3d 9e 5b eb bc ff 66 0d bd f4 be bc bc
       0.0680865 -0.02873021 -0.034522053 -0.023040272
0002f0 17 e2 41 bd 6b 11 b2 3d 0b b7 02 bd 13 fb 9e 3d
       -0.047334757 0.086947285 -0.031912845 0.07762732
000300 71 84 b0 bd c5 d7 56 bd af fb 87 3d 2d 78 48 bd
       -0.08619011 -0.052451868 0.06639802 -0.048942734
000310 f6 f7 e2 bc 2a d6 5c 3d 55 80 0a bd 77 87 9e bd
       -0.027706128 0.05391518 -0.033813793 -0.077406816
000320 30 5b 78 3c 18 db a1 bd b8 f8 c8 bc 8d b6 8e bd
       0.01515846 -0.07903117 -0.02453266 -0.069684125
000330 f0 15 95 bb 34 f3 b3 bc f1 fd 7a bd 10 39 b0 bc
       -0.0045497343 -0.021966554 -0.061277334 -0.021511585
000340 44 30 8f 3c e1 b2 15 bd 60 01 38 3b 76 0a 17 3d
       0.01747907 -0.036547545 0.0028076991 0.03687521
000350 c0 32 73 3b 4e e4 26 3d 80 d4 55 bb 9c 61 80 bc
       0.0037109107 0.040745072 -0.003262788 -0.015671544
000360 98 7a 0d bd fd 35 4b bd 30 18 d7 3c 5a 5a 6c bd
       -0.034540743 -0.049612034 0.02625665 -0.057703353
000370 31 ed 83 3d a5 30 a8 3d 06 3a 2a 3d 2f b0 19 bd
       0.06441725 0.08212403 0.04155924 -0.037521537
000380 7d 92 a7 3d 11 9e 49 bd 64 4c da bc ec 43 0c 3d
       0.08182237 -0.04922301 -0.026647754 0.034244463
000390 90 94 3f 3c 9d a2 ad 3d 75 af a8 3d 3e 7d 57 bd
       0.011693135 0.08478282 0.08236591 -0.052609675
0003a0 ab 7f a2 3d 67 eb 1b bd 5c a5 6e bd a4 f5 9e bd
       0.07934507 -0.038066294 -0.058263168 -0.07761696
0003b0 9d 4e a2 3d 9b 12 1c bd 80 bc 62 3c 64 ff a9 bc
       0.079251505 -0.03810368 0.013838887 -0.020751663
0003c0 00 6f ee b9 78 0d 0d 3d 95 f8 84 3d 62 37 39 3d
       -0.000454776 0.034436673 0.06492726 0.045218833
0003d0 78 1a 16 bd 38 83 7e bc b0 09 d9 bb 07 79 82 bd
       -0.036646336 -0.015534215 -0.0066234693 -0.063707404
0003e0 18 e6 05 bc 79 ed 9a 3d 9e c5 02 3d f8 a4 bf 3c
       -0.008172534 0.075648256 0.031926744 0.023394093
0003f0 e0 b4 69 3c 18 7d 9a 3c b2 9c 5e 3d e0 24 72 bc
       0.014264315 0.018858477 0.054348655 -0.0147792995

fc4.bias f4 [9]
000000 d0 55 2b bd 42 5b 95 bd 36 05 4e 3d 87 3e 0a bd
       -0.041829884 -0.07292797 0.05029794 -0.033751037
000010 fc 24 af bc 80 6d bf bb b7 98 aa bd 6e 64 2f 3d
       -0.02137994 -0.005841911 -0.08329909 0.042820387
000020 d0 d0 37 bc
       -0.011219218
