final_race_model.pth (torch, 144459 bytes, 8 tensors)

fc1.weight f4 [128, 7]
0.6524578 0.14415161 0.60486007 -0.07271512 -0.2806007 -0.18404526 -0.31520087 -0.09452157
-0.35225418 -0.19172914 0.07193416 -0.2968505 -0.27236325 0.09103797 0.6844481 0.8025316
0.37497178 0.14433476 -0.26998457 -0.17059536 -0.4814293 0.68117124 0.49791306 0.32074687
-0.18716608 0.40268862 -0.0043798857 -0.08136304 0.0818519 0.2065158 0.4698378 0.33591682
0.2959129 -0.3416758 -0.824843 -0.65335673 -0.06286029 -0.4301088 0.24515596 0.121501066
0.40592605 0.3427304 0.15330298 0.16022132 0.28187466 0.62298197 -0.24047671 -0.2493974
-0.6355165 -0.49798575 -0.16594438 -0.013738646 0.6496846 0.38077745 -0.15406585 -0.09271983
-0.23059021 -0.3103655 -0.082827784 0.58182305 0.33122897 -0.22818655 0.15575334 -0.18244761
-0.43351546 0.10813043 0.4923173 0.21171135 -0.22263807 -0.3112783 0.7654556 0.7609597
0.07282742 -0.07283523 0.34496227 0.0051215584 0.021522608 -0.1689529 0.070845656 0.32023346
0.66197014 0.18014805 0.26207224 -0.19558524 -0.119215444 -0.27107808 -0.33268407 0.2684765
0.2729843 0.07400535 0.18401136 0.32248697 -0.33139864 0.24288377 -0.297305 -0.08945137
-0.1703486 0.06369731 0.4277489 -0.115307145 -0.42195338 -0.007240335 -0.9336773 -0.43939942
0.18818636 0.49174184 0.6364743 0.6421705 0.36579788 -0.07300488 0.2862737 -0.2617103
0.81136984 0.78364307 0.097751185 -0.04074232 -0.121953845 0.43217832 -0.483307 -0.31431553
0.10858387 0.25303313 0.044702236 -0.25859275 -0.8838004 0.7477303 0.08843948 0.61498886
0.31350955 0.38831505 -0.08658225 -0.14437786 0.13868426 0.17634566 0.7848519 0.35702786
-0.0997011 -0.15524483 0.2439593 -0.12109003 -0.5782623 -0.3416085 -0.29456106 0.5834496
0.31249404 0.35354176 0.50627595 0.75115925 0.88001573 0.8573003 -0.06857505 -0.1625007
0.20940763 -0.055162787 -0.11881773 -0.19177765 -0.3500844 -0.21861659 0.25222838 -0.24836643
-0.12344732 -0.40300602 0.18735515 -0.46777377 0.45740357 0.21423323 0.28499708 0.29358077
0.31670022 -0.23743427 -0.35051957 0.057164513 -0.9474668 -0.32061628 0.34867913 -0.27684242
-0.38270327 -0.14302634 0.5214289 0.23986465 -0.2171902 0.34629712 -0.12927757 -0.423772
-0.02126017 -0.13872851 0.34969383 0.108843714 -0.114253625 -0.19895661 0.08225813 0.22010265
-0.3204044 0.11738033 -0.2953383 0.11224866 0.019061059 -0.032910686 0.14856781 0.25616297
-0.13783142 0.2772561 -0.18195292 -0.2929381 0.040324517 -0.27124503 0.65959513 0.47157505
0.27089432 0.110091016 0.4838972 -0.20008163 -0.28271332 -0.12895979 -0.6641859 -0.29470313
0.4263189 0.255586 0.43064645 0.1292021 0.58261454 0.09250712 -0.34457237 -0.31977448
0.04945645 -0.49764404 -0.55846035 0.23128435 0.43037504 -0.1628151 0.255962 -0.022519922
-0.29403445 -0.4655071 0.59099185 0.41179588 -0.29662737 0.044069093 -0.123830855 0.43703532
0.3809338 0.10454358 0.49004972 0.097062305 -0.61356 -0.22545856 -0.51722866 0.053983197
0.2675129 0.36229646 0.1269284 -0.42802107 -0.47523734 0.22056365 0.0043803495 0.52919084
00000000: 7907 273f 7b9c 133e 1cd8 1a3f aaeb 94bd
00000010: e5aa 8fbe 5c76 3cbe 0262 a1be 8694 c1bd
00000020: a95a b4be a554 44be 3852 933d cafc 97be
00000030: 3273 8bbe 1d72 ba3d fe37 2f3f b672 4d3f
00000040: 4dfc bf3e 7ecc 133e 6b3b 8abe 8db0 2ebe
00000050: e77d f6be 3d61 2e3f 76ee fe3e ef38 a43e
00000060: 77a8 3fbe 342d ce3e 2585 8fbb aaa1 a6bd
00000070: f8a1 a73d e178 533e 958e f03e 4afd ab3e
00000080: e581 973e 21f0 aebe e928 53bf 6342 27bf
00000090: e5bc 80bd 3837 dcbe 2a0a 7b3e 8dd5 f83d
000000a0: 8ad5 cf3e 5c7a af3e 75fb 1c3e 0f11 243e
000000b0: e051 903e bf7b 1f3f 873f 76be 0862 7fbe
000000c0: 36b1 22bf fdf7 febe 53ed 29be 0f18 61bc
000000d0: bb51 263f 43f5 c23e 70c3 1dbe e5e3 bdbd
000000e0: d71f 6cbe 3ae8 9ebe 9da1 a9bd 5bf2 143f
000000f0: d896 a93e bca9 69be ce7d 1f3e 8cd3 3abe
00000100: bdf5 ddbe 7d73 dd3d 0311 fc3e dcca 583e
00000110: 3cfb 63be df5f 9fbe e6f4 433f 41ce 423f
00000120: 8b26 953d a32a 95bd e59e b03e bfd2 a73b
00000130: 2e50 b03c fd01 2dbe 8717 913d a4f5 a33e
00000140: e076 293f bb78 383e 552e 863e 7f47 48be
00000150: 3a27 f4bd bfca 8abe 9155 aabe c075 893e
00000160: 99c4 8b3e 1e90 973d 796d 3c3e 031d a53e
00000170: 15ad a9be 86b6 783e 5c38 98be 4832 b7bd
00000180: dd6f 2ebe bc73 823d e701 db3e 2726 ecbd
00000190: 460a d8be 5540 edbb 7a05 6fbf f6f8 e0be
000001a0: edb3 403e 96c5 fb3e fbef 223f 4965 243f
000001b0: dc49 bb3e 9583 95bd 7792 923e e4fe 85be
000001c0: efb5 4f3f d59c 483f c631 c83d 6be1 26bd
000001d0: f0c2 f9bd 7a46 dd3e 0474 f7be f7ed a0be
000001e0: 3861 de3d 8f8d 813e b119 373d 4566 84be
000001f0: be40 62bf 416b 3f3f c21f b53d e96f 1d3f
00000200: 5384 a03e 3bd1 c63e 0952 b1bd cad7 13be
00000210: 3f03 0e3e f593 343e 0eec 483f 5bcc b63e
00000220: 1730 ccbd 80f8 1ebe 77d0 793e 0dfe f7bd
00000230: 0009 14bf 4fe7 aebe b5d0 96be f45c 153f
00000240: 38ff 9f3e 6d03 b53e 4d9b 013f f94b 403f
00000250: b648 613f 0878 5b3f 1371 8cbd 9566 26be
00000260: f46e 563e 60f2 61bd b656 f3bd 5c61 44be
00000270: 433e b3be 07dd 5fbe 1424 813e c553 7ebe
00000280: f3d1 fcbd ce56 cebe 07da 3f3e 0b80 efbe
00000290: cd30 ea3e f55f 5b3e 23eb 913e 3850 963e
000002a0: 8826 a23e f821 73be 4d77 b3be 5625 6a3d
000002b0: 2f8d 72bf d127 a4be 1286 b23e 4abe 8dbe
000002c0: aff1 c3be 7f75 12be 5d7c 053f 149f 753e
000002d0: 1c67 5ebe db4d b13e 5761 04be a5f8 d8be
000002e0: cf29 aebc d90e 0ebe 120b b33e 74e9 de3d
000002f0: cefd e9bd 48bb 4bbe f376 a83d 9762 613e
00000300: 0c0c a4be 1965 f03d 9536 97be a0e2 e53d
00000310: f025 9c3c 5bcd 06bd 2922 183e cb27 833e
00000320: ae23 0dbe 83f4 8d3e de51 3abe fcfb 95be
00000330: 522b 253d a1e0 8abe 3adb 283f 4972 f13e
00000340: a9b2 8a3e 6677 e13d 60c1 f73e 33e2 4cbe
00000350: cdbf 90be 090e 04be 1608 2abf 54e3 96be
00000360: 7946 da3e 2bdc 823e b17d dc3e 8e4d 043e
00000370: 3a26 153f 5f74 bd3d ca6b b0be 7bb9 a3be
00000380: d992 4a3d 33cb febe 42f7 0ebf ced5 6c3e
00000390: 1e5a dc3e 00b9 26be 740d 833e b37b b8bc
000003a0: af8b 96be f256 eebe 3e4b 173f e9d6 d23e
000003b0: 8bdf 97be cb81 343d 089b fdbd 18c3 df3e
000003c0: c109 c33e f21a d63d cce7 fa3e 9ac8 c63d
000003d0: 4512 1dbf 9cde 66be 1969 04bf 7c1d 5d3d
000003e0: 73f7 883e ec7e b93e 85f9 013e 9425 dbbe
000003f0: 4f52 f3be 70db 613e 0989 8f3b 0d79 073f

fc1.bias f4 [128]
0.30185238 -0.38557163 0.10612499 -0.30016005 0.3208609 0.058825992 0.22975977 0.31714424
0.33131915 0.4610675 -0.25163963 0.42475313 0.3178771 -0.20143838 -0.009299301 -0.12555003
0.14127733 0.30684325 -0.2007781 0.18801872 0.4603297 -0.12342635 -0.3728407 0.12860025
0.18912418 0.31119475 0.23341206 -0.35040104 0.3353914 0.16950203 0.040653914 -0.1903568
0.4755666 0.23740688 0.357764 0.31828904 0.21499135 -0.16852379 0.27332184 0.3858262
-0.021651017 0.3204572 -0.31699908 0.39978623 -0.17150904 0.36636838 -0.28443983 -0.2704783
0.20987727 -0.08781838 0.18169275 0.2816944 -0.09792662 0.4258407 0.22288206 -0.26191786
0.14311174 -0.023369666 0.13250867 0.5231795 0.10281859 -0.14238861 -0.1234498 0.077421695
0.12734132 0.27953067 0.32945454 -0.04694004 -0.10453716 0.1555213 -0.27050033 0.3390248
-0.37756148 -0.08899486 0.10647726 -0.07936191 0.13878037 -0.076080985 0.14913672 0.42870423
0.46292686 0.5011407 -0.35805622 -0.16169533 0.23038357 -0.31714317 0.33236516 0.36707565
-0.22392881 -0.26720443 0.023601469 0.12675261 -0.11501631 -0.3527336 0.43638778 -0.06402285
0.049907323 -0.19893523 0.4604606 0.24593624 0.24254921 0.40565878 -0.351317 0.1288363
0.37250766 0.15228073 0.1664301 0.26132965 -0.24184133 -0.25731757 0.2547437 0.2208236
0.08200609 0.04979019 -0.37612224 0.08296158 0.31776696 0.35476828 -0.22209795 0.5319007
0.07670807 0.5001158 0.27346036 -0.19175193 -0.20076835 0.103387326 0.52780575 0.4295545
00000000: 658c 9a3e a569 c5be 0f58 d93d 94ae 99be
00000010: e147 a43e 86f3 703d 2546 6b3e bb60 a23e
00000020: aaa2 a93e 0a11 ec3e e9d6 80be 3e79 d93e
00000030: cac0 a23e dd45 4ebe 185c 18bc 3090 00be
00000040: 01ab 103e 8f1a 9d3e c698 4dbe fb87 403e
00000050: 56b0 eb3e f4c6 fcbd fae4 bebe c9af 033e
00000060: c5a9 413e eb54 9f3e 9203 6f3e c467 b3be
00000070: 6cb8 ab3e f191 2d3e b884 263d e5ec 42be
00000080: 777d f33e ca1a 733e d82c b73e c8f6 a23e
00000090: b126 5c3e 8091 2cbe d7f0 8b3e 038b c53e
000000a0: 795d b1bc f712 a43e b44d a2be c8b0 cc3e
000000b0: 11a0 2fbe a394 bb3e 19a2 91be 227c 8abe
000000c0: 11ea 563e 1fda b3bd aa0d 3a3e 403a 903e
000000d0: c08d c8bd cb07 da3e 323b 643e 191a 86be
000000e0: e28b 123e be71 bfbc 5ab0 073e 17ef 053f
000000f0: 8e92 d23d 52ce 11be 40d3 fcbd 448f 9e3d
00000100: c365 023e a51e 8f3e 44ae a83e 3344 40bd
00000110: 9417 d6bd fa40 1f3e 057f 8abe a994 ad3e
00000120: bd4f c1be f042 b6bd c010 da3d 7f88 a2bd
00000130: 711c 0e3e 59d0 9bbd 4cb7 183e 1f7f db3e
00000140: c004 ed3e c24a 003f 2553 b7be 7693 25be
00000150: ace9 6b3e 9760 a2be c42b aa3e 57f1 bb3e
00000160: 984d 65be 05cf 88be de57 c13c 70cb 013e
00000170: ac8d ebbd 8099 b4be 386e df3e 691e 83bd
00000180: 9f6b 4c3d adb5 4bbe 7ec1 eb3e b6d6 7b3e
00000190: d25e 783e 82b2 cf3e d2df b3be aaed 033e
000001a0: 53b9 be3e 7bef 1b3e a76c 2a3e 00cd 853e
000001b0: 41a5 77be 21bf 83be c46d 823e 951f 623e
000001c0: cff2 a73d ccf0 4b3d 1893 c0be c3e7 a93d
000001d0: 5ab2 a23e 30a4 b53e a56d 63be a52a 083f
000001e0: 1f19 9d3d 9707 003f ff02 8c3e 9e5a 44be
000001f0: 3896 4dbe bcbc d33d 471e 073f 91ee db3e

fc2.weight f4 [128, 128]
-0.27693048 -0.08442135 -0.31145415 -0.49457005 -0.024814041 0.4693109 -0.010094537 0.0815434
0.21122868 0.15996508 -0.28340477 0.08854803 0.03774538 0.05366375 -0.003124111 -0.15134004
-0.32791227 -0.10834056 -0.20709133 -0.31188107 0.31420764 -0.5770247 -0.036352824 0.16951154
-0.037709225 0.20258567 -0.024094043 0.06265358 -0.044119824 0.21888292 -0.12233655 -0.17400065
0.162939 0.16638447 -0.016929591 0.04696212 0.13299105 -0.29703405 -0.15588365 0.21656007
-0.2587981 -0.569383 -0.47745594 0.038639776 0.08598455 0.09067257 -0.06102736 0.048207447
-0.5057798 -0.010305557 0.03962118 0.40624228 0.077193774 0.012277915 -0.109115474 0.0018916032
0.15117657 -0.06512705 0.047662467 0.27265516 0.018815497 0.08476995 0.02114971 -0.45941398
-0.47449923 0.1303004 0.30254823 -0.57646114 -0.05751006 0.24506474 -0.3303451 0.14227945
-0.038805265 0.027498199 -0.4329552 -0.47912407 0.027485121 0.34892735 -0.4887724 0.24557754
0.27449194 0.2453264 0.0071154414 -0.5385889 0.47771552 0.08494335 -0.23021248 -0.014501051
-0.39561042 -0.012776585 0.24017733 0.3523171 0.012731229 0.035842113 0.035759453 -0.04309926
0.14449224 -0.1857172 0.013713894 -0.10514831 0.09314365 0.006145329 -0.0015592542 0.043382455
0.07503055 0.0009684306 0.13555536 -0.42061982 0.05829359 -0.104250625 -0.18675032 -0.12274789
-0.4331552 0.02891653 -0.3291036 0.4003393 0.1149912 0.36716506 0.15603329 0.42052484
0.01918219 0.25798965 0.16355008 0.0062243096 -0.04153729 -0.0038170924 0.2993179 -0.040328033
-0.06832852 0.0022939383 -0.012705207 -0.19806425 0.16017796 0.3110136 0.12020855 0.3645914
0.30680233 0.16722225 -0.06357138 0.2376442 0.07417503 0.038959175 -0.38442224 0.009008482
-0.1494739 0.17567566 0.1776512 -0.030685911 0.31553784 -0.21121705 0.033758655 0.22732592
-0.389505 0.29286647 0.050107423 -0.030437179 0.112141445 0.20897722 -0.25084034 0.20755224
0.13235407 0.2528065 0.14541236 0.25970653 0.24307021 0.027601935 -0.17952433 0.2178718
-0.38107488 -0.11433143 -0.12694469 -0.2802898 -0.037914187 0.16947404 0.051120766 0.066494524
-0.31207082 -0.024267849 0.0325143 0.22111283 -0.049794845 0.15759346 -0.050370555 0.012504811
0.19630045 -6.4508e-05 0.033222783 0.23902805 -0.39527655 0.39973104 -0.015831409 -0.20443445
-0.16097432 0.40506598 0.3207023 -0.16719782 -0.39332828 0.31827876 0.18557155 0.21155536
-0.020537632 0.29259926 -0.36344928 -0.46877086 0.15688886 0.2909406 -0.15933214 0.2592167
0.36043173 0.3072054 -0.022364644 -0.058785327 0.31936544 -0.085710704 0.11404921 -0.11438087
0.047149956 -0.033598267 0.5520304 0.29007664 -0.17035922 -0.008270493 0.20113549 0.067087196
0.13760039 0.014387022 0.14449343 -0.39458707 0.43334123 0.12869914 -0.049815636 0.31665346
0.1633499 0.21484248 0.3521121 -0.17444342 -0.066030234 -0.015510028 0.084746115 0.1154925
-0.06300261 -0.006337179 -0.019795831 0.25155842 0.12775664 0.27938104 0.18495075 0.22910564
-0.042828206 0.21446839 0.3368577 -0.07787091 0.050692238 0.021565098 0.280238 -0.268275
00000000: d5c9 8dbe 1ae5 acbd eb76 9fbe 4938 fdbe
00000010: d146 cbbc 8549 f03e 8f63 25bc 3a00 a73d
00000020: 554c 583e e3cd 233e 6e1a 91be ab58 b53d
00000030: e69a 1a3d 85ce 5b3d e3bd 4cbb e2f8 1abe
00000040: 1ee4 a7be a8e1 ddbd c00f 54be e0ae 9fbe
00000050: d3df a03e e4b7 13bf b3e6 14bd 6f94 2d3e
00000060: fd74 1abd 9e72 4f3e df60 c5bc 8550 803d
00000070: fdb6 34bd d822 603e 968b fabd 3a2d 32be
00000080: 7bd9 263e b160 2a3e edaf 8abc 5a5b 403d
00000090: ce2e 083e d914 98be f79f 1fbe ecc1 5d3e
000000a0: 2f81 84be 16c3 11bf 1b75 f4be be44 1e3d
000000b0: ab18 b03d 8ab2 b93d d3f7 79bd 2c75 453d
000000c0: c97a 01bf a4d8 28bc d249 223d fdfe cf3e
000000d0: c517 9e3d 4f29 493c ef77 dfbd acef f73a
000000e0: 08ce 1a3e 5561 85bd b839 433d 7599 8b3e
000000f0: f522 9a3c de9b ad3d 2842 ad3c 4f38 ebbe
00000100: 90f1 f2be 786d 053e 9ae7 9a3e f592 13bf
00000110: ab8f 6bbd 40f2 7a3e fe22 a9be b4b1 113e
00000120: 45f2 1ebd e743 e13c 4eac ddbe c04f f5be
00000130: 7a28 e13c 9ba6 b23e 6040 fabe ae78 7b3e
00000140: 358a 8c3e d836 7b3e a628 e93b f6e0 09bf
00000150: 2197 f43e c7f6 ad3d d2bc 6bbe d195 6dbc
00000160: 738d cabe e254 51bc 0cf1 753e e862 b43e
00000170: a596 503c 2ecf 123d 8178 123d da88 30bd
00000180: c6f5 133e a62c 3ebe 3eb0 603c ff57 d7bd
00000190: 19c2 be3d c25e c93b e45f ccba cdb1 313d
000001a0: 9ea9 993d 47de 7d3a 06cf 0a3e 7b5b d7be
000001b0: 42c5 6e3d 5a81 d5bd 7a3b 3fbe 3f63 fbbd
000001c0: 85c6 ddbe 5ce2 ec3c 4480 a8be 46f9 cc3e
000001d0: 8280 eb3d 0ffd bb3e 31c7 1f3e 084f d73e
000001e0: f823 9d3c 3817 843e ac79 273e 4bf5 cb3b
000001f0: 0123 2abd 2f28 7abb 3240 993e 022f 25bd
00000200: d3ef 8bbd e655 163b 8029 50bc 5bd1 4abe
00000210: b105 243e 2d3d 9f3e e62f f63d b9ab ba3e
00000220: 3215 9d3e 4f3c 2b3e b631 82bd 0059 733e
00000230: 14e9 973d a893 1f3d fed2 c4be 5098 133c
00000240: b00f 19be 52e4 333e 32ea 353e 0561 fbbc
00000250: 2d8e a13e 4849 58be 8446 0a3d 20c8 683e
00000260: 336d c7be 98f2 953e 713d 4d3d 6457 f9bc
00000270: 6aaa e53d 20fe 553e 256e 80be 9388 543e
00000280: d387 073e db6f 813e fae6 143e 41f8 843e
00000290: 66e7 783e 741d e23c 3ad5 37be c919 5f3e
000002a0: 3f1c c3be 9926 eabd cafd 01be 2582 8fbe
000002b0: e84b 1bbd 9a8a 2d3e 0264 513d 482e 883d
000002c0: bfc7 9fbe 5ecd c6bc b72d 053d 676b 623e
000002d0: aef5 4bbd 2e60 213e 5b51 4ebd fbe0 4c3c
000002e0: fc02 493e 7848 87b8 9d14 083d c5c3 743e
000002f0: b061 cabe 8ca9 cc3e dfb0 81bc 4457 51be
00000300: 74d6 24be cf64 cf3e 1833 a43e e835 2bbe
00000310: 5362 c9be 6ff5 a23e 7806 3e3e f8a1 583e
00000320: 893e a8bc 92cf 953e 0616 babe bc02 f0be
00000330: 79a7 203e 2bf6 943e f727 23be 0db8 843e
00000340: 828a b83e 074a 9d3e 0f36 b7bc e2c8 70bd
00000350: de83 a33e 1889 afbd a292 e93d 8440 eabd
00000360: 5020 413d 569e 09bd dd51 0d3f ed84 943e
00000370: a672 2ebe f680 07bc 76f6 4d3e 0365 893d
00000380: 1ee7 0c3e 8bb7 6b3c 16f6 133e 5107 cabe
00000390: e7de dd3e b5c9 033e 7b0b 4cbd 6720 a23e
000003a0: 3245 273e abff 5b3e 0a48 b43e 4ca1 32be
000003b0: dc3a 87bd c61d 7ebc 5f8f ad3d 5587 ec3d
000003c0: 8307 81bd 1ca8 cfbb de2a a2bc 44cc 803e
000003d0: a3d2 023e 080b 8f3e bb63 3d3e ab9a 6a3e
000003e0: a16c 2fbd 9a9d 5b3e 9d78 ac3e c97a 9fbd
000003f0: aaa2 4f3d 4aa9 b03c 5b7b 8f3e 575b 89be

fc2.bias f4 [128]
0.11437182 0.102596186 0.054156233 0.21511398 0.07147756 -0.0546126 0.13280647 0.06901383
0.1444084 0.1274978 -0.060360797 0.10934221 0.134995 0.020700192 -0.03370381 0.09929021
0.12566777 -0.025312299 0.034100976 0.04365426 0.046405178 0.110920176 -0.08141588 0.107946135
-0.018757634 0.007108706 0.12709805 0.12003449 0.0077796998 0.13809317 -0.06707697 0.0042878613
0.101275854 0.033931356 -0.001772786 0.06665303 0.027865361 0.10475014 -0.0025387672 0.02087062
0.031954356 0.124438144 0.16470762 -0.055053648 0.028072646 0.15772003 -0.019819666 -0.01288572
-0.024745552 0.08864358 0.075430244 0.05008139 0.0020985338 0.041588016 0.067602344 0.07530327
-0.1108236 0.09328264 0.14336365 -0.013218177 0.09147681 0.023095265 0.08459554 0.11103353
-0.049922697 0.08521698 -0.06707108 -0.083205946 -0.050242443 0.03226002 0.038686633 0.0953755
-0.07485043 -0.015138719 0.07388357 0.07047523 -0.0497777 0.07631529 -0.05912843 0.033329118
-0.006675671 0.09122933 0.0891143 0.04798496 0.1011351 0.07409652 -0.081363216 0.053198256
-0.094724566 -0.031381328 0.092766024 -0.052580945 0.03260018 0.08603602 0.04311656 0.032737315
0.08836302 0.0037061323 -0.009064768 0.23843823 0.036817893 -0.09675897 0.035882846 0.016097493
-0.078482606 0.06273483 -0.01617721 0.10272313 0.030256972 0.15304543 0.16078992 0.0446643
0.11975716 0.19663748 0.021280179 0.0627976 0.019757207 0.14696415 -0.050772253 0.17385991
0.024744734 -0.08772426 0.08304226 0.12308258 0.020632273 -0.03071343 -0.061957628 0.03169058
00000000: c63b ea3d f31d d23d edd2 5d3d d746 5c3e
00000010: d462 923d 76b1 5fbd 6bfe 073e 1f57 8d3d
00000020: ccdf 133e c98e 023e e23c 77bd cfee df3d
00000030: 213c 0a3e 7393 a93c 020d 0abd aa58 cb3d
00000040: 0daf 003e bd5b cfbc 77ad 0b3d cfce 323d
00000050: 5b13 3e3d 1e2a e33d 5ebd a6bd dd12 dd3d
00000060: 9ca9 99bc 26f0 e83b fe25 023e a5d4 f53d
00000070: daec fe3b 4c68 0d3e a75f 89bd 3081 8c3b
00000080: b769 cf3d 9bfb 0a3d d45c e8ba 6281 883d
00000090: e645 e43c 3e87 d63d 7261 26bb ddf8 aa3c
000000a0: 92e2 023d 6dd9 fe3d 1da9 283e ef7f 61bd
000000b0: 9bf8 e53c 5c81 213e da5c a2bc a01e 53bc
000000c0: 2fb7 cabc c48a b53d 2c7b 9a3d 2522 4d3d
000000d0: 8e87 093b 3258 2a3d 1973 8a3d 9a38 9a3d
000000e0: 7cf7 e2bd f80a bf3d eccd 123e 0d91 58bc
000000f0: 3258 bb3d 4832 bd3c 6d40 ad3d 8c65 e33d
00000100: be7b 4cbd 3d86 ae3d 905c 89bd e167 aabd
00000110: 05cb 4dbd 1523 043d e075 1e3d 3b54 c33d
00000120: 2f4b 99bd 6408 78bc 4550 973d 5155 903d
00000130: b4e3 4bbd 314b 9c3d a730 72bd 1d84 083d
00000140: 96bf dabb 71d6 ba3d 8f81 b63d e18b 443d
00000150: eb1f cf3d ebbf 973d c2a1 a6bd 6ae6 593d
00000160: f4fe c1bd b589 00bd 1dfc bd3d 1e5f 57bd
00000170: c487 053d a733 b03d fd9a 303d 9017 063d
00000180: acf7 b43d 95e2 723b 6584 14bc 2729 743e
00000190: 5cce 163d 9129 c6bd e4f9 123d e4de 833c
000001a0: 7dbb a0bd 1e7b 803d 1186 84bc 8160 d23d
000001b0: 78dd f73c f1b7 1c3e 1da6 243e eaf1 363d
000001c0: 3e43 f53d 565b 493e c553 ae3c 079c 803d
000001d0: ded9 a13c c57d 163e 91f6 4fbd 5508 323e
000001e0: 78b5 ca3c c7a8 b3bd 0f12 aa3d b812 fc3d
000001f0: 0305 a93c bb9a fbbc 48c7 7dbd fbcd 013d

fc3.weight f4 [128, 128]
0.35034618 0.27422744 0.03476426 0.2899315 0.29261872 -0.03146166 0.4862219 -0.0800984
0.55977887 0.54909223 0.06367906 0.07808779 0.5443268 -0.06711072 -0.018895337 0.18865262
0.25833136 -0.2708186 -0.004290479 0.097737506 0.015296925 0.2549608 -0.0047188033 0.41097903
-0.06511969 0.4368165 0.34563097 0.18723318 -0.028932104 0.38345417 0.012523451 -0.12715724
0.4493556 -0.08753305 -0.18551818 -0.058926392 0.15310863 0.3153182 -0.018284928 0.022748593
0.5713385 0.50115144 0.28589052 -0.09782662 0.010631816 0.1973118 0.036216754 0.40722275
0.06291591 0.16345657 0.4453831 -0.0458734 -0.0037039388 0.4921605 -0.23441447 0.076228485
0.0720844 0.45160887 0.49167126 -0.057601955 0.33207345 -0.18429472 0.30345473 0.5064199
-0.07438185 0.48654756 -0.019654347 0.07633014 -0.021464124 0.41992238 0.04944426 0.38473275
-0.022496996 0.31155652 0.20225382 0.0626064 -0.017386429 0.33081374 0.07176607 0.059453342
-0.0058132936 0.22764283 -0.1941184 0.0835916 0.51621675 0.5200674 0.029285958 -0.044427466
0.0136747975 0.024315262 0.24852727 0.07466724 0.018261692 0.28506762 0.3016289 0.05420402
0.24532993 0.47289863 0.31318125 -0.1577025 -0.3648329 0.05335629 0.010930753 -0.029140541
0.01688572 0.4305671 -0.0034999796 0.26021385 -0.034631047 0.45395076 0.2160039 -0.056140907
0.1772914 -0.08701274 0.26887625 0.019987796 0.5317522 0.16322681 0.02877632 0.23471752
0.1490022 -0.023614563 0.15341997 0.45923364 0.0049521597 0.008019903 -0.01737057 -0.3952314
0.30961233 0.25610414 -0.08215263 0.2886216 0.28306216 -0.082605764 0.2727271 0.0037016023
0.5056597 0.39616305 0.07835766 0.13441555 0.48316208 -0.06212514 -0.024694623 0.24265835
0.27127346 -0.24189328 -0.006679259 0.026899667 -0.06511434 0.20226961 -0.019854631 0.38384297
-0.042950947 0.40539476 0.41124457 0.13462913 -0.004852587 0.30399016 0.040705353 -0.27570343
0.461478 -0.055877004 -0.33115807 -0.07659837 0.14404297 0.16036573 0.0014288519 0.029983154
0.47837093 0.39597988 0.25797448 -0.033513144 -0.028918037 0.14260189 0.011956198 0.4333026
0.03307969 0.2188321 0.36405244 -0.044124473 0.041435663 0.42361447 -0.38359925 -0.035081692
0.06786108 0.40437278 0.49778152 -0.060709734 0.27763882 -0.25503302 0.38905123 0.36783284
0.031203303 0.52821046 -0.03903499 -0.010248596 0.06513613 0.31886107 -0.0056767063 0.24743386
-0.027438557 0.25604737 0.06850335 -0.003930723 0.036841772 0.20542786 -0.023275044 0.1289446
0.05880932 0.2416327 -0.1788188 0.14657202 0.43270665 0.48089638 0.061537348 0.07958779
0.030595435 0.047054984 0.11383679 0.056942716 0.030002441 0.26688853 0.23562735 0.122788586
0.20008346 0.33658528 0.31767383 -0.05000992 -0.3462518 0.005174322 0.089096904 -0.04931787
0.051203866 0.5365249 0.012971908 0.24987139 -0.060314715 0.5268115 0.099384606 -0.015438601
0.17128533 -0.10703882 0.21572417 0.023348711 0.44629562 0.23967503 -0.055045817 0.1668478
0.050873835 -0.042584416 0.09476586 0.3130345 -0.0028380211 -0.0322261 0.069439165 -0.33737403
00000000: 9360 b33e 8a67 8c3e f864 0e3d e771 943e
00000010: 1fd2 953e f1dd 00bd 14f2 f83e a10a a4bd
00000020: ab4d 0f3f 4f91 0c3f 2b6a 823d 7eec 9f3d
00000030: 0059 0b3f 5871 89bd 65ca 9abc 272e 413e
00000040: 0244 843e bca8 8abe 2597 8cbb 9a2a c83d
00000050: f49f 7a3c 398a 823e 31a0 9abb d86b d23e
00000060: 795d 85bd 6aa6 df3e 8bf6 b03e 0eba 3f3e
00000070: 0503 edbc 1b54 c43e 292f 4d3c 8235 02be
00000080: f011 e63e 8744 b3bd 7af8 3dbe cd5c 71bd
00000090: 82c8 1c3e 6371 a13e 46ca 95bc 425b ba3c
000000a0: 3d43 123f 764b 003f 3e60 923e 5359 c8bd
000000b0: 1231 2e3c 1b0c 4a3e 0558 143d 807f d03e
000000c0: 0eda 803d 2961 273e 4109 e43e bfe5 3bbd
000000d0: c8bd 72bb 76fc fb3e 590a 70be ae1d 9c3d
000000e0: fca0 933d 4739 e73e 56bc fb3e 07f0 6bbd
000000f0: 8805 aa3e c1b7 3cbe 6b5e 9b3e bca4 013f
00000100: 8355 98bd c31c f93e 2702 a1bc fa52 9c3d
00000110: 88d5 afbc 1100 d73e 1086 4a3d b1fb c43e
00000120: 9f4b b8bc 5684 9f3e a01b 4f3e c937 803d
00000130: fc6d 8ebc 6b60 a93e 17fa 923d 5985 733d
00000140: 717d bebb 341b 693e f9c6 46be 1332 ab3d
00000150: c826 043f 2323 053f 1be9 ef3c 93f9 35bd
00000160: 420c 603c cd30 c73c ef7d 7e3e 23eb 983d
00000170: 8b99 953c 62f4 913e 1a6f 9a3e 0905 5e3d
00000180: c537 7b3e c51f f23e 4b59 a03e c47c 21be
00000190: 61cb babe 208c 5a3d e716 333c 25b8 eebc
000001a0: ec53 8a3c 4a73 dc3e ea5f 65bb c03a 853e
000001b0: 49d9 0dbd 3c6c e83e 2030 5d3e 02f4 65bd
000001c0: e08b 353e bc33 b2bd 26aa 893e 72bd a33c
000001d0: ea20 083f ee24 273e 51bc eb3c ca59 703e
000001e0: 0894 183e 5473 c1bc 201a 1d3e ac20 eb3e
000001f0: ba45 a23b e965 033c ba4c 8ebc c55b cabe
00000200: 8285 9e3e 1520 833e a33f a8bd 36c6 933e
00000210: 86ed 903e 362d a9bd e3a2 8b3e 9596 723b
00000220: ea72 013f e2d5 ca3e fb79 a03d 3ba4 093e
00000230: 0561 f73e ee76 7ebd 614c cabc 6e7b 783e
00000240: 5be4 8a3e dfb2 77be afdd dabb b15c dc3c
00000250: ab5a 85bd c41f 4f3e 2ea6 a2bc 1187 c43e
00000260: 55ed 2fbd e78f cf3e a68e d23e 38dc 093e
00000270: 7302 9fbb 99a4 9b3e a8ba 263d 0029 8dbe
00000280: d846 ec3e 49df 64bd 8d8d a9be 9bdf 9cbd
00000290: 0080 133e ea36 243e 5048 bb3a 3b9f f53c
000002a0: 09ed f43e e0bd ca3e 3b15 843e 1445 09bd
000002b0: 85e5 ecbc 3b06 123e eee3 433c d7d9 dd3e
000002c0: 927e 073d 8615 603e 1565 ba3e ddbb 34bd
000002d0: 71b8 293d ffe3 d83e 1f67 c4be d2b1 0fbd
000002e0: c0fa 8a3d f309 cf3e 38dd fe3e c5aa 78bd
000002f0: ad26 8e3e b093 82be b931 c73e 9654 bc3e
00000300: 129e ff3c cd38 073f 27e3 1fbd bae9 27bc
00000310: 1766 853d c241 a33e aa03 babb 4d5f 7d3e
00000320: d3c6 e0bc a418 833e 7c4b 8c3d 4bcd 80bb
00000330: 66e7 163d ae5b 523e 4eab bebc 0e0a 043e
00000340: 0be2 703d 906e 773e 471c 37be fa16 163e
00000350: ba8b dd3e 0d38 f63e 960e 7c3d ecfe a23d
00000360: 47a3 fa3c babc 403d 4323 e93d c43c 693d
00000370: aec7 f53c 9da5 883e 4c48 713e 9578 fb3d
00000380: aee2 4c3e e854 ac3e 25a6 a23e 34d7 4cbd
00000390: ea47 b1be 5c8d a93b 7078 b63d 8901 4abd
000003a0: 25bb 513d b259 093f 2088 543c 49de 7f3e
000003b0: 900c 77bd 1edd 063f 288a cb3d 30f2 7cbc
000003c0: 6c65 2f3e 2b37 dbbd cce6 5c3e cc45 bf3c
000003d0: dc80 e43e 5f6d 753e b977 61bd 26da 2a3e
000003e0: 1561 503d ff6c 2ebd 9a14 c23d 0f46 a03e
000003f0: 18fe 39bb 84ff 03bd 1f36 8e3d 4abc acbe

fc3.bias f4 [128]
0.014496092 0.0922809 0.048920013 0.20812011 -0.07837201 0.13363554 0.069269486 -0.01641885
0.123434134 0.00027277457 0.18669556 0.15214953 0.15266834 0.22443977 0.05431658 -0.08151929
-0.03346724 0.040698167 -0.0065617966 0.20889357 -0.02489383 -0.062912405 0.07266975 0.027895138
0.07073277 0.061301183 0.15341355 -0.07935949 -0.092847064 0.05877344 -0.021560365 0.20009258
0.01938133 0.017215278 0.04867559 0.06832864 0.061411183 0.16825828 0.02195506 0.16659856
0.05875062 0.05591461 -0.068744436 -0.03164887 0.23645939 -0.011870798 0.09110016 0.13937196
0.17630742 0.11901052 -0.024280624 -0.06372312 0.040270116 0.1199359 -0.07114989 0.169872
0.038942635 -0.0701114 -0.063949145 0.020126222 0.10279492 0.13275015 -0.057201307 0.05240264
0.08128875 0.1571428 0.19112809 0.17156333 0.21850967 -0.018697428 0.015029639 0.13733724
0.11644218 -0.079760335 -0.024532724 0.043741863 0.029611006 0.06448873 0.20761274 0.091170415
0.007920155 0.12013222 -0.0025897166 -0.057427626 0.048040643 0.02580862 -0.08395994 -0.010657683
0.07291245 0.015936697 0.2150189 0.18158706 0.098030515 0.017342998 0.069633625 -0.057996467
0.06543825 0.013057041 0.17863841 0.060545713 -0.003948753 -0.06374972 -0.03828097 -0.06379713
0.0034245888 0.019912496 0.039377112 0.043744262 -0.0276929 0.046107285 0.09210384 0.031708926
0.070499234 0.17410873 -0.041435618 0.13438629 0.057861112 -0.09335156 0.025060294 0.16194218
0.08016463 0.029705878 0.105854444 -0.05417715 -0.080262594 -0.09887391 0.03737504 0.044031564
00000000: 0481 6d3c c5fd bc3d 5a60 483d 701d 553e
00000010: 8181 a0bd c1d7 083e 29dd 8d3d d380 86bc
00000020: 09cb fc3d 2f03 8f39 1f2d 3f3e 16cd 1b3e
00000030: 1755 1c3e 8ad3 653e 107b 5e3d 96f3 a6bd
00000040: f214 09bd 1fb3 263d 5704 d7bb 32e8 553e
00000050: 25ee cbbc 38d8 80bd e1d3 943d 5884 e43c
00000060: 58dc 903d f316 7b3d 7118 1d3e 3a87 a2bd
00000070: 9a26 bebd 6bbc 703d 5d9f b0bc 12e5 4c3e
00000080: 98c5 9e3c 0e07 8d3c 0e60 473d e3ef 8b3d
00000090: 4b8a 7b3d e64b 2c3e 19db b33c d098 2a3e
000000a0: 7da4 703d b806 653d e2c9 8cbd 3fa2 01bd
000000b0: 6922 723e bc7d 42bc b892 ba3d 86b7 0e3e
000000c0: ef89 343e cabb f33d 29e8 c6bc 4481 82bd
000000d0: 47f2 243d f4a0 f53d 09b7 91bd edf2 2d3e
000000e0: 5082 1f3d 9196 8fbd c5f7 82bd bfdf a43c
000000f0: 2586 d23d a8ef 073e eb4b 6abd 27a4 563d
00000100: b77a a63d 0bea 203e 15b7 433e 4cae 2f3e
00000110: 00c1 5f3e 592b 99bc e03e 763c 22a2 0c3e
00000120: 3d79 ee3d 6359 a3bd daf8 c8bc ab2a 333d
00000130: c892 f23c ab12 843d 6f98 543e 8eb7 ba3d
00000140: 8ac3 013c e207 f63d 3cb8 29bb 3b39 6bbd
00000150: 44c6 443d 996c d33c 30f3 abbd 909d 2ebc
00000160: 1f53 953d ad8d 823c ea2d 5c3e f5f1 393e
00000170: 39c4 c83d e712 8e3c 139c 8e3d b48d 6dbd
00000180: 7d04 863d 33ed 553c fdec 363e c8fe 773d
00000190: 8a64 81bb 378f 82bd 82cc 1cbd 12a8 82bd
000001a0: 116f 603b 881f a33c e549 213d 2f2d 333d
000001b0: 38dc e2bc feda 3c3d f0a0 bc3d 38e1 013d
000001c0: e761 903d 8f49 323e 65b8 29bd 8f9c 093e
000001d0: c6ff 6c3d 1a2f bfbd 3f4b cd3c 2cd4 253e
000001e0: 5b2d a43d be59 f33c 37ca d83d dce8 5dbd
000001f0: b760 a4bd 687e cabd 9216 193d 715a 343d

fc4.weight f4 [9, 128]
-0.104462236 -0.18792026 0.0056052525 -0.03072312 -0.0693514 -0.018847814 -0.33400533 0.036282785
-0.04047156 -0.013158801 -0.13610204 -0.24206568 -0.13723172 -0.20830941 -0.04337624 0.07724457
-0.11085013 -0.20799741 0.066753164 -0.28398463 0.04843682 0.0044727824 0.24646737 0.1942403
0.030974293 0.16802949 0.00020705437 -0.020124178 0.01659904 0.24581471 -0.025502402 -0.23065181
0.040396117 -0.0837832 -0.001980434 -0.0707045 -0.03297629 -0.091838755 0.064439625 -0.13193704
-0.23116855 -0.024383258 0.07591062 0.050046936 -0.1072327 0.15948264 -0.16724093 -0.14411426
0.08306978 -0.16935875 0.080236115 0.0048332214 -0.04107741 -0.1788736 0.071455374 -0.13644847
0.24187799 0.05689129 -0.1264456 0.13227764 -0.12302167 -0.19283842 0.088420965 -0.019073399
-0.048813306 0.020534 -0.11333933 -0.34402892 -0.29542124 0.07738581 0.20628868 -0.2155553
0.19944918 0.08613257 -0.044732925 -0.06228591 0.075091384 -0.012443182 -0.1068335 -0.16066742
-0.063594915 0.11266038 -0.043239243 0.012486228 0.2329271 -0.0022043013 -0.021243706 -0.0022246502
-0.06434668 0.040413905 -0.39153492 -0.07083362 -0.33856267 -0.12423965 -0.10618718 0.0927362
-0.10528692 0.08019372 -0.06288562 0.0791158 -0.06990188 0.19448467 -0.041403957 -0.043975726
0.07983065 -0.10262859 -0.087045886 -0.006673869 -0.12338846 -0.063255586 -0.07567181 -0.09099
-0.116352014 -0.06573638 0.1308599 -0.24892227 0.23773724 -0.06980105 0.26040876 -0.045194037
-0.18791766 0.06773554 -0.06200355 -0.061455034 0.13180895 -0.022326428 -0.022932077 0.2121404
-0.2384168 -0.26287606 0.031770278 0.10361029 0.07131225 -0.03321861 -0.05743161 -0.014202959
0.04418451 -0.07971515 -0.6235749 -0.27881294 -0.24065958 -0.28406283 -0.062140703 0.0122025525
-0.032363582 -0.203272 0.049625386 -0.44870225 0.044172402 0.025319705 0.21917343 0.2430203
-0.06726405 0.2591908 -0.24448551 0.009156443 0.010148878 0.19218461 0.039348748 0.12523042
0.042488754 -0.058530517 0.039866526 0.002146821 0.052749835 -0.30414277 0.07863859 -0.17218009
-0.14796466 -0.046475023 -0.04449181 0.064193614 -0.3117417 0.07456291 -0.13037832 -0.20648234
-0.10995399 -0.14913104 -0.01982529 0.086764924 -0.11372468 -0.15685566 0.04728756 -0.3339115
-0.07448574 -0.039690666 -0.056766666 0.08531297 -0.01374619 -0.3183261 0.07710046 -0.04394856
0.025028637 0.038791917 -0.27021372 -0.2655274 -0.3249587 0.07594858 0.25728783 -0.055790637
0.10740457 0.017041616 0.044416476 -0.021538295 0.066803016 0.060836054 -0.1727549 -0.18566497
-0.012340513 0.21797419 -0.021179786 0.00041139635 0.28628567 0.007967641 -0.061887346 -0.068565324
0.08667404 -0.025689295 -0.39619622 -0.4503874 -0.21036364 -0.03850105 -0.16343206 -0.078300975
-0.051939633 -0.017820101 -0.30422595 0.23299262 -0.046812136 0.15585953 0.015107807 -0.06706208
0.047164526 0.077641994 -0.24585421 0.053676825 -0.10850252 -0.16261709 -0.09825653 -0.17989594
-0.031308383 -0.53339267 0.07203843 -0.23876037 0.29367888 0.04039021 0.10075037 -0.22327895
-0.30272675 0.07554425 -0.22981511 -0.050728787 -0.008205575 -0.008698351 0.0056397165 0.2229563
00000000: 4cf0 d5bd 2b6e 40be 44ac b73b 0daf fbbc
00000010: 1b08 8ebd bb66 9abc bf02 abbe 429d 143d
00000020: 82c5 25bd 0398 57bc 555e 0bbe 11e0 77be
00000030: 7986 0cbe 104f 55be 49ab 31bd 6732 9e3d
00000040: 6505 e3bd 46fd 54be e2b5 883d 6f66 91be
00000050: b065 463d 6b90 923b f161 7c3e eee6 463e
00000060: cdbd fd3c ec0f 2c3e bc1c 5939 76db a4bc
00000070: b6fa 873c dab6 7b3e 6aea d0bc fd2f 6cbe
00000080: 6676 253d 8796 abbd 2bca 01bb 85cd 90bd
00000090: 2512 07bd f515 bcbd ecf8 833d 811a 07be
000000a0: 73b7 6cbe 66bf c7bc 0777 9b3d 04fe 4c3d
000000b0: d19c dbbd 6b4f 233e 3541 2bbe b092 13be
000000c0: 7d20 aa3d 616c 2dbe d552 a43d 0060 9e3b
000000d0: c940 28bd a42a 37be 3257 923d 26b9 0bbe
000000e0: ddae 773e d706 693d f57a 01be ca73 073e
000000f0: c9f2 fbbd 6f77 45be 0d16 b53d d13f 9cbc
00000100: 76f0 47bd eb36 a83c 731e e8bd 8f24 b0be
00000110: 7441 97be 747c 9e3d 573d 533e 87ba 5cbe
00000120: 683c 4c3e 4666 b03d df39 37bd 831f 7fbd
00000130: 83c9 993d 7dde 4bbc 86cb dabd 0086 24be
00000140: 0d3e 82bd 7cba e63d a21b 31bd 0993 4c3c
00000150: 7184 6e3e 0a76 10bb 4807 aebc 70cb 11bb
00000160: 31c8 83bd 0d89 253d 4477 c8be 3811 91bd
00000170: 1658 adbe 5c71 febd aa78 d9bd 7aec bd3d
00000180: aba0 d7bd 9b3c a43d 2dca 80bd 7707 a23d
00000190: b828 8fbd fd26 473e 3297 29bd e41f 34bd
000001a0: 407e a33d f02e d2bd 1d45 b2bd 79b0 dabb
000001b0: 17b3 fcbd 258c 81bd d2f9 9abd f758 babd
000001c0: f749 eebd cca0 86bd 2300 063e 7be5 7ebe
000001d0: 6471 733e daf3 8ebd 4c54 853e 621d 39bd
000001e0: 7d6d 40be eeb8 8a3d 6ff7 7dbd 46b8 7bbd
000001f0: edf8 063e eae5 b6bc 0ddc bbbc 553b 593e
00000200: 8923 74be b197 86be 8d21 023d a231 d43d
00000210: 280c 923d 3d10 08bd 683d 6bbd 87b3 68bc
00000220: d1fa 343d b241 a3bd 9ba2 1fbf 92c0 8ebe
00000230: 776f 76be af70 91be 4087 7ebd 37ed 473c
00000240: ad8f 04bd 8926 50be fd43 4b3d 4dbc e5be
00000250: 1fee 343d 456b cf3c 006f 603e 50da 783e
00000260: bcc1 89bd a8b4 843e 695a 7abe e804 163c
00000270: 7b47 263c 0bcc 443e 272c 213d 673c 003e
00000280: b008 2e3d b2bd 6fbd 154b 233d aeb1 0c3b
00000290: 3610 583d 9ab8 9bbe 450d a13d fa4f 30be
000002a0: 0c84 17be 985c 3ebd 0b3d 36bd f177 833d
000002b0: 9c9c 9fbe 70b4 983d e581 05be 1b70 53be
000002c0: 8f2f e1bd cfb5 18be a668 a2bc cfb1 b13d
000002d0: 7ce8 e8bd c59e 20be 9ab0 413d 73f6 aabe
000002e0: fb8b 98bd ae92 22bd 2a84 68bd 91b8 ae3d
000002f0: b337 61bc a3fb a2be d9e6 9d3d 6803 34bd
00000300: db08 cd3c 46e4 1e3d 7459 8abe 35f3 87be
00000310: fd60 a6be ee8a 9b3d 3bbb 833e b984 64bd
00000320: edf6 db3d dc9a 8b3c 0dee 353d 1471 b0bc
00000330: 05d0 883d 3a2f 793d a9e6 30be f51e 3ebe
00000340: dd2f 4abc a034 5f3e 3b81 adbc afb0 d739
00000350: 0994 923e b58a 023c 967d 7dbd fa6b 8cbd
00000360: 2982 b13d 5b72 d2bc 3bda cabe 2d99 e6be
00000370: 9169 57be 47b3 1dbd bc5a 27be 435c a0bd
00000380: a7be 54bd 76fb 91bc 81c3 9bbe 9e95 6e3e
00000390: 15be 3fbd a499 1f3e bc86 773c d857 89bd
000003a0: 972f 413d c402 9f3d 35c1 7bbe 3bdc 5b3d
000003b0: 9236 debd 1885 26be b83a c9bd a436 38be
000003c0: 383d 00bd 6c8c 08bf e288 933d 997d 74be
000003d0: 145d 963e 3470 253d 3656 ce3d 3da3 64be
000003e0: 00ff 9abe f2b6 9a3d a754 6bbe fdc8 4fbd
000003f0: ad70 06bc 8783 0ebc 5fcd b83b a84e 643e

fc4.bias f4 [9]
-0.044206105 -0.057588324 0.051579222 -0.09498221 0.028129425 -0.016825844 -0.117614925 -0.056297924
0.046513688
00000000: 7611 35bd bce1 6bbd bc44 533d 0886 c2bd
00000010: ae6f e63c 5ad6 89bc 18e0 f0bd a798 66bd
00000020: 2385 3e3d
