final_race_model.pth (torch, 144459 bytes, 8 tensors)

fc1.weight f4 [128, 7]
00000000: b05f 833e 9e1d 103d 78fe 58be eed1 6fbf
00000010: f54d b43e b674 793e 0509 bdbf 84a9 91be
00000020: b5da 183e bf73 77be 9099 843e 9170 5abf
00000030: 2f69 213e 6ed2 c8be 4ed8 5fbd 68ca 103d
00000040: ad47 743c 7043 87be 8ded c4bc 5e89 a4be
00000050: 5fdc 463f 4f39 9fbe 6a3c 9fbe 0e0f 5e3d
00000060: 7683 063e b299 193e 2e79 36bf a859 003f
00000070: 7003 dd3d d8d0 cfbd 60c0 e3bd a3ac 8abe
00000080: 80f5 b4bc 2d03 8c3e 731b 5fbe 8cae ce3d
00000090: fd76 bfbe b434 1e3e 06d7 af3e 5188 b03e
000000a0: fd28 d83d ca21 24bf 18a6 bb3c 3905 c13e
000000b0: 265d ba3e 9364 1cbe da3c 14be 318e 4cbd
000000c0: 6dbb 18bf 69c1 9ebe c802 2dbd 26e3 a7be
000000d0: 5ec2 4fbe e822 873d b098 92be de0e 2a3e
000000e0: d84c 6ebe f0e2 b23e befb 193e dade 7dbf
000000f0: 4638 1f3e e55a 3f3f 6941 96bf 1411 04bf
00000100: f0e5 6a3c 9f36 473d 7251 1ebe d250 1dbf
00000110: 02d8 3b3b a99b 47be 6590 92bd 2fbb c73e
00000120: 06dd c83e 19a8 bb3d c5c3 47bc 629c 233e
00000130: 1105 0bbf 7703 8a3e 80a9 763d efaa c7bd
00000140: 82a8 533d a394 eebd 9d86 b8be 4a2d 843f
00000150: 0043 ddbc 6870 0ebd 1bdf 37be 96d3 b6be
00000160: 50a1 9bbd 61d7 2bbe bc1c 9fbe 277a 9dbc
00000170: 61bc 69bb 1c1a a7be ba75 bcbd a03c 613d
00000180: 2f58 88be 8a4b 163e 67e3 f6be b974 91be
00000190: b3e4 8b3e 3b61 d53e abde 323e 3195 9b3b
000001a0: c7b5 abbe 13b4 b43e 7e0a ca3e 129f cc3e
000001b0: c8b7 19bd 070a 643e 2f3e 613e 90c3 07bf
000001c0: 8bbf 5cbe 0507 d03e 4fa3 913e e30b a5be
000001d0: e15d 09bd b7dc dfbe a304 59bf 3d53 8e3e
000001e0: 70ea b6bd 74c3 d0bd 9d80 7fbf 9275 713e
000001f0: 1dfb 743e 2694 98bf 3c26 67be 1117 593e
00000200: d780 10be 3459 23be 7493 29be e1ee 2e3f
00000210: 5905 3dbd eb10 a7be e6c2 a2be 9811 80be
00000220: 6733 cc3e b117 48bf dba4 ffbd 936f 74be
00000230: 8ffc 85be 7170 e63d bb16 c73d 42f3 c53e
00000240: a704 91be 6235 90be bcac 013c 6709 44be
00000250: 19c6 3dbd 9163 9abe 635a b6be da25 b33e
00000260: bbbc 4f3f fcfb 6ebf 14a4 8ebe 420b 7a3e
00000270: e094 b3be 5180 94be 2dff bd3e a8b9 0dbd
00000280: be09 493e f236 43be 5584 ac3b 245b 95be
00000290: f0ad 9a3e bc1a 13bf d640 6b3e caab 003f
000002a0: fabd 763e a05d e2be da6e c0bd d415 b4bd
000002b0: b6ed b7bd b9d5 263e f0f0 b13d 242f 9b3e
000002c0: 7288 873d b8b8 76bc 2f4c 8cbf f8d3 0ebe
000002d0: 9f91 683e 6ea9 8cbf 4f8d e3be 0839 dabe
000002e0: 2623 513d 5f11 a53e 0c97 04bb ae02 9abd
000002f0: 2feb 083e b000 96be 885e 363e 0664 503d
00000300: 711a 953e d4c3 9d3e 06cb 8a3e 0e8e 07be
00000310: d6f4 33bf 8ea7 63bf ca66 62bf 2114 de3d
00000320: c70d a03d fd83 06be e0ae cabe 4f19 b13e
00000330: 0275 533d 2c7f 9fbd 9942 82bf 3d75 cabc
00000340: 5923 973e 7505 80bf e6fc 203e 88f6 003f
00000350: 259b 883e efe9 b83e b333 42be 0870 50be
00000360: f227 4abf d8ef a1be 39ed 98be 5a21 013e
00000370: c7d6 a7be 5000 80be ebbb af3e 88cf 01be
00000380: 546b 663d f262 25be b474 8a3e 8387 74bf
00000390: 9e35 593e 524b 243f 9d82 91bf 0e96 ffbc
000003a0: 6a7a 0ebe 75e6 82bd e79c 5f3e 5758 2ebe
000003b0: 20c9 8fbd ba3e 44be 61f3 91be 65f7 21bf
000003c0: a633 b23e 3ac8 803d 210e 503e e482 2e3e
000003d0: 8117 37be 6c73 acbe 15d8 80be 83be 43be
000003e0: 9a21 1c3e ce58 d6be 6c97 a7be f153 a73e
000003f0: 0239 893e df4d fe3e 1b6c 2abd 36c4 a2be
0.2565894 0.035184495 -0.21190822 -0.936797 0.35215726 0.24360928 -1.4768378 -0.28449643
0.1492718 -0.24165247 0.2589841 -0.8532801 0.1576278 -0.39223045 -0.054649644 0.03534928
0.014909667 -0.26418638 -0.024039054 -0.32136053 0.7768001 -0.3109841 -0.3110078 0.054213576
0.13136086 0.15000036 -0.71278656 0.50136805 0.10791671 -0.10147256 -0.11120677 -0.27084836
-0.02208972 0.27346173 -0.21787815 0.10091886 -0.37395468 0.15449792 0.34343737 0.34479
0.10554693 -0.6411406 0.022906348 0.37699297 0.36399192 -0.15272741 -0.14476338 -0.04994029
-0.5966099 -0.31006935 -0.04223898 -0.32790488 -0.20288989 0.06598455 -0.28632116 0.16607234
-0.23271501 0.34938765 0.15037438 -0.9916817 0.1554881 0.7474807 -1.1738712 -0.5158856
0.014337048 0.048636075 -0.15460756 -0.61451447 0.0028662686 -0.19492973 -0.07156447 0.39009997
0.39231128 0.091629215 -0.012192671 0.15977624 -0.54304606 0.26955768 0.06022024 -0.097494
0.051674373 -0.11649444 -0.36040202 1.0326321 -0.027009487 -0.034775168 -0.17956202 -0.35708302
-0.07599127 -0.1678138 -0.3107661 -0.019223286 -0.003566526 -0.32637107 -0.09202142 0.054989457
-0.2662978 0.14677253 -0.4822037 -0.28409365 0.2732292 0.41675743 0.17467754 0.0047480096
-0.33537123 0.35293636 0.3946113 0.3996511 -0.037528783 0.2226945 0.21996377 -0.5303278
-0.21557443 0.40630355 0.28444907 -0.3223563 -0.033536796 -0.4372308 -0.847727 0.2779788
-0.08931434 -0.1019353 -0.99805623 0.23580006 0.23923917 -1.1920211 -0.22573179 0.21200205
-0.14111648 -0.15951997 -0.16560155 0.6833325 -0.046147678 -0.32630095 -0.3178932 -0.25013423
0.39882967 -0.7816115 -0.124826156 -0.23870687 -0.2616925 0.11251915 0.09721132 0.38662153
-0.28323862 -0.28165728 0.007914718 -0.19144212 -0.0463315 -0.30154088 -0.35615835 0.34989816
0.81147355 -0.9335325 -0.27859557 0.24418357 -0.3507452 -0.29004148 0.37108746 -0.034600884
0.19632623 -0.19063929 0.0052647986 -0.29171097 0.3021083 -0.5746267 0.22973952 0.5026213
0.24095908 -0.44212055 -0.09396143 -0.08793226 -0.08980887 0.16292466 0.08688533 0.30309403
0.06617822 -0.015058689 -1.0960749 -0.13948047 0.227118 -1.0989206 -0.44443747 -0.42621636
0.05105891 0.32239816 -0.0020231633 -0.07520042 0.13370965 -0.292974 0.17809498 0.05087664
0.29121736 0.30813468 0.2710802 -0.13237783 -0.70295465 -0.88927543 -0.88438094 0.10843683
0.07815128 -0.13136287 -0.39586544 0.3458962 0.05162526 -0.07787928 -1.0176574 -0.024714107
0.29519156 -1.0001665 0.15721473 0.50376177 0.26680866 0.36115977 -0.18965034 -0.20355237
-0.789672 -0.316283 -0.29868487 0.12610379 -0.3278105 -0.25000238 0.34323058 -0.12676823
0.0562547 -0.16151026 0.27042162 -0.95519274 0.2121186 0.6417743 -1.1367985 -0.031199481
-0.13913885 -0.063916124 0.21837197 -0.17025886 -0.070207834 -0.19164553 -0.28505996 -0.6326812
0.3480503 0.0628819 0.2031789 0.17042118 -0.1788006 -0.3368181 -0.25164858 -0.19115643
0.15247193 -0.41864628 -0.32732713 0.3268123 0.26801306 0.49668786 -0.041607004 -0.31790322

fc1.bias f4 [128]
00000000: 466d aabe e1d6 7b3d b0e6 713e 9d65 05be
00000010: 1582 a8be fa7c ccbc de89 2a3e 7093 aebc
00000020: d114 bdbe 34de ae3e 5ca3 37be 3f46 783d
00000030: 90d4 9dbc e1fd 23be 208b 8d3e 1694 46be
00000040: c9b8 7c3e 7e74 84be 3166 b73e ba76 213e
00000050: b5b5 2fbe 3618 803e 40ad bdbe c213 dfbd
00000060: 9af7 abbd 9e80 1abe e7f2 993e bf6f a93b
00000070: e08a 993e bdc1 78be e30b babd bb42 22be
00000080: fe19 a8be 6282 a43e 6888 8c3d ad99 853e
00000090: 292a cdbc f652 c53e 707d 703d ae95 fe3d
000000a0: d667 63be 0497 3d3e aa98 91be 9d71 3fbe
000000b0: f9c3 463d e542 e53e 643d 453d d847 06be
000000c0: 70be 7e3e 473d b9be 2136 6a3e a0fc f8bb
000000d0: dd70 9cbe 4b86 133e 4d2f a53d 90fc 893d
000000e0: 5c4d 913d 34ed 573e 5102 b73e 50a2 a8bd
000000f0: d3fd a13e ca44 a3be ef31 613d a953 963e
00000100: 2c1c b33e b3a2 483d ea05 c7be fa26 0b3e
00000110: 4062 013f 5a29 ae3e 2ec5 48be 1c3d 88be
00000120: 3733 96be 6d87 94bd 30a1 92be dfa0 843d
00000130: 054b 833e 3883 abbd 07d4 d73e 6dd8 c0bd
00000140: 9e9b 853e 8366 a83e 0159 923c aa0b 08be
00000150: a369 08be 2c5f 763e 43cf 053e 17f7 64be
00000160: 8807 ad3e 176f 96be 890e 55be 46e6 e73e
00000170: a2c1 9bbe 72d7 43be 798c b8be c1ad 9dbe
00000180: a456 cc3d 86da abbe 5c87 afbd 9391 84bc
00000190: 3708 853e 57ae 673e b0f4 89bd 33c8 99be
000001a0: 7e5d 5abe ddd5 9e3e 5c49 563e a0bf 283d
000001b0: c039 323e f545 343e 412c c13e f3bf f83e
000001c0: 9a52 b3be f978 5f3e b514 8a3c e3aa 733b
000001d0: 4e77 de3e 9be0 633e ef1d 6dbe dbed f13e
000001e0: 62d0 7d3e 9e72 93be 145f 543e 3147 b5be
000001f0: f848 9fbe 5f81 4ebe 3afb 093d e504 cd3e
-0.33286494 0.06148422 0.23623157 -0.13027044 -0.32911745 -0.024961937 0.16654155 -0.021310538
-0.36929944 0.34153903 -0.1793341 0.060613867 -0.019266397 -0.16014816 0.27645206 -0.19392428
0.24679865 -0.25870126 0.35820153 0.15767947 -0.1715916 0.2501847 -0.37046242 -0.108924404
-0.083968356 -0.15088126 0.30068132 0.005170792 0.29988766 -0.24292655 -0.090842985 -0.15845768
-0.3283233 0.32130724 0.06861955 0.26093808 -0.025044518 0.38539857 0.058713377 0.12430893
-0.22207579 0.18514639 -0.28436786 -0.18695684 0.048526738 0.447776 0.04815425 -0.13113344
0.24877334 -0.36179563 0.22872211 -0.0075984746 -0.30554858 0.14406697 0.080656625 0.067376256
0.07094833 0.2108658 0.35743955 -0.08234084 0.31638965 -0.3188842 0.05497926 0.29360703
0.3498243 0.048983287 -0.388717 0.13589087 0.5054054 0.34015924 -0.19606468 -0.26609123
-0.2933595 -0.07252393 -0.286386 0.06475996 0.25643173 -0.08374637 0.42153952 -0.0941628
0.2609529 0.3289071 0.017864706 -0.132857 -0.13321547 0.24059743 0.13067345 -0.22359882
0.33794808 -0.2938163 -0.20806326 0.45292872 -0.30421168 -0.19125155 -0.36044672 -0.30796626
0.09977463 -0.33565158 -0.085707396 -0.016182696 0.2598283 0.22625099 -0.067361236 -0.30035552
-0.21324727 0.3102254 0.20926422 0.041198373 0.17404842 0.17604811 0.37729076 0.48583946
-0.35023957 0.21823491 0.016855577 0.0037180714 0.43450397 0.22253649 -0.2315595 0.47251782
0.24786523 -0.28798383 0.20739394 -0.35405877 -0.31110358 -0.20166539 0.033686854 0.40042797

fc2.weight f4 [128, 128]
00000000: f032 d03e 544a 793e e8bf 49be 54a2 9dbe
00000010: 5e75 603d d33f 7d3d 6fe1 c63d d41c a53c
00000020: 68d7 e83e 3b09 443e 9492 c83d 3687 80bd
00000030: 109e f0bc c596 8c3d 73cf ae3e 7c77 19bc
00000040: bc0d fb3d c8ba d03e 5946 b63e 5b1f ecbc
00000050: 5f20 10bb d3bf 6e3f 98b5 353c 756d 57be
00000060: d58f abbd e2e3 423e 8522 783d bd6c 663b
00000070: 6bbe 42bd 3f9b 9e3e 7087 073e 1a08 3a3d
00000080: 9327 b73e 06b7 7f3d cd60 62bf a109 85bd
00000090: 8652 21be e28f a13d 911f 853d cacb a4be
000000a0: 1eeb 693e 1534 efbc afc7 043c 24ee 23bf
000000b0: f60d de3e 162b 813e 0549 9abc 2a11 353d
000000c0: cfee 013e d295 463d c66a 87be 1c52 163e
000000d0: ff91 91bd 60be a43c e7d3 e33d 3a07 063e
000000e0: a4d7 0ebd baa8 273d 2c67 893d 83cf 43be
000000f0: 9526 073e 3d22 20be 35d4 1e3d f53d 893d
00000100: 1b0e d43d 4c40 84bd 2b74 983c 01cf 003f
00000110: 58af e0be 9486 073e e75d ca3e f0f6 9fbc
00000120: 6a05 983d 0798 fd3c 3486 b3bc 5a1b ca3e
00000130: f8de 7cbd e7e6 463e 21e2 d4bd 4ccf c53e
00000140: d8e2 c43d 19a8 143d 4869 533e 196d e03b
00000150: 112a 2ebd 5126 2c3e 6d20 dbbc 7888 423e
00000160: 8aae 5c3e 7d9e 8d3d 3d5b 4ebe ab97 0bbf
00000170: 8ac8 b1bb fa9a d73d 6c25 52bd 68a7 a8bd
00000180: 0e22 f53d ea38 2fbd 6ca7 843d c326 12be
00000190: 9016 7e3e 7bbd 503f 8fe8 fd3e 6356 62be
000001a0: b1ef 9a3d 249b 993d b8d2 693d 38fb 2e3e
000001b0: d289 2b3e e304 4dbe 9c88 98bc db07 45bf
000001c0: f2d2 593c 40e6 2fbd 49fe 183e cc5b ddbd
000001d0: e373 e0be 9fa5 dabd 6c81 24bd 352e 17be
000001e0: e248 0a3d ce83 8e3d b309 be3d 8057 8ebb
000001f0: 1e83 563d 739a 83bd 11d1 b1bd 82ad 3b3e
00000200: d1bc b23d 3ed7 d4bc 9738 88bd 468f 6c3d
00000210: 7562 1bbd 4b8b 87bd 5e85 48bd 76cb 443d
00000220: 0041 ccbc ec5d bc3c e805 6cbd d095 e8bb
00000230: 2bb6 0fbd 4aea 493d 40be 953c b921 a53d
00000240: 36c7 7d3d 9e75 30bd ee07 1b3d b6da 373d
00000250: 88db acbc 9073 2abc 8522 823d f0a8 6cbc
00000260: a60d 163d 8f8e a43d 2b17 1cbd 3089 e93b
00000270: fd7e 943d e1ed 8e3d b4d1 13bd ecc0 a63c
00000280: 8ea4 abbd 1e32 473d eec5 a7bd 9906 84bd
00000290: db30 983d 0e3f 003d 9ec4 f8bc 9182 883d
000002a0: c2a7 84bd 600a 053b a5f2 ac3d 6086 6fbd
000002b0: 00b0 1b3a 476e ae3d 20dc 1fbc cd74 2dbd
000002c0: 97a9 73bd 00a2 07bb 5050 97bd 0cfc debc
000002d0: 90b1 eabb cc23 b03c 4018 96ba ac4a fcbc
000002e0: 5058 d43c 48d2 77bd 6ce0 34bd 38dd 023d
000002f0: a44d 843c 1e8e 6abd 514f 943d f62c 04bd
00000300: 3245 8ebd 4df3 b13d da86 36bd 300a 7cbd
00000310: 24aa fdbc fae7 adbd 24f3 f43c c64d 4f3d
00000320: e163 0bbd ca44 91bd b8c0 c8bc e061 f2bc
00000330: 227d 3d3d 403f b9ba 9517 8ebd b0ca 5fbc
00000340: 1a40 213d 0382 943d c273 703d f62b a3bd
00000350: 9e1f 103d d041 65bc b02a 6a3c 88b4 2bbc
00000360: 9e40 723d ab58 17bd 6a45 95bd fc0b 933c
00000370: 0135 87bd b074 ee3b 3e64 6ebd c499 81bc
00000380: c333 42bd da68 043d 04b4 26bd 3438 c4bc
00000390: fe95 9abd c88d d13c 0382 6fbd ad15 24bd
000003a0: e72c 863d 7686 52bd 97d9 ad3d 8ce4 f13c
000003b0: a05c 56bb f0d7 1dbd 0a5b 83bd 1a3d 98bd
000003c0: da5f 533d 1bb5 953d 4923 983d dba9 79bd
000003d0: 0a39 523d c131 30bd aeac edbc 0bd6 9a3d
000003e0: c050 91bd ae88 f7bc a0cd 3f3c 7493 a5bd
000003f0: 4941 89bd 893a 20bd ecbd 86bc 53ec 84bd
0.40663862 0.2434476 -0.19702113 -0.3078791 0.05479943 0.061828446 0.09710967 0.020155348
0.45476842 0.19144146 0.097935826 -0.062757894 -0.029372245 0.068646945 0.34142646 -0.009366866
0.12258479 0.40767503 0.35600546 -0.028823545 -0.002199195 0.9326145 0.011090659 -0.21037848
-0.08377043 0.19032243 0.060579795 0.0035160028 -0.047544878 0.30977818 0.13235259 0.045417883
0.3577238 0.062430404 -0.88428956 -0.06495977 -0.15754136 0.078887716 0.065001614 -0.3218673
0.22843596 -0.02919964 0.008104249 -0.6403525 0.43370026 0.25228184 -0.018833647 0.044205822
0.12688754 0.048482724 -0.2644865 0.1467976 -0.07107925 0.02011031 0.111244015 0.13088694
-0.03487362 0.040932395 0.067091316 -0.19122128 0.13198312 -0.15638061 0.038776595 0.067012705
0.10354253 -0.06457576 0.01861008 0.5031586 -0.43883777 0.13234931 0.39524767 -0.019526929
0.07422908 0.030956281 -0.021914579 0.39473993 -0.061736077 0.1942402 -0.10394693 0.38634717
0.096135795 0.036293123 0.2064563 0.006848943 -0.042520586 0.16811492 -0.02674886 0.18997371
0.21550956 0.06914995 -0.20151992 -0.545283 -0.0054255174 0.10527606 -0.05130522 -0.08235055
0.11969386 -0.042778887 0.06477246 -0.14272599 0.24813294 0.81539124 0.4959149 -0.22103266
0.07565249 0.07500294 0.057085723 0.1708802 0.16751793 -0.20021395 -0.018619828 -0.7696511
0.013294922 -0.042944193 0.14940752 -0.108085245 -0.43838415 -0.10676121 -0.04016249 -0.1476372
0.033760913 0.069587335 0.09279194 -0.004343927 0.052371137 -0.06425943 -0.086824544 0.18327907
0.0872742 -0.025981542 -0.06651419 0.057753824 -0.037935693 -0.06618365 -0.048955314 0.048045598
-0.024933338 0.022994004 -0.05762282 -0.007097937 -0.03508584 0.0492957 0.018279195 0.08063073
0.06195756 -0.04308092 0.03784936 0.044886313 -0.021100774 -0.010403529 0.0635424 -0.014444575
0.03663411 0.080350034 -0.038108032 0.0071269497 0.072507836 0.069789656 -0.03608866 0.020355664
-0.08380996 0.04863178 -0.08192049 -0.06446571 0.074311934 0.031310134 -0.030367192 0.066655286
-0.0647731 0.0020300373 0.08444718 -0.05847776 0.0005939007 0.085171275 -0.009757072 -0.042347718
-0.059487905 -0.0020695925 -0.07388365 -0.027219795 -0.0071622804 0.021501444 -0.0011451319 -0.030797325
0.025921017 -0.060503274 -0.044159338 0.031949252 0.016150303 -0.05726444 0.07241691 -0.03226944
-0.06946792 0.08688984 -0.0445622 -0.061533153 -0.030964918 -0.08491512 0.029901095 0.05061128
-0.0340308 -0.070931986 -0.024505958 -0.029587686 0.046261914 -0.001413323 -0.06938092 -0.013659164
0.039367773 0.0725136 0.058704145 -0.07967369 0.035186402 -0.013992742 0.014292404 -0.010480054
0.059143655 -0.036949795 -0.0728863 0.01795005 -0.066019066 0.007277094 -0.058201067 -0.015820391
-0.047412645 0.032326557 -0.04069902 -0.023952581 -0.0754814 0.025580302 -0.0584736 -0.040059734
0.06551533 -0.051397763 0.084887676 0.029527925 -0.0032709017 -0.038536012 -0.06413849 -0.07433529
0.051605083 0.07309934 0.07428605 -0.060953002 0.051323928 -0.0430162 -0.029013004 0.07560357
-0.0709548 -0.030216541 0.01170674 -0.08084765 -0.06701905 -0.039118323 -0.016447984 -0.06490388

fc2.bias f4 [128]
00000000: 9f49 103e c756 63bd 8663 5b3d 9b38 c33d
00000010: cc3a 51bd dc8d 363e 502f 0b3d 2efb a8bd
00000020: d00e 463b 2f94 0b3e 8dde f23d eb58 ccbd
00000030: 64f9 273e d7b1 4ebd d656 6fbc 63b0 0e3e
00000040: 32da 5c3e dfbf 2e3d 3405 e4bc 35fb 943d
00000050: 4523 433e aff5 d63d 53c6 973d e858 863c
00000060: 1cfd f03d cd3e 853d 5bc2 27bd a401 89bd
00000070: 481d 153d 281b 553e 3d0e 733d 7aea a63d
00000080: be9d 9bbd 3a9b 81bd 0460 69bd 7741 c03d
00000090: 1682 98bd 5f88 613e 302e 3d3e 373f b63c
000000a0: 6847 e23c ac6c 2fbd e3c7 773d 28b7 223e
000000b0: 9a09 053e f219 393e c2d4 f53b bdfe 7fbd
000000c0: 7640 54bd 5f05 c63c e638 b93c 6ca0 943d
000000d0: 80bb 8abd 4249 d93d a040 bbbc a88c d03d
000000e0: e5ab 47bd a2f7 11bd 8285 b63d 76f0 4f3d
000000f0: 574a 0abd 6654 5d3c 0faa 423e c29f 3d3c
00000100: 97d4 f43c 27f5 a6bd 99cd e03d 6d92 563c
00000110: 8468 123e 3305 1f3d 3455 2c3d 8075 e23c
00000120: 28f5 c3bd 23ba abbd 8ad6 70bd 9cae 953d
00000130: b2a0 343e 6a68 303e 2dbf 023e fa16 6abd
00000140: 101e 753d 56b2 3d3c 3314 453c 9ac3 50bd
00000150: 782a 153e 53e6 d0bc 0e31 92bd f086 333e
00000160: 0801 fd3c 026b f63d 3647 2f3e 51f1 bf3c
00000170: 4826 37bd 5684 3fbd 4ca6 d03d f320 803d
00000180: b631 4f3d e803 443d 507d 283e b835 bf3d
00000190: d863 933d c1e9 483d e847 883d 870a a63d
000001a0: 5653 e93c 6abe 343e baf8 efbc 2583 9d3d
000001b0: 00f1 bd3d 4840 debc 039f ae3d 0041 c2ba
000001c0: abc8 673d ecba 9b3d 02e6 503d f0e6 c7bc
000001d0: 8501 1fbd c716 4e3e a331 8ebc b309 773d
000001e0: d78a 273c d223 a3bd 69b2 9a3c 5ff9 d33c
000001f0: e280 e33d 3e99 b63d b74d f83d b80d 383e
0.14090584 -0.05550268 0.05356171 0.09532281 -0.051081464 0.17827553 0.033980668 -0.08251034
0.0030221231 0.13630746 0.118588544 -0.09977897 0.16403729 -0.05046257 -0.014608106 0.13934474
0.2156761 0.04266345 -0.027834512 0.072744764 0.19056423 0.10496079 0.07410874 0.016399816
0.11767027 0.06506119 -0.040956836 -0.06689766 0.036404878 0.2081114 0.05933975 0.081501916
-0.07598446 -0.06328435 -0.056976333 0.093874864 -0.07446687 0.22024678 0.1847465 0.02224694
0.02762194 -0.042828247 0.06049336 0.15890181 0.12991944 0.18076304 0.0075021693 -0.062498797
-0.051819287 0.024172483 0.02261014 0.072571605 -0.06774044 0.10609676 -0.022857964 0.10183078
-0.048747916 -0.03563655 0.08912183 0.05076643 -0.033762302 0.013508892 0.19010185 0.011573734
0.029886527 -0.08152228 0.10976715 0.013096434 0.14297682 0.038823318 0.042073444 0.027643919
-0.09568244 -0.08385112 -0.05879835 0.07308695 0.17639425 0.17227331 0.1276824 -0.05715082
0.059843123 0.011578163 0.012028742 -0.05096779 0.14566982 -0.025500452 -0.07138263 0.17531943
0.03088428 0.12032129 0.17117009 0.023430498 -0.044714242 -0.046757065 0.101879686 0.062562846
0.050584517 0.047855288 0.16454053 0.09336418 0.07196778 0.04905105 0.0665434 0.08107477
0.02848212 0.17650762 -0.029293407 0.076910295 0.09274483 -0.027130261 0.08526423 -0.0014820397
0.056587856 0.07604012 0.051000603 -0.024402112 -0.03881981 0.20125876 -0.017357653 0.060311984
0.010225973 -0.079658166 0.0188839 0.025875745 0.11108567 0.089159474 0.12124198 0.17973983

fc3.weight f4 [128, 128]
00000000: 4a43 1aba db26 2dbd 676e 87bc 681f c1bd
00000010: 5a94 353d 1cc3 4b3c 730f 29bd da35 4d3d
00000020: 176e 5d3d 94fe 3b3d 18e6 9dbd dbf4 66bd
00000030: 2a8e 473d e018 a63c 609f a1bc 2943 cabd
00000040: 49d7 2c3d 52cb 1e3d b757 07bc d5e6 f2ba
00000050: 0e6a 08bd 3029 813d f7c3 b3bc b2af 02bd
00000060: a7e5 d7bd f8d9 45bd 7fe9 3bbd c1bf 51bd
00000070: 8c44 9b3c a341 7d3d b228 bfbd 78e1 a0bd
00000080: d086 543c 7b25 823d 0c92 e53c 882f b03c
00000090: 82b8 223d 995a 313d 064c efbd d0e4 2fbd
000000a0: c0ff 973b 2e1c 4dbd 8c4b 1abc 0cc5 b9bd
000000b0: 8ba1 963c b35b 46bd 72a3 7f3d 68a0 3dbd
000000c0: 3cad e4bc bf66 4bbd 2656 5cbd 01dd 903d
000000d0: 10ab 753c a71c 2ebb 1086 efbb 3eee 6dbc
000000e0: 32a4 1a3b 8d77 bbbd 7d0c 453d 6303 963d
000000f0: 64ee 9b3c e0fc 1b3d 09cf 31bd 455a ddbd
00000100: d9fc 4ebd 7ced efbc 62fd 9abb 4ae1 76bd
00000110: 1162 c8bc 1e87 f7bc 2951 313c 7bf7 1fbd
00000120: 8dd5 a43d 1da2 afbd c43a 973c b9bb e3bd
00000130: 72f7 a0bc b0d1 49bd dfc6 413d 0e6f 25bd
00000140: 4b2b 813d 82b5 f13c 316f 18bd 7126 f03c
00000150: afb6 d23c c4a2 d1bd 401b 23bd 6c71 303d
00000160: e3d5 40bd 4692 47bd b7e7 8d3c cee5 29bc
00000170: 2c21 aebd c1ab 21bd f7e4 f2bc 9e64 89bd
00000180: 5c5f fabc 5126 b9bd f695 b0bd 2542 df3d
00000190: 3366 8f3c 21bb aa3d fe2a cabd 8804 a8bc
000001a0: 7c30 0bbd 1687 8dbc 7d8d 9bbd 7cbb 3abd
000001b0: 1c69 a7bd e7ec 35bd 48f7 03bb 00a7 d43b
000001c0: b89e 37bd 2795 ebbc 6af7 563d 6524 993d
000001d0: eed8 adbd 2566 f738 f0b1 81bd 400c 50bc
000001e0: 047f b0bc f853 bcbc 403d 62bc 44c5 36bd
000001f0: 53de 62bb 5a5e 86bd fa96 dfbc c33b 1a3d
00000200: 045a 3bbd 588d b0bd 1f41 ae3e 45c2 25bf
00000210: 39fe 983d 0077 9e3d 9612 153d e047 6fbc
00000220: 59ea 723e f1da 49be 1538 d33d 6e8c 57bc
00000230: 4758 9e3e 7dc7 863d f18f f13d c602 093e
00000240: 7d38 933e 8629 6e3d a437 a13e b23d 323e
00000250: e55f b43d 967d c3be fefa 113e 4324 613d
00000260: 158f 633d 5fe9 2ebd 58d8 0f3e 9fc5 9c3d
00000270: 619d 11bd 1b23 2abf 0ff0 893d ac90 493e
00000280: 5d2f 05bd c0d5 bb3c 3b14 093b f1fd e33d
00000290: ef73 c3bd 5dd6 1abf 9819 debc f8b3 cbbd
000002a0: a82a ed3c 4c7c f1ba afe1 9b3e adde 06bf
000002b0: 8a5b 24bf c5b0 2dbf 406b 87ba 048e 513d
000002c0: af45 5a3b 5ebd 58bd 7d2a 9a3d 764f 993d
000002d0: 0e2b 8ebd 6195 62bc 2e48 e53c 7082 3bbe
000002e0: 6cc7 ec3d a4fe 4f3e 8e26 ddbe 2bec 833d
000002f0: eff3 aabc aca1 983e c91f 3ebf 538e 063e
00000300: 1127 b83e 5415 acbc a1b9 713e a5e4 783c
00000310: 81fd 2dbf 0c5c 92bd 4b3a 943f 9143 b43f
00000320: a16e ddbd 7a54 ee3c 0088 3b3b 3fcd d13e
00000330: 0bbd 6b3d bea5 843d aa03 57bc 123a 59bd
00000340: e141 25bd 2e76 023e bd90 a23d 88ad 823f
00000350: c7d7 f4bd e49e 2f3f f268 463d 97a9 e43e
00000360: 8ab9 2e3d 604d 693e cd28 2bbf 6b26 e93d
00000370: ec91 fb3d 960c 53bd e797 a23e 62cc aabd
00000380: 93ca d53d bcfe e83d b2cf 2fbf 2925 503e
00000390: f297 623d 02e7 acbd bf30 363f be2d 3fbd
000003a0: 3b6b 3a3e 3b14 543e 88c4 1c3c f954 7d3d
000003b0: a661 8f3d 460b 893e 9f47 193e d3fc 50bd
000003c0: bc45 9e3f 5f81 743f 1dda 61bd bf27 b0bd
000003d0: 60fc d73c 5154 cbbe 31a0 3b3f 0922 9c3d
000003e0: 3581 c63c 9649 6dbd 5523 e13e 1c17 2e3f
000003f0: ac93 203e c3d3 7d3e abf3 063e 3d85 523b
-0.00058846606 -0.042273384 -0.016532136 -0.094298184 0.044330932 0.012436654 -0.0412745 0.050100185
0.054060068 0.04589708 -0.077099025 -0.056385856 0.048719563 0.020275533 -0.019729316 -0.09876091
0.0421975 0.03876812 -0.008260659 -0.0018531928 -0.033304267 0.06306684 -0.02194403 -0.031905837
-0.105418496 -0.048303574 -0.045876976 -0.05120826 0.018953584 0.061830174 -0.09333934 -0.07855505
0.012971595 0.06354805 0.028023742 0.02150704 0.03972674 0.04329929 -0.11684422 -0.042942822
0.004638642 -0.050075702 -0.009417426 -0.09070787 0.018387577 -0.048427295 0.062411733 -0.046295553
-0.027914636 -0.049658533 -0.053793095 0.07073403 0.014994398 -0.002656737 -0.0073096827 -0.014522133
0.0023596403 -0.09153662 0.048107613 0.07324865 0.019034572 0.038082957 -0.043410335 -0.10808233
-0.050534103 -0.029288046 -0.0047299126 -0.060273446 -0.024460824 -0.030215796 0.010822573 -0.039054375
0.08048544 -0.085758425 0.018460639 -0.1111979 -0.019649241 -0.04927224 0.0473088 -0.040389113
0.063070856 0.029505495 -0.037215415 0.029315205 0.025721876 -0.10236123 -0.03982091 0.043076918
-0.04707898 -0.04872348 0.017322404 -0.010369731 -0.08502421 -0.039470438 -0.029650195 -0.06708644
-0.030563049 -0.090405114 -0.08622353 0.10901288 0.017504787 0.08336473 -0.09871481 -0.020509973
-0.033981785 -0.017276328 -0.07595346 -0.045588955 -0.08174345 -0.04441538 -0.0020136405 0.0064896345
-0.0448291 -0.028757645 0.052482046 0.07477645 -0.08488642 0.00011796904 -0.06332767 -0.012698233
-0.02154494 -0.022989258 -0.013808548 -0.04462172 -0.003461738 -0.06560965 -0.02729367 0.03765465
-0.045740142 -0.08620709 0.34034058 -0.64749557 0.07470364 0.07737541 0.036394678 -0.014604539
0.23722209 -0.19712426 0.10313431 -0.01315604 0.30926725 0.06581018 0.11795033 0.13379964
0.28754035 0.05814507 0.31487763 0.17406347 0.08807353 -0.38181752 0.14255902 0.054966222
0.055556376 -0.04270303 0.14047372 0.07654881 -0.03555048 -0.66459817 0.06735241 0.19684094
-0.032515872 0.022929072 0.00209166 0.1113242 -0.09543597 -0.6048334 -0.027111813 -0.09946436
0.028951004 -0.0018423884 0.3044562 -0.52683526 -0.6420218 -0.67847854 -0.0010331646 0.051160827
0.0033305695 -0.05291497 0.07527635 0.07485859 -0.06941806 -0.01382956 0.02798852 -0.18311477
0.11561474 0.20311981 -0.43193477 0.0644153 -0.02086827 0.29810846 -0.7426725 0.1314023
0.35967305 -0.021006264 0.23605968 0.015191232 -0.6796494 -0.07146463 1.158029 1.408312
-0.108121164 0.029093016 0.0028614998 0.40976903 0.057553332 0.06476925 -0.013123432 -0.053033896
-0.04034603 0.12740394 0.07937763 1.0209208 -0.11955219 0.6860182 0.048439927 0.44660637
0.042657413 0.22783422 -0.6685913 0.11384281 0.12283692 -0.051525675 0.31756517 -0.08339764
0.104390286 0.11376712 -0.6867629 0.20326675 0.055320688 -0.08442499 0.7116813 -0.046674483
0.18204968 0.20710842 0.009568341 0.061848614 0.07001047 0.26766413 0.14968728 -0.051022362
1.2365031 0.95509905 -0.05513965 -0.08601331 0.026365459 -0.39712766 0.7329131 0.07623679
0.024231533 -0.057931505 0.4397227 0.6800401 0.15681332 0.24787812 0.1317889 0.0032122873

fc3.bias f4 [128]
00000000: 4ec8 bdbd b210 3bbe 8da7 dc3d 251e 043e
00000010: 9502 933d 22be a5bc 7ee6 97bd b303 a13c
00000020: 71e8 eabc d9b0 193e 4d27 7bbc 5a99 c63d
00000030: 4391 a53d ed01 dcbd a632 9abd eeea 03bd
00000040: e303 193e d8e5 2cbd f316 553d 1b46 3c3e
00000050: 58f5 d7bc b06f 263e 6fea 413d 8ae3 18bd
00000060: da93 5cbd 76d5 143d 6dde f83c 1cb6 3f3e
00000070: 8887 8e3d c4eb 12bc b6aa db3d f481 a33c
00000080: 228a ab3d d70b 793b b5e3 e93d 6891 103c
00000090: 2059 2b3d ec7a 133e f219 b7bd 0c65 11bd
000000a0: 38c7 2d3e 83ca bb3d 43d7 de3d 2c68 293e
000000b0: 1eaf 2d3c 24bc d9bc 8fb7 e83d bc20 0e3d
000000c0: 9983 063d 0b16 04be 5206 11bc ea99 8d3d
000000d0: 0156 873c 1e6a 753d 76cf 2a3e 0cca 7eb8
000000e0: e8fa 68bd 9734 e03c ebf6 133d 5b0e 373d
000000f0: faf4 da3c 2385 723c 1ed7 0d3e 5bc9 e93d
00000100: 4bbd 6b3c 4120 c93d 0983 e93d 4676 acbd
00000110: 8c1c 21bd d516 003e 13b0 cebd 3612 a83c
00000120: 646f b1bd 5966 ca3c 26e3 0d3d c744 613b
00000130: c835 143e c06c 4ebc ab7c 5bbd d9b7 033e
00000140: c493 213d 61f4 513d 3493 143e c83b 23bd
00000150: fade 64bd 7e84 f63d deda c3b8 0f21 083d
00000160: b496 2cbb a5c3 053e b43b f63d 6abd c8bd
00000170: 0f9c fd3d e77c 603e 633e 6cbc e588 4f3e
00000180: c341 773d 681c cdbb 333c 973d c178 0c3d
00000190: 9c03 533c 1124 713d 95a3 d93d 0834 e8bc
000001a0: 2dea a63b d472 363e 21f6 0a3e 6f0d 573d
000001b0: e71a 8c3c 87ae 623d 2325 1d3d 64a6 343d
000001c0: 4ae7 bc3c 84c8 393d 9c82 493d f837 ad3d
000001d0: f863 a4bd 0777 1a3e 5e98 94bc 5e84 163e
000001e0: 3e7a 503d 8fa5 b03d da88 c83d 3d3f 1abd
000001f0: 04fb 543c 7251 313e 75b7 8dbd bb5d b7bd
-0.09266721 -0.18268088 0.10774145 0.12902124 0.07178227 -0.020232264 -0.0741701 0.019655084
-0.02867529 0.15008868 -0.015329194 0.09697218 0.08084347 -0.10742555 -0.07529192 -0.03220647
0.14942889 -0.042211384 0.05202384 0.18386118 -0.026362106 0.16253543 0.047342714 -0.037326373
-0.05385194 0.036336385 0.030379498 0.18721813 0.06959444 -0.008967344 0.1072592 0.019959427
0.08375956 0.0038001442 0.11420385 0.00882373 0.041833043 0.1440236 -0.089404956 -0.035496756
0.16970527 0.091694854 0.10880902 0.16543645 0.010600833 -0.02657897 0.11363136 0.034699187
0.032840345 -0.12899034 -0.008851605 0.069141224 0.016520502 0.059915654 0.16680703 -6.074649e-05
-0.056879908 0.027368827 0.03612415 0.044691425 0.026728142 0.01480225 0.13851592 0.11415359
0.014388393 0.09820605 0.11401946 -0.08420996 -0.039333865 0.1250871 -0.10092177 0.020516496
-0.08663824 0.024707006 0.034640454 0.003437327 0.14473641 -0.01259917 -0.05358569 0.12863101
0.03944756 0.05125845 0.14509279 -0.039851934 -0.05587671 0.1203699 -9.339092e-05 0.033234652
-0.0026334943 0.13062914 0.12023106 -0.09801753 0.123832814 0.21922646 -0.014419171 0.20267065
0.06036545 -0.00625949 0.07384529 0.034294847 0.0128792785 0.058872286 0.10626904 -0.028345123
0.005093834 0.17817241 0.13570453 0.052503046 0.017102672 0.055342223 0.038365494 0.044103995
0.023059506 0.045357242 0.049196824 0.08457941 -0.0802688 0.15084468 -0.01813906 0.14698932
0.05089783 0.08625328 0.09791727 -0.037657965 0.0129993 0.17316225 -0.06919757 -0.089534245

fc4.weight f4 [9, 128]
00000000: a1aa 36bd cda4 173f 4c46 843e 7623 4b3e
00000010: dc2d 003d 7035 81bc 56b9 b4bd bdec 803e
00000020: 6576 e0bc bef7 cbbc ed36 b4bd c709 58be
00000030: cd3f e03c 3f15 d9bb 5185 cd3d 3439 60bd
00000040: 6c5a afbe d0ae ad3d f3c2 d23e c960 96bd
00000050: 7ae8 003f dc14 a1be 570e c93e 301a a43e
00000060: e8fa 7c3e d511 b73e 77b6 e63d 86bf cb3e
00000070: 76ef 143e 55cb babd a335 b53e bf73 28be
00000080: 808f 833e a340 a33d 7f71 d13e 7afe 1c3d
00000090: 79b8 0c3d d565 593e 35f0 fbbc 3660 593d
000000a0: 6bdc 183e ba2e 7c3e 6f15 ca3e cac1 7c3e
000000b0: 0d3e a23d 8406 81bd 7d33 3f3e fdab f73d
000000c0: e95f 233e 0be7 d5be 09b7 853d 8216 71be
000000d0: 9084 cf3c efd7 963e b475 15be d3f3 873e
000000e0: 1b53 44bd f28c f6bd f9b4 923e 8cfa abbc
000000f0: fdeb 833e a0b0 36bb 21ec c0be c107 8f3e
00000100: 216e ed3c c1ff 743e ffc6 863e 7622 2a3d
00000110: d7f2 253d f189 3b3e 5cf5 c73c 2a62 46bd
00000120: cca3 abbc df30 983b 2b2c 10be 5e3f a73c
00000130: 0f92 4b3e 566b 90bd e8af 62be 34a3 49bd
00000140: 52c7 07bd b6ce cfbc f12e 7b3e 7eee a73e
00000150: 32af 733d 298d cd3e 6f73 763d c19e 4e3e
00000160: 8cd6 71be 8264 0fbe c2ac 7abe 4922 76bd
00000170: 3c81 933d 162f 7ebe 4c37 9dbd 10e0 c43e
00000180: 513a 663e 6d6a bb3e d447 0a3e 07c0 24be
00000190: 435f a3bc a2c1 a73c 93a5 513e db4b 23bc
000001a0: a648 91bd cb41 9bbe 7cfb ac3d f5d4 65bd
000001b0: 6885 ff3c 2ea3 d2bd 05ca dd3d 6dea 063d
000001c0: f508 89bd 39c9 823e f1bf 813e b04a 913e
000001d0: 7766 9f3d bc58 8d3e 9486 89bc fcbd 3d3e
000001e0: c236 6f3e 4b73 7cbc 3322 cfbe 784c ba3b
000001f0: 0aa9 103e b6a9 8a3d d7f4 38bd 4fc5 8cbd
00000200: 2477 04bd 0cdb 213f 8674 91bd 7803 9e3e
00000210: 6684 30bd 076b 8fbd aaab 733d 8544 3d3e
00000220: 0582 b63b 2f4c 71be 087e 59bc 1004 d2bd
00000230: 75bd eebc 77a2 b33d ecf1 383d 5a95 433d
00000240: 38a1 7abe 5af6 86bd 78d5 8d3e 743b 5bbe
00000250: 5494 b13d 8002 a6be 5175 bb3e 5446 943e
00000260: 1951 a93e 5813 b13e 37c7 8e3d 223e 20bd
00000270: 5e19 8a3e 8fd9 91bd 3476 943e b65c 873e
00000280: 0f0b 863e 3fb0 6bbd 50ba ae3e 7cb6 d0bc
00000290: c6b0 cabc 9e7c 833e 8c86 b7bd 9dd1 b23d
000002a0: ef7c a03e b437 963e 3c9a 763e fed1 9a3e
000002b0: 468b b0be 2a4e 3abd eb0e 973e eaca 77be
000002c0: 690a a43e 64b6 0ebe 00a1 82bd 01a2 e5bd
000002d0: 0bdb e6bd 23b5 553e feba 5ebe 9412 a33e
000002e0: d11c c6bc 6183 b4bd abfc b43e 5c16 96bd
000002f0: f107 033e f086 653d 5335 27be 4034 7d3e
00000300: a967 0cbd 17b7 2e3e 00b3 903e 404e 963a
00000310: d3f9 973c 563e 903e 6803 80bd ca10 313d
00000320: f0bd 7cbd e5e5 c2bd b790 18bd 61c3 52be
00000330: f84b 613e 2a3a 473d 7e1d 3f3e e040 0c3a
00000340: 9d33 b43d 1035 6ebc 0127 723e 5985 b63e
00000350: d1e0 743d 2216 8d3e 46ba 10bd 7fe1 a63e
00000360: 82f1 25be e728 bbbd d16d d6bd e95d a2bd
00000370: 018f db3e 39fc 51be 474e c6be a204 ae3e
00000380: cf19 0f3e 5447 b83e 9fa9 9f3e 28b8 a0bd
00000390: 7d6e 723d d8f4 1dbe 74f7 8a3e 9901 383d
000003a0: 78b3 5ebc 4eb4 2cbe 550a b6bc 9639 07be
000003b0: 0041 ba3a acda 44be a51f 62bd f919 a13c
000003c0: f4ab 5cbc d4dd 883e dfab 883e 140a 943e
000003d0: 8021 b13b 1b12 963e 8a21 34be ba60 593e
000003e0: d916 d13d ba81 9fbe 0ee3 53be b8b2 09bd
000003f0: 91eb 6e3e d683 ea3d d0b4 283c e496 b23c
-0.04459632 0.5923584 0.25834882 0.19837746 0.031293735 -0.015772551 -0.088244125 0.25180617
-0.027400205 -0.024898406 -0.08799539 -0.2109748 0.027374173 -0.006624847 0.10035194 -0.054742053
-0.34248674 0.084806085 0.4116436 -0.07342679 0.5035473 -0.31461227 0.39268753 0.3205123
0.24705088 0.35755792 0.11265271 0.39794558 0.14544472 -0.09120814 0.35392484 -0.16450404
0.2569542 0.07971313 0.40906903 0.038328625 0.034355614 0.21230252 -0.030754188 0.05307027
0.14927833 0.246272 0.39469478 0.246833 0.079219915 -0.06300071 0.18671985 0.12093351
0.15954556 -0.41777834 0.06529052 -0.23543742 0.025331765 0.2946162 -0.14595681 0.2655321
-0.047930818 -0.12038602 0.28653696 -0.020993493 0.25765982 -0.0027876273 -0.37680152 0.27935603
0.028983178 0.23925687 0.26323697 0.04153677 0.040514793 0.18314339 0.024408989 -0.04843346
-0.020952128 0.0046444978 -0.14079349 0.020415958 0.19879936 -0.07051723 -0.22137415 -0.04922791
-0.03314907 -0.025367122 0.24529625 0.32799143 0.05949325 0.4014676 0.06016868 0.20177747
-0.23617 -0.14003184 -0.24479964 -0.06009129 0.07202384 -0.2482265 -0.07676563 0.38452196
0.22483183 0.36604634 0.13503963 -0.16088878 -0.019942885 0.020478074 0.20473318 -0.009966816
-0.07093935 -0.30323634 0.08446404 -0.056111295 0.031191543 -0.1028503 0.10829548 0.03293841
-0.066911615 0.25544146 0.25341752 0.28377295 0.077832155 0.2760676 -0.016787805 0.18529505
0.23360732 -0.015408347 -0.4045578 0.0056853853 0.14126983 0.06770651 -0.045155372 -0.06873571
-0.032340184 0.63224864 -0.07102303 0.3086202 -0.043095015 -0.07002836 0.059489883 0.1848317
0.0055696988 -0.23564218 -0.013274677 -0.10254681 -0.029143075 0.08771222 0.04515259 0.047749855
-0.24475563 -0.065899566 0.27701926 -0.21409398 0.086708695 -0.32423782 0.36612943 0.28959906
0.33069685 0.3458507 0.06971591 -0.039121754 0.2697248 -0.07121574 0.28996432 0.2643792
0.26180312 -0.05754113 0.3412652 -0.02547764 -0.024742495 0.25681013 -0.0896121 0.08731387
0.31345317 0.29339373 0.24082273 0.30238336 -0.34481257 -0.0454847 0.2950357 -0.241985
0.32039192 -0.13936764 -0.063783646 -0.112125404 -0.11272248 0.2086988 -0.2175102 0.3185011
-0.024183663 -0.08814121 0.3534902 -0.073284835 0.12795998 0.05603689 -0.16328935 0.24726963
-0.034278546 0.1706203 0.28261566 0.0011467412 0.018551743 0.2817256 -0.0625065 0.043228902
-0.061704576 -0.09516505 -0.037247386 -0.20582344 0.22001636 0.048639454 0.18663594 0.00053502433
0.08798907 -0.014539018 0.23647691 0.3564861 0.059784714 0.27555948 -0.035333894 0.32593915
-0.16205409 -0.09138661 -0.104701646 -0.07928068 0.4288254 -0.20506372 -0.38731596 0.3398791
0.13974689 0.3599192 0.31184098 -0.07847625 0.0591874 -0.15425432 0.27141917 0.0449234
-0.013592593 -0.16865656 -0.022221724 -0.13205561 0.0014210045 -0.19224042 -0.05520596 0.019665705
-0.013468731 0.2673174 0.26693627 0.2891394 0.005405605 0.29310688 -0.17590919 0.21228305
0.10209436 -0.3115366 -0.20692083 -0.033617705 0.23332049 0.11450927 0.010297015 0.021800466

fc4.bias f4 [9]
00000000: 1440 473d de5f 6c3d d305 8d3d 368e 3e3e
00000010: 0cba c0bd d6e4 20bd ae14 3abd cc6e 92bd
00000020: e2e8 5abc
0.048645094 0.057708614 0.068858765 0.18608937 -0.094104856 -0.039280735 -0.045429878 -0.07150039
-0.013361188
