race_model_episode_100.pth (torch, 144607 bytes, 8 tensors)

fc1.weight f4 [128, 7]
0	0xbec8dca9	-0.3923085
1	0xbe67de92	-0.22643498
2	0xbde676f5	-0.11253158
3	0x3f1693e3	0.5881941
4	0x3e4a7294	0.1977027
5	0xbe532452	-0.20619324
6	0xbf9c74ec	-1.2223182
7	0xbe8049cd	-0.25056306
8	0xbdf00af7	-0.117208414
9	0x3eaebc78	0.34128165
10	0x3eae5fd3	0.34057483
11	0xbe6823e2	-0.22669938
12	0xbf1eb831	-0.61999804
13	0xbf934691	-1.150591
14	0xbf076adb	-0.52897424
15	0x3e9ae540	0.3025303
16	0x3d51b438	0.05119726
17	0xbd8b8769	-0.06812937
18	0x3c938120	0.018005908
19	0xbd51807d	-0.051147927
20	0xbfe29e44	-1.7704549
21	0x3d3ac5e9	0.045598898
22	0xbe35ce56	-0.17754492
23	0x3e073000	0.13201904
24	0x3edc066b	0.42973647
25	0x3e81300e	0.25231975
26	0xbe8f4a2a	-0.2798627
27	0xbf8a8090	-1.0820484
28	0x3e0bcd42	0.13652518
29	0x3ea3542c	0.31900156
30	0x3ea323c7	0.31863233
31	0xbdca4891	-0.09877122
32	0x3e26aab4	0.16276056
33	0xbe959bc2	-0.29220396
34	0xbf07a537	-0.5298647
35	0x3de6c60a	0.11268242
36	0x3eae5e17	0.3405616
37	0xbc81c839	-0.015842544
38	0x3f05254b	0.5201003
39	0x3d3e91d6	0.0465258
40	0xbedf548d	-0.43619195
41	0xbfa8ac15	-1.3177515
42	0xbf02ede0	-0.5114422
43	0xbedbb29d	-0.4290971
44	0x3d8bd4b6	0.06827681
45	0x3ef3525d	0.47523776
46	0x3eaa8c7e	0.33310312
47	0x3f3d0e04	0.7384951
48	0x3f0c7615	0.5486768
49	0x3eee7a43	0.46577653
50	0xbeb58030	-0.35449362
51	0x3e2378a7	0.15963994
52	0xbe02633b	-0.12733166
53	0xbdbaa18b	-0.09112843
54	0xbeb8a4d0	-0.36063242
55	0x3ef2a642	0.4739247
56	0x3e8a8c0b	0.2705997
57	0x3f01ee5f	0.5075435
58	0x3ebfe409	0.37478665
59	0x3dc94b44	0.09828809
60	0x3daefc60	0.085442305
61	0x3ec7544c	0.389315
62	0xbf4d5bcb	-0.8021819
63	0xbe47c507	-0.19508754
64	0x3dc3a70c	0.09553346
65	0x3e461ac8	0.19346154
66	0x3de04f39	0.109526105
67	0xbd46d08d	-0.048538733
68	0xbd3225c5	-0.04349305
69	0xbf9e8fb4	-1.2387605
70	0x3da9143a	0.08255811
71	0x3f1adaec	0.604903
72	0xbdc0d843	-0.09416249
73	0xbe0a0050	-0.13476682
74	0xbef60e03	-0.48057565
75	0xbd60cf88	-0.054885417
76	0x3dfca312	0.12335791
77	0x3eedb0b5	0.4642388
78	0xbe0f0419	-0.13966407
79	0x3dcb7821	0.09935022
80	0xbe76b7b8	-0.2409352
81	0x3e68ce58	0.22734964
82	0xbe0ac990	-0.13553452
83	0x3f98b32d	1.192968
84	0xbed3549d	-0.41275492
85	0xbdc5e28f	-0.09662353
86	0x3e9e7648	0.30949616
87	0x3e29aa24	0.1656881
88	0x3e8e29a8	0.27766156
89	0xbce83f5b	-0.028350523
90	0xbfa8dd1c	-1.3192477
91	0x3e0431d7	0.12909637
92	0xbd8958e2	-0.06706406
93	0xbe6f72d8	-0.23383653
94	0x3eed136e	0.46303886
95	0x3dcacf61	0.09902836
96	0xbf01472e	-0.50499237
97	0xbfb57e53	-1.4179176
98	0x3ea6f500	0.32608795
99	0x3d35c548	0.044377595
100	0xbeb427b9	-0.35186556
101	0xbe29623d	-0.16541381
102	0x3eda0644	0.42582905
103	0x3f0086ed	0.5020588
104	0x3f7a3e1a	0.9775101
105	0xbdf7db6c	-0.12102398
106	0xbcd237a0	-0.02566129
107	0xbeadb463	-0.33926687
108	0xbeae65e8	-0.34062123
109	0xbeb95e0f	-0.36204574
110	0x3eb304f5	0.3496472
111	0x3e84afbf	0.25915334
112	0xbe279906	-0.16366968
113	0x3eb1d73b	0.3473452
114	0x3e93d620	0.28874302
115	0xbe37dbc5	-0.17954929
116	0x3eaab699	0.33342436
117	0x3ec82ce5	0.39096752
118	0xbf66d1aa	-0.9016367
119	0xbebc4329	-0.3676999
120	0x3e856b8f	0.26058623
121	0xbe9a9294	-0.30189955
122	0xbe89e00f	-0.26928756
123	0x3ebfdc5b	0.37472805
124	0xbe25971a	-0.16170922
125	0x3e3f8952	0.18704727
126	0xbf524f01	-0.821518
127	0xbf7179b3	-0.94326323
128	0x3ef28836	0.47369546
129	0xbe14c339	-0.14527597
130	0x3f114656	0.5674795
131	0xbea54bf1	-0.322845
132	0x3ecafad4	0.39644492
133	0xbe9dcf1c	-0.30822074
134	0xbec363c5	-0.38162056
135	0x3e9383ba	0.28811437
136	0x3eb2ebd2	0.34945542
137	0x3e741b05	0.23838432
138	0xbeb6434c	-0.35598218
139	0xbf7fd1de	-0.99929607
140	0xbf03ad2a	-0.514361
141	0x3e94048f	0.28909728
142	0x3d98230b	0.07428559
143	0x3e8d8dd3	0.27647266
144	0x3e812587	0.25223944
145	0xbe84812f	-0.2587981
146	0xbf82b2eb	-1.0210851
147	0xbeb5d07b	-0.3551062
148	0xbf07682f	-0.52893347
149	0xbedab0ed	-0.4271311
150	0x3f2c1a62	0.67227757
151	0x3ecf094d	0.40436783
152	0xbd305863	-0.043053042
153	0x3f8a0788	1.0783548
154	0xbddba5f2	-0.10725011
155	0x3f29d993	0.66347617
156	0xbdbc0a37	-0.09181636
157	0xbe142b10	-0.14469552
158	0xbebd1788	-0.36932015
159	0x3f552903	0.83265704
160	0x3e0cd5ad	0.13753386
161	0x3f402ab1	0.7506514
162	0xbe3b5b31	-0.18296506
163	0x3e322802	0.17398074
164	0xbf274f95	-0.6535581
165	0x3e661b81	0.2247143
166	0x3f1af1d5	0.60525256
167	0xbed58abc	-0.41707408
168	0xbf04269b	-0.5162141
169	0xbf3adc6d	-0.72992593
170	0xbeb8e99e	-0.36115736
171	0x3ebd9e16	0.37034672
172	0x3f37ffdd	0.7187479
173	0x3ecff623	0.40617475
174	0x3f98c49d	1.1935002
175	0xbe43a238	-0.1910485
176	0x3e9ab0f8	0.3021314
177	0x3ecf2958	0.4046123
178	0x3e39ad7c	0.18132585
179	0xb9a09794	-0.00030630513
180	0xbe6e0b5a	-0.23246518
181	0xbf48349f	-0.78205293
182	0x3ecfb726	0.4056942
183	0x3d3523cb	0.044223588
184	0x3dbe07f0	0.09278858
185	0xbeb60ef4	-0.35558283
186	0x3dfb61b1	0.122744925
187	0xbe9f7933	-0.31147155
188	0x3f914070	1.134779
189	0xbe8a573e	-0.27019686
190	0xbe2b4ee4	-0.16729313
191	0x3e102658	0.14077127
192	0x3f02b20c	0.5105293
193	0xbd9ac08b	-0.07556256
194	0xbefd544c	-0.49478376
195	0xbf530d89	-0.8244253
196	0xbe941798	-0.2892425
197	0xbeb525af	-0.35380313
198	0x3e0703e6	0.13185081
199	0xbe931733	-0.28728637
200	0xbe870d7e	-0.2637748
201	0xbe98921f	-0.29798982
202	0x3e0949b2	0.13407019
203	0xbe8c8533	-0.27445373
204	0x3eb2798f	0.34858367
205	0xbde979c8	-0.11400181
206	0x3f1dfca0	0.617136
207	0xbe344abf	-0.17606638
208	0x3fb59251	1.4185277
209	0xbe214e9d	-0.15752645
210	0x3f130a3c	0.5743749
211	0x3e17a705	0.14809807
212	0xbf0cd5f6	-0.5501398
213	0x3f12ffd1	0.57421595
214	0xbf00b6b7	-0.502788
215	0xbee8d148	-0.4547217
216	0x3f0ea89d	0.55726033
217	0x3cb7a248	0.022416249
218	0x3e085731	0.13314511
219	0x3d9efd65	0.07763175
220	0xbd93e85f	-0.07222056
221	0xbeadb175	-0.3392445
222	0xbe98d979	-0.29853418
223	0xbe264079	-0.16235532
224	0xbd05f662	-0.032705672
225	0xbca0db7d	-0.01963591
226	0xbededde3	-0.4352866
227	0x3ebdfab9	0.3710535
228	0xbc8c2529	-0.017107563
229	0x3ed38f41	0.41320232
230	0x3fc167ad	1.5109764
231	0x3dc1cbb9	0.09462685
232	0xbf722068	-0.945807
233	0x3e2828eb	0.16421859
234	0x3dac7948	0.0842157
235	0xbed45f65	-0.4147903
236	0xbe6c4acd	-0.23075409
237	0x3ecbf320	0.39833927
238	0xbdd59db6	-0.104304716
239	0x3e125116	0.14288744
240	0xbeb9b660	-0.36271954
241	0x3ef5a267	0.47975466
242	0x3dd72aef	0.10506236
243	0x3f6e022b	0.9297206
244	0x3f783f3c	0.9697149
245	0xbc92dd4d	-0.01792779
246	0x3da982c0	0.08276892
247	0x3ea348f0	0.31891584
248	0x3ea2b409	0.3177798
249	0xbd94112d	-0.072298385
250	0xbef9e992	-0.48811013
251	0xbf63e528	-0.8902154
252	0x3e3bf76b	0.18356101
253	0x3e873fe9	0.26415947
254	0x3df3e298	0.11908454
255	0x3e9be2d4	0.30446494

fc1.bias f4 [128]
0	0x3ea3825d	0.31935397
1	0x3e3ab3d9	0.18232669
2	0x3e4a1b9b	0.19737093
3	0xbeaffffa	-0.34374982
4	0x3e654eaf	0.22393297
5	0xbe65538f	-0.22395156
6	0xbe2469aa	-0.16055933
7	0x3caff6dc	0.021480016
8	0xbe463dc8	-0.19359505
9	0x3ea47e6e	0.32127708
10	0xbc9dca2f	-0.019261448
11	0x3c0ea708	0.008706816
12	0xbe095309	-0.13410582
13	0xbc4528ef	-0.012033685
14	0xbdc2041d	-0.09473441
15	0xbe48d56e	-0.19612667
16	0xbe3bd595	-0.18343194
17	0xbeb31fad	-0.34985104
18	0x3d4166a5	0.04721703
19	0x3e36d06d	0.17852946
20	0xbd868868	-0.06568986
21	0x3eb93af2	0.36177784
22	0x3e2b7f3f	0.1674776
23	0xbe9b036c	-0.30276048
24	0x3f11cd62	0.56954014
25	0x3e4b10ae	0.19830582
26	0x3e0d0bde	0.13774058
27	0x3e6d948a	0.23201194
28	0xbdfec444	-0.124397784
29	0xbda273ad	-0.0793222
30	0xbe48542a	-0.19563356
31	0xbe99e301	-0.30056003
32	0x3e88f365	0.26748195
33	0xbe667e8b	-0.2250921
34	0xbdc3e4b8	-0.09565109
35	0x3e197de6	0.14989433
36	0x3e0ce5ab	0.13759486
37	0x3df438da	0.11924906
38	0x3e8a3008	0.2698977
39	0x3e976629	0.2957013
40	0xbec19fe7	-0.37817308
41	0x3e0717d2	0.1319268
42	0x3eb7fb06	0.35933703
43	0xbe8a4f28	-0.27013516
44	0x3eb01dfd	0.3439788
45	0x3e815039	0.25256518
46	0xbdd2b8cc	-0.102891535
47	0x3d19b460	0.037525535
48	0xbe20d79f	-0.15707253
49	0xbd179f80	-0.037017345
50	0x3e9af06d	0.30261555
51	0xbbccdb5a	-0.0062517347
52	0x3e0050d7	0.12530838
53	0xbe12b612	-0.14327267
54	0x3eb55d33	0.35422668
55	0x3bb7621e	0.0055964133
56	0xbe150048	-0.14550889
57	0xbe7359e7	-0.23764764
58	0xbe943a90	-0.2895093
59	0x3e8707f1	0.26373246
60	0x3e8c4db0	0.2740302
61	0xbe3a4894	-0.18191749
62	0xbe920224	-0.28517258
63	0xbebae3e1	-0.36501983
64	0xbe996f0a	-0.2996753
65	0x3ee5df41	0.44896892
66	0x3ea28cd2	0.31748062
67	0x3db7bbf1	0.08971394
68	0x3e41867b	0.18898956
69	0xbe2a5a25	-0.1663595
70	0xbd77ec47	-0.060528066
71	0x3e5b5464	0.21418911
72	0xbd641273	-0.055681657
73	0x3e9caacf	0.30599067
74	0x3db7e300	0.08978844
75	0x3e637948	0.22214234
76	0x3e6bb94f	0.23019908
77	0xbeab719d	-0.33485118
78	0xbe4e3d5d	-0.20140596
79	0xbe70228c	-0.23450679
80	0xbe1181ef	-0.14209722
81	0x3e9464e6	0.2898323
82	0x3d344410	0.044010222
83	0xbea40e02	-0.32041937
84	0xbcf9f525	-0.030512402
85	0x3e99d810	0.30047655
86	0xbe56af57	-0.20965324
87	0x3d8dc34e	0.06922017
88	0x3eb0d07b	0.34534058
89	0xbe6acfa1	-0.22930767
90	0x3ea15fbb	0.3151835
91	0xbe51c35f	-0.20484684
92	0xbea7aa5c	-0.3274716
93	0x3e320cc6	0.17387685
94	0xbe1cb2f8	-0.15302646
95	0xbdf31e53	-0.11871018
96	0xbe85f594	-0.26163924
97	0xbe8d7cca	-0.2763427
98	0x3ed603ad	0.4179968
99	0x3e7db6dd	0.24776788
100	0xbd05be10	-0.03265196
101	0xbc29b2be	-0.010357557
102	0xbde3036e	-0.110846385
103	0x3e71bfce	0.23608324
104	0xbe3ca476	-0.18422112
105	0xbe66bf16	-0.22533831
106	0xbdc8a69b	-0.097974025
107	0x3dea8b59	0.1145236
108	0x3e9cbfd5	0.30615106
109	0x3cb9c53e	0.02267706
110	0x3e914e1b	0.28379902
111	0x3d7620d8	0.060089916
112	0x3ea4c074	0.3217808
113	0x3e60095b	0.21878569
114	0x3ea7850b	0.3271869
115	0xbeb03d92	-0.34421974
116	0xbe4a6993	-0.19766836
117	0xbe74e38d	-0.23914929
118	0xbe292084	-0.1651631
119	0xbec0d196	-0.376599
120	0x3dd7361b	0.10508367
121	0xbe06aafe	-0.13151166
122	0x3d8e341d	0.069435336
123	0x3e38d3e1	0.18049575
124	0xbea4b411	-0.3216863
125	0xbde488fc	-0.1115894
126	0xbe59499e	-0.21219489
127	0xbe3255ea	-0.17415586

fc2.weight f4 [128, 128]
0	0x3e272484	0.16322523
1	0x3e873f12	0.26415306
2	0x3ecf25a3	0.40458402
3	0x3df45000	0.11929321
4	0x3ca64645	0.020297179
5	0x3e2adffb	0.16687004
6	0xbf96d3a0	-1.1783333
7	0x3e555e9a	0.20836869
8	0x3d3a49d5	0.045480568
9	0x3dbb6483	0.091500305
10	0xbdc60ad3	-0.09670033
11	0xbe2323e4	-0.1593166
12	0x3ee6d0ea	0.45081264
13	0x3dfbc1b0	0.12292802
14	0xbeee7096	-0.4657027
15	0x3d7bebfa	0.06150434
16	0xbbaa301c	-0.0051937234
17	0x3c0c1348	0.008549519
18	0xbf83a252	-1.0283911
19	0x3dd1ecc7	0.1025024
20	0x3e3ea8a2	0.18619016
21	0xbf97a0bd	-1.1845928
22	0x3ea1054b	0.3144935
23	0xbf3f39c4	-0.7469752
24	0xbfacbcf1	-1.349516
25	0xbb12cad7	-0.0022398734
26	0xbd0a84bb	-0.033817988
27	0x3d5d2561	0.053990725
28	0xbd732a22	-0.059366353
29	0xbf4e99d6	-0.80703485
30	0x3e3d6468	0.18495333
31	0xbcac2acb	-0.021016499
32	0xbf94af90	-1.1616077
33	0xbeeb6030	-0.45971823
34	0xbf92bc07	-1.1463631
35	0x3d548da4	0.05189289
36	0x3d8face7	0.070154004
37	0x3d6f057b	0.058354836
38	0x3c922f48	0.017844811
39	0xbd0fa250	-0.035066903
40	0xbd26ad3a	-0.040692545
41	0x3e4fa5d8	0.20278108
42	0xbf0135b9	-0.504726
43	0x3bf83ab0	0.0075753555
44	0xbe4afc0d	-0.19822712
45	0x3d4f5615	0.050619204
46	0x3d242462	0.04007376
47	0x3d8ba4a7	0.06818514
48	0x3e461735	0.1934479
49	0x3d7312c8	0.059344083
50	0x3e24dadf	0.16099118
51	0xbdec34bb	-0.11533495
52	0xbd8402aa	-0.06445821
53	0xbcdc89c2	-0.026921157
54	0x3e20916d	0.15680476
55	0x3d7dfd0e	0.06200891
56	0x3e463073	0.1935442
57	0xbc8ff812	-0.017574344
58	0x3d8cc725	0.06873921
59	0xbd8dcdb1	-0.06923998
60	0xbeb1385c	-0.3461331
61	0xbf813576	-1.009444
62	0xbc86dfe4	-0.016464181
63	0x3e4341b3	0.19068031
64	0x3c327ffa	0.01089477
65	0xbf48673f	-0.7828254
66	0x3dd11631	0.10209311
67	0x3e0ad105	0.13556297
68	0x3aa1afa0	0.0012335666
69	0xbf07e0cd	-0.53077394
70	0x3de14cad	0.11000953
71	0x3e5eed15	0.21770127
72	0x3e2b2d9e	0.1671662
73	0xbe76890c	-0.24075717
74	0x3e25c2ef	0.16187643
75	0x3d976b79	0.07393546
76	0x3ce739d6	0.02822582
77	0x3d7d2bea	0.061809458
78	0x3eb119de	0.34590048
79	0x3cc21730	0.023692697
80	0x3f289247	0.658482
81	0x3eadab43	0.33919725
82	0xbe9d2907	-0.30695364
83	0x3e0003eb	0.12501495
84	0x3e81b193	0.2533079
85	0x3cf3330d	0.029687429
86	0x3d382c0a	0.044963874
87	0x3e73ec37	0.23820578
88	0xbcea106e	-0.028572287
89	0xbe0f7730	-0.1401031
90	0x3dc9940f	0.09842693
91	0x3daf3c2b	0.08556398
92	0x3d1fac42	0.038982637
93	0xbfb3c880	-1.4045563
94	0xbe6ebbb0	-0.23313785
95	0xbb9980f7	-0.0046845633
96	0x3d948341	0.07251597
97	0xbd8d7e46	-0.0690885
98	0x3e4594ec	0.1929509
99	0xbd63878b	-0.055549186
100	0xbcc2e6e0	-0.02379173
101	0x3e9df583	0.30851373
102	0x3db4fb67	0.08837014
103	0x3dad8087	0.0847178
104	0x3bbbc1c0	0.005729884
105	0x3db0c80b	0.08631905
106	0x3e19bfc7	0.15014564
107	0xbf3a93ff	-0.72882074
108	0x3e42442e	0.18971321
109	0xbe1b61b2	-0.15173987
110	0xbe180e12	-0.14849117
111	0xbe4a59b7	-0.19760786
112	0x3b4127bc	0.0029473146
113	0xbc9ae483	-0.018907791
114	0x3c2b6171	0.010460244
115	0xbd3ba886	-0.045815013
116	0xbdb2188b	-0.086960874
117	0x3da84339	0.08215947
118	0x3eb42d28	0.351907
119	0x3cff61d1	0.031174572
120	0x3a1496b7	0.000566821
121	0xbe813e94	-0.25243056
122	0x3e0b07af	0.1357715
123	0x3e72afc5	0.23699863
124	0x3b1090e0	0.0022059008
125	0xbb69d100	-0.0035677552
126	0x3e8f61bf	0.28004262
127	0xbd0bd5b0	-0.034139335
128	0x3e2d792f	0.16940759
129	0x3e743d56	0.23851523
130	0x3ee8a6d8	0.45439792
131	0x3e8886d5	0.2666537
132	0x3db885f9	0.09009928
133	0x3e465e35	0.19371875
134	0xbfd10110	-1.6328449
135	0xbbab953b	-0.0052362955
136	0x3d89160b	0.066936575
137	0x3df2bf71	0.11852921
138	0xbe86eb07	-0.26351187
139	0xbd6b6403	-0.057468425
140	0x3eb72730	0.35772085
141	0xbd150390	-0.03638035
142	0xbe2eed44	-0.17082697
143	0xbd8f025f	-0.06982874
144	0x3e4bf687	0.19918261
145	0x3d788f0e	0.060683303
146	0xbf8cd1c4	-1.1001515
147	0x3cd23843	0.025661593
148	0x3e86a6b3	0.26299056
149	0xbf809187	-1.0044411
150	0x3dce88ce	0.10084687
151	0xbf1eb32e	-0.61992157
152	0xbfa415e1	-1.2819177
153	0x3e101504	0.14070517
154	0xbddc33cc	-0.10752067
155	0x3d849970	0.064745784
156	0x3cf03234	0.029320814
157	0xbf62708e	-0.88452995
158	0x3e263496	0.16230997
159	0xbd8ff62a	-0.07029374
160	0xbf384712	-0.71983445
161	0xbf25e25e	-0.64798534
162	0xbeb28c9f	-0.3487291
163	0x3dedefef	0.11618029
164	0x3c835422	0.016031329
165	0x3df0cd7e	0.117579445
166	0x3dc7560d	0.0973321
167	0x3d93670c	0.07197389
168	0x3dfd1157	0.12356823
169	0x3e867cd3	0.26267108
170	0xbe8ba7f8	-0.27276587
171	0x3d6eddae	0.05831688
172	0xbe008957	-0.12552391
173	0xbcb345c5	-0.021883855
174	0x3cdcc4e0	0.026949346
175	0x3d8d8389	0.06909854
176	0x3e25cfed	0.16192599
177	0x3d62aaa1	0.055338506
178	0x3e07b49c	0.13252491
179	0xbd36551c	-0.04451476
180	0xbd19efaa	-0.037582077
181	0x3e0a075e	0.13479373
182	0x3c478487	0.012177593
183	0x3c9b3e62	0.018950645
184	0x3e5114e7	0.2041813
185	0x3df8af6f	0.12142836
186	0xbd59adb6	-0.05314418
187	0x3b661a40	0.003511086
188	0xbe9c1080	-0.30481339
189	0xbf56c8f6	-0.8390039
190	0xbbb6f030	-0.005582832
191	0x3e8abba9	0.27096298
192	0xbceb7260	-0.028741062
193	0xbf425405	-0.75909454
194	0x3dda3d18	0.10656184
195	0x3d8b9be2	0.06816842
196	0x3d8b1540	0.067911625
197	0xbee68096	-0.45019978
198	0x3e224904	0.15848166
199	0x3d9b09b4	0.0757021
200	0x3e02fd1e	0.12791869
201	0xbbb35556	-0.0054728193
202	0x3e5a19ce	0.21298906
203	0x3dde1c36	0.108452246
204	0x3e515176	0.20441231
205	0x3cc852b4	0.024453498
206	0x3ec86016	0.39135808
207	0x3e207b4b	0.15672033
208	0x3f09bf8a	0.5380789
209	0x3e719e09	0.23595442
210	0xbdc85df2	-0.09783544
211	0x3c5ca89f	0.013467937
212	0x3ea341ad	0.31886044
213	0xbc9a7576	-0.018854838
214	0xbcc01cd8	-0.023451254
215	0x3e5582c6	0.20850667
216	0xbd12dad1	-0.03585321
217	0x3dcc8f01	0.09988213
218	0x3e26a943	0.16275506
219	0xbc88128c	-0.016610406
220	0xbd9c9890	-0.076462865
221	0xbfa2aa92	-1.2708304
222	0xbe0f26e9	-0.13979687
223	0xbc7353da	-0.014851535
224	0x3d36d262	0.04463423
225	0xbd6ef9e0	-0.058343768
226	0x3e164a92	0.14676884
227	0x3ca7c3e9	0.02047916
228	0xbd59cbd2	-0.053172894
229	0x3dddcc3f	0.108299725
230	0x3d99370e	0.07481204
231	0x3dfe4c47	0.124168925
232	0x3d82c8bf	0.063859455
233	0xbcd668b2	-0.02617297
234	0xbc3721ef	-0.011177524
235	0xbf3111d0	-0.69167805
236	0x3d1b8565	0.03796901
237	0xbe831d24	-0.2560817
238	0x3d6620d0	0.056183636
239	0xbe7e0f4c	-0.24810523
240	0x3caa7f7b	0.02081274
241	0xbda23586	-0.07920365
242	0xbd57ec7c	-0.052715763
243	0x3bb7ae30	0.0056054816
244	0x3cd5ef46	0.026115071
245	0x3dd5ae7b	0.1043367
246	0x3e32f1d7	0.17475067
247	0xbcfcd955	-0.03086535
248	0xbd7b8aa0	-0.0614115
249	0xbeb94b90	-0.36190462
250	0x3d4cbfe7	0.0499877
251	0x3e3bf292	0.18354252
252	0x3d32af66	0.043624304
253	0xbdaf7ede	-0.0856912
254	0x3e5cd476	0.21565422
255	0xbd7f5471	-0.06233639

fc2.bias f4 [128]
0	0xbd3ca1f8	-0.046052903
1	0x3c7c62bf	0.015404402
2	0xbd9ddc68	-0.07708055
3	0xbd663ae7	-0.056208517
4	0xbd6b59c8	-0.05745867
5	0xbd20eea4	-0.039290085
6	0x3d21280f	0.039344843
7	0x3d0cb823	0.034355294
8	0xbd8d834b	-0.06909808
9	0x3cf59b21	0.029981198
10	0x3e0fd005	0.14044197
11	0x3c6d9ced	0.014502746
12	0xbd15269f	-0.036413785
13	0x3da608db	0.08107158
14	0xbdfeed42	-0.12447597
15	0xbd3b8cac	-0.045788452
16	0xbcc34764	-0.023837753
17	0xbda1c77d	-0.078993775
18	0xbc7f3bce	-0.015578223
19	0x3d7b5a2e	0.0613653
20	0x3d9164c1	0.070992954
21	0x3c789af2	0.015173661
22	0xbda584ea	-0.08081992
23	0x3c080aa3	0.008303317
24	0x3d5eba8e	0.05437713
25	0xb98b9001	-0.00026619437
26	0xbdcb9238	-0.099399984
27	0xbb95d328	-0.004572291
28	0xbc0bb832	-0.008527802
29	0x3dcce9cd	0.100055315
30	0xbd8b84e2	-0.06812455
31	0x3e4cd45d	0.20002885
32	0xbd521376	-0.05128809
33	0x3d4e3acb	0.050349038
34	0xba71de80	-0.00092265755
35	0xbdaef73a	-0.085432485
36	0x3dbe6a37	0.092976026
37	0xbd8dd013	-0.06924453
38	0x3dc15778	0.094405115
39	0xbda0b68b	-0.07847317
40	0xbd9c8b42	-0.07643749
41	0x3db3b06a	0.08773883
42	0xbc9d2611	-0.01918319
43	0xbd8c48e8	-0.06849843
44	0xbc41d84f	-0.011831357
45	0xbbd2939a	-0.006426287
46	0x3df4bff3	0.11950674
47	0x3d5c46bc	0.053778395
48	0xbc0d2760	-0.008615345
49	0x3dbd2e2d	0.09237323
50	0x3d7c8419	0.061649416
51	0x3d28e630	0.04123515
52	0xbd363a54	-0.04448922
53	0x3d0a4015	0.03375252
54	0x3d828436	0.063728735
55	0xbdd11bab	-0.10210355
56	0x3ddd0725	0.10792378
57	0x3d270ee1	0.040785674
58	0xbde4a03c	-0.11163375
59	0xbda41e81	-0.08013631
60	0x3dc302eb	0.09522041
61	0xbd2660e6	-0.040619753
62	0x3cbbe0ff	0.022934435
63	0x3d670c03	0.05640794
64	0x3cb8c0cd	0.022552872
65	0xbd92f916	-0.071764156
66	0xbd861aeb	-0.06548103
67	0x3e2d8b63	0.16947703
68	0xbdbe667b	-0.0929689
69	0x3e262b08	0.16227353
70	0xbd876895	-0.06611744
71	0xbc30ad4f	-0.0107835075
72	0x3ca38b7e	0.019963976
73	0x3d06e4fd	0.032933224
74	0x3d900a81	0.070332535
75	0x3dae975d	0.08524964
76	0xbdc260e0	-0.09491134
77	0xbdcc8f79	-0.09988303
78	0x3d77d8ca	0.06050948
79	0xbd53e545	-0.05173232
80	0x3d91bd17	0.07116144
81	0x3e3e1230	0.18561625
82	0xbd575814	-0.052574232
83	0x3d444b10	0.047923148
84	0xbd570c70	-0.052502096
85	0xbd6ecf1d	-0.058302987
86	0x3be26109	0.00690854
87	0xbdde04d1	-0.108407624
88	0x3d24840e	0.040165
89	0xbc842c24	-0.01613433
90	0xbd89624d	-0.067082025
91	0xbdc33e5d	-0.09533379
92	0xbc861ccb	-0.016371151
93	0xbdd1d505	-0.102457084
94	0xbd69fdc2	-0.057126768
95	0x3dad370a	0.084577635
96	0x3e04bf64	0.12963635
97	0x3d9f9897	0.07792776
98	0xbdcf7ea4	-0.10131577
99	0x3e2214dd	0.15828271
100	0x3d420289	0.0473657
101	0xbdbcf4fe	-0.09226416
102	0x3d9177bd	0.071029164
103	0x3da0a715	0.07844368
104	0xbd931138	-0.071810186
105	0xbda7d3d0	-0.08194697
106	0x3d29f966	0.04149761
107	0x3c4412bb	0.011967356
108	0x3da7f4cf	0.082009904
109	0x3dea8f4f	0.11453115
110	0x3cb9916c	0.02265235
111	0x3c601757	0.01367744
112	0xbc4503e2	-0.0120248515
113	0xbd84af16	-0.064787075
114	0x3d626683	0.055273544
115	0xbc92eb80	-0.01793456
116	0x3d92aeda	0.071622565
117	0x3daa1830	0.08305395
118	0x3c8bb553	0.017054236
119	0x3db1a38a	0.08673771
120	0x3d79606a	0.060882963
121	0xbce54e20	-0.027991354
122	0x3ac26710	0.001483174
123	0x3c80186a	0.015636642
124	0x3d602d4d	0.054730702
125	0x3ca9b2dc	0.02071517
126	0xbcfad1b2	-0.030617569
127	0xbd37c580	-0.044866085

fc3.weight f4 [128, 128]
0	0x3dfbec4b	0.12300929
1	0xbd1d07ba	-0.038337447
2	0x3e97234f	0.29519126
3	0xbd4656cb	-0.048422616
4	0xbda7ccf9	-0.08193392
5	0xbecf30eb	-0.4046701
6	0xbe1dac69	-0.153978
7	0xbead1634	-0.33806002
8	0x3d1dd22a	0.038530506
9	0x3dc258ab	0.09489568
10	0xbdc9aa73	-0.09846964
11	0xbbef9b80	-0.007312238
12	0xbb90a0a0	-0.0044136792
13	0xbe92786c	-0.286075
14	0x3e5d81cd	0.21631546
15	0xbc9a5b40	-0.01884234
16	0x3ac93cda	0.0015353218
17	0xbda892da	-0.08231135
18	0xbc6991a0	-0.014255911
19	0xbb2f3b44	-0.0026738206
20	0x3c847626	0.016169619
21	0xbdc2ad55	-0.09505717
22	0xbd9008e6	-0.07032947
23	0xbd6c58ea	-0.057701983
24	0xbc9f6398	-0.01945667
25	0x3cf29541	0.029612185
26	0xbd0f1eb4	-0.03494139
27	0x3da706d1	0.08155597
28	0xbc303020	-0.010753661
29	0x3dc2d991	0.09514154
30	0xbd655eb8	-0.055998534
31	0xbb28f2b3	-0.0025779426
32	0xbd57d747	-0.05269554
33	0xbe1cc9bb	-0.15311329
34	0x3d0fea8c	0.03513579
35	0x3d3f5e12	0.04672057
36	0xbe21ecb1	-0.15812947
37	0xbeafb27f	-0.3431587
38	0xbe63e733	-0.22256164
39	0xbd08be92	-0.033384867
40	0xbce74dac	-0.028235279
41	0xbd586db8	-0.05283901
42	0x3db2e655	0.087353386
43	0x3d407882	0.046989925
44	0x3ccfb23a	0.02535354
45	0xbd014359	-0.03155837
46	0xbd583408	-0.052783996
47	0x3ca2120d	0.019783998
48	0xbd59a2d2	-0.053133793
49	0x3e109fc1	0.14123441
50	0xbd8b15ce	-0.06791268
51	0x3e3552e8	0.17707407
52	0xbe6655a5	-0.22493608
53	0x3cef02ee	0.029176202
54	0x3d4e511d	0.050370324
55	0xbce831ce	-0.028344061
56	0x3f0414ac	0.5159404
57	0x3ebe34bc	0.37149608
58	0xbd55f272	-0.052233167
59	0x3d87155d	0.065958716
60	0x3dda55fc	0.106609315
61	0x3e22ad49	0.15886416
62	0xbd9a5955	-0.0753657
63	0x3d2a0a24	0.041513577
64	0xbd53752b	-0.051625412
65	0xbadf5140	-0.0017037764
66	0x3d9229af	0.07136857
67	0x3e617d31	0.22020413
68	0xbe4e69a2	-0.20157483
69	0xbc1216e4	-0.00891659
70	0xbe85fcae	-0.26169342
71	0xbd084ebe	-0.03327822
72	0x3e405bb0	0.18784976
73	0x3e505fa3	0.20348983
74	0x3f32fddd	0.69918615
75	0xbe8b6e0f	-0.27232406
76	0xbc3c6834	-0.011499453
77	0xbc16a938	-0.009195618
78	0xbe31c3cb	-0.17359845
79	0x3d87ccbf	0.06630849
80	0xbe406e37	-0.18792044
81	0xbe9b2cdf	-0.3030767
82	0xbd5b526c	-0.0535454
83	0xbe998364	-0.29983056
84	0xbd00193d	-0.03127407
85	0x3d12c848	0.035835534
86	0x3dab3eb3	0.08361568
87	0x3d7fe1b0	0.06247109
88	0xbe84a9f3	-0.2591091
89	0x3e1f6f8c	0.15569896
90	0x3e68392a	0.22678056
91	0x3e16b143	0.14716057
92	0xbc94b5fc	-0.018153183
93	0xbbe49360	-0.0069755763
94	0x3e7a6f4a	0.24456516
95	0x3e5ccb58	0.21561944
96	0xbcfa425f	-0.030549226
97	0xbe2add13	-0.16685896
98	0xbd32771e	-0.04357063
99	0xbe3347b2	-0.17507818
100	0x3ea7f85a	0.32806665
101	0xbc51b330	-0.012799069
102	0xbe7d2f9a	-0.2472519
103	0xbd5b7e4e	-0.05358725
104	0xbd926525	-0.07148198
105	0xbce0801e	-0.027404841
106	0x3dab45a9	0.08362896
107	0x3c3e3810	0.011610046
108	0xbe2524e0	-0.16127348
109	0x3cba3536	0.022730451
110	0x3b5c48a0	0.0033612624
111	0x3e38b42d	0.18037482
112	0x3d40e94e	0.047097497
113	0x3c9d2d24	0.019186564
114	0xbd9c8a79	-0.07643599
115	0x3c72a5c8	0.014810033
116	0xbe52597b	-0.20541947
117	0xbe3ac222	-0.18238118
118	0xbce529ac	-0.027973972
119	0xbe96edc6	-0.29478282
120	0xbe75b871	-0.2399614
121	0xbea734ac	-0.32657373
122	0x3cd6d381	0.0262239
123	0x3da9751b	0.08274289
124	0xbdb1c35e	-0.086798415
125	0x3dea5a82	0.11443044
126	0xbda0aa21	-0.078449495
127	0xbd3ada7e	-0.045618527
128	0x3b8afd1c	0.004241599
129	0x3d8893fd	0.066688515
130	0xbcf56924	-0.029957362
131	0xbd763ccc	-0.060116574
132	0x3c8ba97c	0.01704859
133	0xbcbf2879	-0.023334729
134	0xbd5c9378	-0.053851575
135	0xbcdfc1fe	-0.027314182
136	0x3c71c1c8	0.014755674
137	0xbd9b67be	-0.075881466
138	0xbd1e9543	-0.038716566
139	0x3d018e5f	0.031629916
140	0xbd609c82	-0.054836757
141	0x3d805c6d	0.06267629
142	0xbd2e3272	-0.042528577
143	0xbd491b33	-0.049098205
144	0xbda88766	-0.0822895
145	0x3d25e96a	0.040505804
146	0xbd5db497	-0.054127302
147	0xbc50a1dd	-0.012733904
148	0xbc8f44e2	-0.0174889
149	0xbce6ecd9	-0.02818911
150	0x3d807a91	0.06273378
151	0x3da695a1	0.08134008
152	0xbc4c8060	-0.012481779
153	0xbb6c46ce	-0.0036052945
154	0xbdae6357	-0.08515041
155	0xbc849324	-0.016183443
156	0xbd612b7a	-0.054973103
157	0xbcaf3606	-0.021388065
158	0x3d069da8	0.032865196
159	0x3cf97150	0.03044954
160	0xbda65964	-0.08122519
161	0xbb2e9901	-0.002664149
162	0xbcc064b0	-0.023485512
163	0x3d363706	0.04448607
164	0xbd1e364a	-0.038625993
165	0x3d0cbb08	0.034358054
166	0xbd6cb19b	-0.057786565
167	0xbd166bf4	-0.036724046
168	0xbda32c43	-0.07967427
169	0xbc4faa86	-0.012674933
170	0xbd65033c	-0.055911288
171	0xbc05ad00	-0.008158922
172	0x3d0880b6	0.033325873
173	0x3d9a57c9	0.07536275
174	0x3cbca1c0	0.023026347
175	0x3d99a0e0	0.075013876
176	0xbdb2e27c	-0.08734605
177	0xbd7278c0	-0.059197187
178	0xbbfafe40	-0.0076597035
179	0xbc0fed58	-0.0087846145
180	0x3cb8f5b8	0.022578105
181	0x3d82c447	0.06385093
182	0xbd3ddaba	-0.046351172
183	0xbd14591c	-0.036217794
184	0x3be103c6	0.006866905
185	0xbd3c6fa8	-0.04600492
186	0x3d85e23d	0.06537292
187	0xbc3ca1a8	-0.011513151
188	0x3b9792f3	0.004625672
189	0x3d0e5609	0.03475002
190	0xbcec862c	-0.028872572
191	0xbd57dc16	-0.052700125
192	0x3cb3ea1e	0.021962222
193	0x3d16a4b6	0.036778174
194	0xbd78d0f2	-0.06074614
195	0xbd244fab	-0.04011504
196	0x3d045736	0.032309733
197	0xbd71bec5	-0.059019823
198	0x3c640c3b	0.013918932
199	0xbd456812	-0.048194952
200	0x3d8e51bc	0.06949183
201	0x3cb1334b	0.021630904
202	0xbc8f1f8a	-0.017471094
203	0x3d55e2c0	0.0522182
204	0x3c0fd978	0.008779876
205	0xbd01575e	-0.03157746
206	0xbd6f6003	-0.058441173
207	0xbdc11d92	-0.09429468
208	0xbd3596c0	-0.04433322
209	0xbdaadf17	-0.08343332
210	0x3be02b62	0.006841109
211	0x3d3f3578	0.04668185
212	0xbd02471c	-0.031806096
213	0xbda4d6de	-0.08048795
214	0xbbef9457	-0.0073113847
215	0xbd609ea8	-0.054838806
216	0xbafb7e0a	-0.0019187343
217	0xbd2a08c6	-0.041512273
218	0xbda7096d	-0.08156095
219	0x3c904eba	0.017615665
220	0xbc3d6922	-0.01156071
221	0xbd5424af	-0.051792797
222	0x3d8c09fa	0.068378404
223	0x3cd60034	0.026123144
224	0xbd4a30a8	-0.04936281
225	0x3da08ad8	0.07838982
226	0xbc5622c0	-0.0130698085
227	0xbd7875fb	-0.06065939
228	0xbdb7c62c	-0.08973345
229	0xbd6e4168	-0.058167845
230	0x3d892b89	0.06697757
231	0xbd88541e	-0.06656669
232	0xbcb6ee88	-0.022330537
233	0xbd8d7927	-0.069078736
234	0x3d979bf3	0.07402792
235	0xbd1c1a3a	-0.03811095
236	0x3d342ea5	0.043989796
237	0xbd77556f	-0.06038421
238	0xbd1c3283	-0.03813411
239	0xbda127ec	-0.078689426
240	0x3ceea004	0.029129036
241	0x3d7cb5fa	0.061696984
242	0x3c841ca2	0.016126934
243	0xbd175cca	-0.036953725
244	0x3d0e1e2b	0.03469674
245	0x3b342829	0.0027489758
246	0x3d8f61fd	0.07001112
247	0xbdae6f28	-0.08517295
248	0xbd8538f9	-0.06505007
249	0x3d5a06a5	0.053228993
250	0xbd03ff92	-0.032226153
251	0x3db06fd5	0.0861508
252	0x3c993424	0.01870162
253	0xbd9e262a	-0.07722123
254	0xbd52c32f	-0.051455673
255	0x3d251972	0.04030747

fc3.bias f4 [128]
0	0x3e9f5cb3	0.3112541
1	0x3c655a90	0.013998643
2	0x3e8484a0	0.25882435
3	0x3c892519	0.016741322
4	0xbbfd3392	-0.007727095
5	0xbe0175e0	-0.12642622
6	0xbd92aee9	-0.07162268
7	0xbc743a46	-0.014906472
8	0x3e8d1d69	0.275615
9	0x3e10d872	0.14145067
10	0xbc50acab	-0.01273648
11	0xbcaba5ce	-0.020953085
12	0x3d8a371b	0.06748792
13	0x3eca01b4	0.39454424
14	0x3dee05ff	0.116222374
15	0xbdd2f7ea	-0.10301192
16	0x3f577754	0.84166455
17	0x3e38d2d4	0.18049175
18	0x3ce0d27e	0.02744412
19	0x3daf61e5	0.08563594
20	0x3d99b969	0.07506067
21	0x3d771522	0.06032289
22	0x3e77cddb	0.24199621
23	0x3e589288	0.21149647
24	0xbd02f3ce	-0.03197079
25	0xbd695a92	-0.05697114
26	0x3dbc32aa	0.09189351
27	0x3e1b331d	0.15156217
28	0x3e8aa1b3	0.27076492
29	0x3d8d9bac	0.06914458
30	0xbd4710f6	-0.04860016
31	0x3d900f88	0.07034212
32	0x3d6aa411	0.057285372
33	0xbdd5faf7	-0.10448258
34	0x3d06e1d3	0.032930207
35	0x3d930f38	0.07180637
36	0x3c39455a	0.011308039
37	0x3e161dad	0.14659758
38	0xbe38ba1c	-0.18039745
39	0xbd89810d	-0.067140676
40	0xbd519fd7	-0.051177826
41	0x3d45a84a	0.048256196
42	0x3e41448c	0.18873805
43	0x3dea06a7	0.1142705
44	0x3ecdfd5a	0.40232354
45	0xbda95270	-0.08267677
46	0x3b98c5a8	0.0046622343
47	0x3ec542e2	0.3852759
48	0xbdb13237	-0.08652156
49	0x3e0aae24	0.13542992
50	0x3c9b565b	0.018962076
51	0x3d5756fd	0.052573193
52	0x3d0fa84c	0.03507261
53	0x3cb0a4e6	0.021563005
54	0x3e65686a	0.22403112
55	0x3ea3e089	0.32007244
56	0xbc8c33cd	-0.017114544
57	0x3e642819	0.22280921
58	0xbe7fd97f	-0.24985312
59	0x3de3d4c0	0.11124563
60	0x3d254e90	0.040358126
61	0x3d4d258c	0.050084636
62	0x3f0de784	0.5543139
63	0x3c2462b2	0.010033296
64	0xbc119eec	-0.008887988
65	0xbb4a002c	-0.0030822856
66	0x3d9729d0	0.07381022
67	0x3e5b5cec	0.21422166
68	0x3dcdcb25	0.10048512
69	0x3e2c2e4a	0.16814533
70	0x3e7ecc77	0.24882685
71	0x3e7f879d	0.24954076
72	0x3e8a3e83	0.27000818
73	0x3d3b6342	0.045748957
74	0x3d1b8f1d	0.03797828
75	0x3e46a816	0.19400057
76	0x3c0cc28c	0.008591305
77	0xbde31a30	-0.11088979
78	0x3c900354	0.017579712
79	0x3d066e42	0.032819994
80	0x3ec9c90d	0.39411202
81	0xbce44e4e	-0.02786937
82	0x3deaa59b	0.11457368
83	0x3cae59e7	0.021283103
84	0xbdeacbf4	-0.11464682
85	0x3e3e92d0	0.18610692
86	0xbdcd45ca	-0.10023077
87	0x3d9ad506	0.07560162
88	0x3e5552bf	0.20832346
89	0x3d1606e7	0.036627676
90	0xbc3616ef	-0.011113866
91	0x3d791f7d	0.060821045
92	0x3e12f7b8	0.1435231
93	0x3e26238c	0.16224498
94	0x3e081c35	0.1329201
95	0x3bb5b181	0.0055448418
96	0xbce98be2	-0.028509084
97	0x3ddc07ca	0.10743673
98	0xbd438532	-0.047734447
99	0x3db50dd5	0.08840529
100	0x3f094e0c	0.53634715
101	0x3ddf210d	0.10894976
102	0xbc439048	-0.011936255
103	0x3dd53dde	0.10412191
104	0x3e8d7b26	0.27633017
105	0x3dd86919	0.10566921
106	0x3e841062	0.2579375
107	0x3d8f5470	0.06998527
108	0x3dfe7327	0.12424307
109	0x3e06cfc2	0.13165191
110	0xbdf69c10	-0.12041485
111	0x3b69d911	0.003568236
112	0x3e7516d0	0.23934484
113	0x3de25e28	0.11053115
114	0x3dbbeba1	0.09175802
115	0x3e0a7b61	0.13523628
116	0x3bbb0a15	0.005707989
117	0x3e0c8dca	0.13725963
118	0x3e0b8ba9	0.13627495
119	0x3df80445	0.12110189
120	0x3c9a23ad	0.01881584
121	0xbe062009	-0.13098158
122	0x3da4d521	0.080484636
123	0x3d9aa811	0.075515874
124	0xbb9dd5ac	-0.0048167314
125	0x3e7de18a	0.24793068
126	0xbdb1d3ac	-0.08682951
127	0xbc121b00	-0.00891757

fc4.weight f4 [9, 128]
0	0xbf3dce74	-0.7414315
1	0xbd799af7	-0.0609388
2	0xbea2bf52	-0.3178659
3	0xbc3898ef	-0.011266931
4	0x3d47c995	0.048776228
5	0xbdb18446	-0.08667807
6	0x3caf6878	0.02141212
7	0x3ead1682	0.33806235
8	0x3ee20aa2	0.44148737
9	0xbd9f4b93	-0.077780865
10	0xbe2df480	-0.169878
11	0x3e851d2e	0.25998825
12	0x3e6db44f	0.23213314
13	0xbdd864bb	-0.10566088
14	0x3ebb4aef	0.36580607
15	0x3d22b9a2	0.039727814
16	0xbe8600ff	-0.26172635
17	0x3dd51e7d	0.10406206
18	0x3ea4f4b0	0.32217932
19	0x3e485383	0.19563107
20	0x3edeee60	0.4354124
21	0x3e382cc0	0.17985821
22	0xbe33213d	-0.17493148
23	0x3e131c90	0.14366364
24	0xbe9f0ee1	-0.3106604
25	0x3ca938b4	0.020656921
26	0x3e70bd42	0.23509696
27	0xbe1c1c14	-0.15245086
28	0xbe548dd8	-0.20757234
29	0x3ea96385	0.3308374
30	0x3e8decdf	0.2771978
31	0x3e9053e8	0.28189015
32	0x3ea92a20	0.3303995
33	0x3d9724a9	0.07380039
34	0x3ecff28e	0.40614742
35	0x3ddd393c	0.10801932
36	0xbe97b46d	-0.2962984
37	0x3e54956b	0.20760123
38	0xbeb2418a	-0.34815627
39	0xbc349570	-0.011021957
40	0x3dcd1fd5	0.10015837
41	0x3da4629a	0.08026619
42	0xbf11c063	-0.56934184
43	0x3e4f1d6c	0.20226067
44	0xbe2eb9e7	-0.17063104
45	0xbd244152	-0.040101357
46	0x3eab2cee	0.33432716
47	0xbec8914c	-0.39173353
48	0x3d3433ea	0.04399482
49	0x3e4e8477	0.20167719
50	0xbcafbd44	-0.021452554
51	0xbd664445	-0.05621745
52	0x3eaed334	0.3414551
53	0x3eb1378c	0.3461269
54	0x3e044b65	0.12919386
55	0xbd2ffd5b	-0.042966228
56	0xbe96fb49	-0.2948859
57	0x3f287e82	0.65818036
58	0xbcb07de4	-0.021544404
59	0x3e870215	0.26368776
60	0x3cc81b02	0.02442694
61	0x3ea406a9	0.3203633
62	0x3f363a6b	0.7118289
63	0x3cf4f280	0.02990079
64	0xbd0bcd18	-0.03413114
65	0xbd276069	-0.04086343
66	0x3e4fd786	0.2029706
67	0xbe8b5231	-0.27211145
68	0xbe116adb	-0.14200918
69	0xbe195ea0	-0.14977503
70	0xbe465c7e	-0.1937122
71	0x3f1c25b6	0.6099504
72	0x3e847d9d	0.25877085
73	0x3e192248	0.14954484
74	0x3dc5e0f0	0.09662044
75	0xbea5fc5a	-0.3241909
76	0x3e86684b	0.26251444
77	0xbcbed78c	-0.02329614
78	0x3e3733a5	0.17890795
79	0xbd4b8d8e	-0.049695544
80	0x3f5f4367	0.8721222
81	0xbd5a9545	-0.05336501
82	0x3ea907c3	0.33013734
83	0x3e37104f	0.17877315
84	0x3d1d2326	0.0383636
85	0x3e069ce0	0.1314578
86	0xbd83329b	-0.064061366
87	0xbe54b9a1	-0.20773937
88	0x3e26d44d	0.16291924
89	0x3dff7c56	0.12474887
90	0x3da102a8	0.07861835
91	0x3e796f74	0.24358922
92	0xbe2ac947	-0.16678344
93	0x3eab5489	0.33462933
94	0x3eb211e1	0.34779266
95	0x3ebb3314	0.36562407
96	0x3e048562	0.12941507
97	0xbdb3ea0c	-0.08784875
98	0x3e4f062f	0.20217203
99	0xbe889e4f	-0.2668328
100	0xbea3e610	-0.3201146
101	0xbe6bc0d1	-0.23022772
102	0x3e909f9a	0.28246766
103	0x3eb00d15	0.3438498
104	0xbeaca732	-0.3372131
105	0xbeb4ce82	-0.35313803
106	0xbe50eb79	-0.20402326
107	0x3f178b77	0.5919718
108	0x3eb19450	0.34683466
109	0x3e9f9f15	0.31176057
110	0x3d5563aa	0.052097
111	0x3ec0200d	0.37524453
112	0x3e7aca4d	0.24491234
113	0x3e490ffc	0.19635004
114	0x3dc5709d	0.0964062
115	0x3e98b4d1	0.29825452
116	0xbc88dd90	-0.016707212
117	0x3e99bbe6	0.30026168
118	0x3e23bedb	0.15990774
119	0xbdb08240	-0.08618593
120	0x3eace8a4	0.3377124
121	0x3ca565b4	0.020190097
122	0x3e1e295e	0.15445468
123	0x3e3c2c70	0.18376327
124	0x3d5cc0a7	0.053894665
125	0xbe8a0acd	-0.26961365
126	0xbeb988d2	-0.36237198
127	0xbf195f0b	-0.5991065
128	0xbde527a9	-0.11189205
129	0xbd243978	-0.04009387
130	0xbd346be8	-0.04404822
131	0xbd80ba98	-0.0628559
132	0x3da97dfd	0.082759835
133	0xbdb4488f	-0.08802902
134	0x3cf10d80	0.029425383
135	0x3e9d851a	0.3076561
136	0x3e5e4271	0.21705033
137	0xbe8bc2b1	-0.27296975
138	0xbe2ca1bf	-0.16858576
139	0x3eb8c950	0.3609109
140	0x3e813e49	0.25242832
141	0xbece8b31	-0.4034057
142	0x3e89e8e1	0.26935485
143	0xbdb3526d	-0.08755956
144	0x3fa7a98d	1.3098618
145	0x3e9dd527	0.30826685
146	0x3fa1a175	1.2627398
147	0x3e9e3c14	0.3090521
148	0x3eb74c33	0.35800323
149	0x3e60f6c6	0.21969137
150	0xbf0be779	-0.54650074
151	0x3e87ff78	0.26562095
152	0xbeaa2b1c	-0.33236015
153	0x3d4d0a7b	0.050058823
154	0x3e869a8a	0.2628978
155	0xbeb8b681	-0.3607674
156	0xbe142edb	-0.14470999
157	0x3e99bd59	0.30027273
158	0x3e9eccc0	0.31015587
159	0x3e9c413f	0.3051853
160	0x3ea68bea	0.3252862
161	0x3cd9ac5d	0.026571447
162	0x3e8bbd87	0.27293035
163	0x3e9e72e1	0.3094702
164	0xbe712cdb	-0.23552267
165	0x3e8f52cb	0.27992854
166	0xbeb6f857	-0.35736343
167	0xbd1e6ac0	-0.038676023
168	0xbed1f2cf	-0.4100556
169	0xbd4a5c60	-0.049404502
170	0xbe07c44c	-0.13258475
171	0x3e19dcef	0.15025686
172	0x3e85ba5a	0.26118737
173	0x3d9a768f	0.075421445
174	0x3eaf56ed	0.34246007
175	0xbd225139	-0.03962824
176	0x3d382d66	0.04496517
177	0x3e59cfae	0.2127063
178	0x3df37f4b	0.118895136
179	0xbd0d555e	-0.03450524
180	0x3eb340fa	0.3501051
181	0x3ead0ba1	0.33797935
182	0x3e875ad3	0.2643648
183	0x3d3a9d02	0.04555989
184	0xbeb4daa6	-0.35323066
185	0x3e04e221	0.12976886
186	0x3e32c461	0.17457725
187	0x3ea24f83	0.31701288
188	0xbc6ec322	-0.0145728905
189	0x3eaabe77	0.33348438
190	0xbf3a2942	-0.72719204
191	0x3dd44679	0.10365004
192	0x3d4dea06	0.05027201
193	0xbceeeefc	-0.029166691
194	0x3e9a4a3b	0.30134758
195	0xbee7b71f	-0.45256898
196	0xbed62f1c	-0.41832817
197	0xbec79996	-0.38984364
198	0xbe29caeb	-0.16581313
199	0xbed95ed0	-0.4245515
200	0x3e2169c2	0.15763
201	0x3e856b5b	0.26058468
202	0x3ea133d5	0.31484857
203	0xbe0e4277	-0.13892542
204	0x3eadfd55	0.3398234
205	0x3dab0e23	0.08352306
206	0x3ea53984	0.32270443
207	0x3cf90f3b	0.03040277
208	0x3e5ad8f0	0.21371818
209	0x3d56f54a	0.05248002
210	0x3eace86a	0.33771068
211	0x3e9792de	0.29604238
212	0xbb7d94e0	-0.0038693473
213	0x3e97e0d2	0.29663712
214	0x3d851562	0.06498219
215	0xbe4ef1c4	-0.20209414
216	0x3ea88907	0.32917044
217	0x3e044574	0.1291712
218	0x3df5e925	0.120073594
219	0x3e92c522	0.28666025
220	0xbedaac6f	-0.4270968
221	0x3e787cf2	0.24266413
222	0x3e729e40	0.2369318
223	0x3e433638	0.19063652
224	0x3d822d58	0.06356305
225	0xbf11d679	-0.56967884
226	0x3e8ca938	0.27472854
227	0xbf018c34	-0.5060456
228	0xbb79e552	-0.003813107
229	0xbe9a93eb	-0.30190977
230	0x3eaa1a33	0.33223113
231	0x3ea160ff	0.31519315
232	0x3da9f6f0	0.08299053
233	0xbebcfb9e	-0.3691072
234	0xbf20a9ad	-0.62758905
235	0x3e7a265d	0.24428697
236	0x3e76dfc3	0.24108796
237	0x3e9f53f8	0.3111875
238	0xbdaeafc9	-0.08529622
239	0x3e5aae1f	0.21355484
240	0x3e777473	0.24165516
241	0x3e9e6c7e	0.30942148
242	0x3e8f6d76	0.280132
243	0x3e9ddccc	0.30832517
244	0xbcef584c	-0.029216908
245	0x3e878981	0.26472095
246	0x3e9c6156	0.3054301
247	0xbe98f452	-0.29873902
248	0x3ea2a945	0.31769767
249	0xbd2aae21	-0.04166997
250	0x3e925108	0.28577447
251	0x3e815b16	0.25264806
252	0x3b5ec5a2	0.003399231
253	0xbec1965e	-0.37810034
254	0xbeb1f3f4	-0.34756434
255	0xbf11c8c5	-0.56946975

fc4.bias f4 [9]
0	0x3e6bf29a	0.23041764
1	0x3df7c52f	0.12098157
2	0x3b9a60f5	0.004711265
3	0xbc8f6947	-0.017506255
4	0x3d874cb9	0.066064306
5	0x3e73d5c7	0.23812018
6	0x3d43abb2	0.047771163
7	0x3e8f2ed1	0.27965406
8	0x3e853f2e	0.26024765
